runs/10_agents_50000_episodes_mlp/models/actor_mlp.pth (torch, 25312 bytes, 4 tensors)

layers.0.weight f4 [128, 6]
0	0xbea6d196	-0.32581776
1	0xbeab8a91	-0.33504155
2	0x3ead8aef	0.3389506
3	0xbefc1c8a	-0.49240524
4	0xbeb7b022	-0.35876566
5	0x3d5ef7b6	0.054435454
6	0xbe0168ec	-0.12637681
7	0x3e549fba	0.20764056
8	0x3dd25dbc	0.10271785
9	0x3e95e358	0.29275012
10	0x3eb76898	0.35821986
11	0x3eb53638	0.35392928
12	0x3d8e8e07	0.06960683
13	0xbd8a4db5	-0.06753103
14	0x3cf64161	0.030060472
15	0xbe7898dd	-0.24277063
16	0xbd04a349	-0.032382283
17	0x3ed80a7b	0.42195496
18	0x3e9ff260	0.31239605
19	0x3e9ddc92	0.30832344
20	0x3d507029	0.050888214
21	0xbd583c44	-0.05279185
22	0xbeb320ac	-0.34985864
23	0xbe723708	-0.23653805
24	0x3d82a4da	0.06379099
25	0x3e86a7b4	0.26299822
26	0x3e51b331	0.20478512
27	0x3ecccd0b	0.40000185
28	0x3cae937e	0.021310564
29	0xbb14a874	-0.0022683414
30	0x3e2a73ca	0.16645733
31	0xbd05dc2d	-0.03268068
32	0x3dc62ec1	0.09676886
33	0x3e1734da	0.14766255
34	0x3f1dfd74	0.61714864
35	0x3e0ebf83	0.13940243
36	0xbe894dc2	-0.26817137
37	0x3ea413f7	0.32046482
38	0x3cc88d0c	0.024481319
39	0xbeb7f3e3	-0.35928258
40	0x3e902c36	0.2815873
41	0x3e2114eb	0.15730636
42	0xbe4b4aea	-0.19852796
43	0xbe426224	-0.1898275
44	0x3e8772bd	0.26454726
45	0x3e3df733	0.1855133
46	0x3ebbc57d	0.3667411
47	0x3ebd23bf	0.36941335
48	0x3e9b2c38	0.30307174
49	0xbecc5ddd	-0.39915362
50	0xbec6e4bf	-0.38846394
51	0xbdd70ee6	-0.105008885
52	0x3eddca37	0.4331834
53	0xbe42a098	-0.19006574
54	0x3e9b90d4	0.30383933
55	0x3e9225f4	0.2854458
56	0x3ec2fa9e	0.3808183
57	0x3ebad845	0.36493126
58	0xbea335b2	-0.31876904
59	0xbe879561	-0.26481155
60	0xbe988f1d	-0.29796687
61	0x3b9bdc7d	0.004756509
62	0x3c9d5466	0.019205283
63	0x3c9593d3	0.018258965
64	0xbdeddb91	-0.116141446
65	0x3d31775e	0.043326728
66	0x3e8e600e	0.2780766
67	0xbdac3f2f	-0.08410489
68	0xbc7e4730	-0.015519902
69	0xbe7d924e	-0.24762842
70	0xbecce6aa	-0.40019733
71	0x3eea1526	0.4571926
72	0xbecf879c	-0.4053315
73	0xbe9d4ca0	-0.30722523
74	0xbe1b365a	-0.15157452
75	0x3e8d5824	0.27606308
76	0xbebc997b	-0.36835846
77	0x3dec3f29	0.11535484
78	0xbeb640d2	-0.3559633
79	0xbec0df38	-0.37670302
80	0xbf0470d5	-0.5173467
81	0xbe940e44	-0.28917134
82	0x3ea2c0dd	0.31787768
83	0x3ca5b388	0.020227209
84	0xbe06c2da	-0.13160267
85	0xbc86b6ba	-0.016444553
86	0x3eb17e8c	0.3466686
87	0xbd903bd5	-0.07042662
88	0x3ec3c5e6	0.38236922
89	0x3c663345	0.01405031
90	0x3ec4a54c	0.38407362
91	0x3e7bea8a	0.24601188
92	0x3e41d1fe	0.18927762
93	0x3e8f2b96	0.2796294
94	0xbebb5dd7	-0.36595032
95	0xbe01ab44	-0.12662989
96	0xbeb2ed73	-0.34946784
97	0xbe309f12	-0.1724818
98	0xbe12d544	-0.14339167
99	0xbea04092	-0.31299263
100	0x3e8e3063	0.2777129
101	0xbe465088	-0.19366658
102	0xbe42d5e4	-0.19026905
103	0xbe8aad48	-0.27085328
104	0xbe9ef9af	-0.31049868
105	0xbed79ab7	-0.42110226
106	0xbde1d204	-0.110263854
107	0xbe94fc78	-0.29098868
108	0xbdd10b25	-0.10207204
109	0x3e8e40c0	0.27783775
110	0x3decde2a	0.11565812
111	0x3ea47a6f	0.3212466
112	0xbeba998c	-0.36445272
113	0x3ee48f38	0.44640517
114	0x3e7abfbf	0.24487208
115	0x3db1d098	0.08682364
116	0x3dda6a40	0.10664797
117	0xbe602abd	-0.21891303
118	0x3e1e669b	0.15468828
119	0x3f043636	0.5164522
120	0x3e879eae	0.2648825
121	0x3e0a17d4	0.13485652
122	0xbd870796	-0.06593244
123	0x3c586193	0.013206857
124	0xbebd4384	-0.36965573
125	0x3edbf948	0.42963624
126	0xbe6d038c	-0.23145884
127	0xbeaee919	-0.34162214
128	0xbe135a76	-0.14389977
129	0xbed8d31a	-0.42348558
130	0xbe911cae	-0.28342193
131	0xbdad926c	-0.084751934
132	0x3e39a3c4	0.18128878
133	0xbe922c18	-0.28549266
134	0x3e26c06c	0.1628434
135	0xbcbd0bf0	-0.023076981
136	0x3e7cb1ca	0.24677196
137	0xbe3d8d16	-0.18510851
138	0x3c5d5f9e	0.013511566
139	0xbe88c6e9	-0.26714256
140	0x3e84a935	0.25910345
141	0x3edf1836	0.4357316
142	0xb9206ff6	-0.00015300498
143	0xbea6d59d	-0.3258485
144	0x3c25634f	0.010094478
145	0x3dda62fd	0.10663412
146	0xbe595a74	-0.21225911
147	0xbdfe4fd2	-0.12417568
148	0xbdd92ec9	-0.10604627
149	0x3e9f62dc	0.3113011
150	0xbddfe42b	-0.109321915
151	0x3e924daf	0.28574893
152	0x3e65e847	0.22451888
153	0xbd796de5	-0.06089582
154	0xbce2660a	-0.027636547
155	0x3ef004eb	0.46878752
156	0xbd898c76	-0.06716244
157	0x3e8a443c	0.27005184
158	0x3eace693	0.33769664
159	0x3e87a858	0.26495624
160	0xbe09e522	-0.13466313
161	0x3e8c5f06	0.27416247
162	0xbd90374a	-0.070417956
163	0x3ed06a9f	0.40706345
164	0x3eca2829	0.39483765
165	0xbdfd3d75	-0.123652376
166	0xbd075860	-0.033043265
167	0xbec1ee62	-0.37877184
168	0x3e503c76	0.20335564
169	0x3e9920c7	0.2990782
170	0x3e126038	0.14294517
171	0x3e10280a	0.14077774
172	0xbed48d9d	-0.41514292
173	0xbc372b8b	-0.011179815
174	0x3e0a93db	0.13532965
175	0xbe23cf99	-0.15997161
176	0x3d40bcfb	0.047055226
177	0xbd52f0fd	-0.051499356
178	0xbe58a3aa	-0.21156183
179	0x3ea122e7	0.3147194
180	0x3e84ec55	0.25961557
181	0xbe84f42e	-0.25967544
182	0xbe8095ef	-0.2511439
183	0xbda6bbcd	-0.08141289
184	0xbeadc8e7	-0.3394234
185	0x3e29c9e7	0.16580926
186	0xbe05419a	-0.13013306
187	0x3e8bbf23	0.27294263
188	0xbe05b314	-0.13056594
189	0xbd79b07b	-0.06095932
190	0xbd8ce2eb	-0.06879219
191	0xbdfc92b1	-0.12332667
192	0x3dc9ed9b	0.09859773
193	0x3cd1d056	0.025612038
194	0x3e0f4b7c	0.13993639
195	0xbdfc03bb	-0.12305399
196	0x3e994ddf	0.29942223
197	0x3ee25ab8	0.44209838
198	0xbc03655e	-0.008019773
199	0x3e0e2c66	0.13884124
200	0xbde5a1d2	-0.112125054
201	0x3e9e55fc	0.30924976
202	0x3e4386ab	0.1909434
203	0x3e129646	0.14315137
204	0xbe17200c	-0.14758319
205	0xbe8b5db9	-0.27219942
206	0xbe818d41	-0.2530308
207	0xbe1f9774	-0.15585119
208	0xbe811c8b	-0.2521709
209	0xbe949b4e	-0.29024738
210	0x3e0d73fb	0.13813774
211	0x3ea9763d	0.3309802
212	0x3ea86bf6	0.32894868
213	0x3e63336c	0.22187585
214	0x3e5c071b	0.21487086
215	0xbe81c065	-0.25342098
216	0xbe0f76bb	-0.14010136
217	0x3c729053	0.014804917
218	0xbebb0298	-0.36525416
219	0xbea6312b	-0.32459387
220	0x3bcfe0b8	0.0063439272
221	0x3eab916e	0.33509392
222	0x3e73a515	0.23793443
223	0xbe3ffdc1	-0.18749143
224	0x3e0475e9	0.12935604
225	0x3e4478be	0.19186684
226	0xbef02d53	-0.4690958
227	0x3e4ca0a7	0.19983159
228	0x3e226bb4	0.15861398
229	0xbc725f50	-0.014793232
230	0xbebc1176	-0.36732072
231	0xbddc005e	-0.107422575
232	0xbf0820e0	-0.53175163
233	0xbe7037c7	-0.23458777
234	0xbdd2583c	-0.102707356
235	0x3e2f210a	0.17102447
236	0xbcab8de0	-0.020941675
237	0x3d7972a9	0.060900364
238	0x3e1aa0a0	0.15100336
239	0x3d3a26cd	0.04544716
240	0xbe8724f9	-0.26395395
241	0xbe87d21a	-0.26527482
242	0x3ea4f5d4	0.32218802
243	0xbdf4a7c1	-0.11946059
244	0x3dd80b77	0.10549062
245	0x3d80494b	0.062639795
246	0xbe685d77	-0.22691904
247	0x3ebd8ee2	0.37023073
248	0xbc65677b	-0.014001722
249	0x3ea83e75	0.3286015
250	0xbe71fb6c	-0.23631066
251	0x3ebe4e78	0.37169242
252	0x3e8d002e	0.275392
253	0xbd5b1ebe	-0.053496115
254	0x3dd4032a	0.10352166
255	0xbdd56dcc	-0.10421333

layers.0.bias f4 [128]
0	0x3e804051	0.2504907
1	0x3ee2a897	0.4426925
2	0x3f01bfcf	0.506833
3	0x3eb3d88e	0.35126156
4	0x3e8e5911	0.27802327
5	0x3de1f5c4	0.11033204
6	0xbe88dcc3	-0.26730928
7	0x3ed3c332	0.4135986
8	0x3ea7dd53	0.32786044
9	0x3e9a80cd	0.30176392
10	0xbe97b51b	-0.2963036
11	0xbd2e3b95	-0.04253729
12	0xbd20f8b5	-0.039299686
13	0x3e97b392	0.2962919
14	0xbeba30ec	-0.3636545
15	0xbdd94499	-0.10608787
16	0xbe9af352	-0.30263764
17	0xbe86a18b	-0.26295123
18	0xbe385f88	-0.18005192
19	0x3d343fbb	0.04400609
20	0xbc92370d	-0.017848516
21	0x3ec00751	0.37505582
22	0xbe34c0a4	-0.17651612
23	0x3f12bc11	0.57318217
24	0x3cffef9b	0.031242182
25	0x3e0422bb	0.12903874
26	0x3e880cca	0.26572257
27	0x3e5b4984	0.21414763
28	0xbeb03b63	-0.34420308
29	0xbe25a2a0	-0.16175318
30	0x3ed8dac1	0.42354396
31	0x3ec72344	0.38894093
32	0x3d975715	0.073896565
33	0xbe90cba2	-0.2828036
34	0x3f00ffce	0.50390327
35	0x3ebffc66	0.37497252
36	0xbe23b97c	-0.15988725
37	0xbdba852f	-0.09107434
38	0x3ded252d	0.11579356
39	0x3e028335	0.12745364
40	0xbd5e751a	-0.054310896
41	0x3e66907d	0.22516055
42	0xbc6a2fc9	-0.014293619
43	0x3f080c56	0.53143823
44	0xbe7e4b2b	-0.24833362
45	0xbe5178fb	-0.20456307
46	0xbc91e681	-0.017810108
47	0xbe81c86e	-0.25348228
48	0x3eeea0ce	0.4660706
49	0x3e0825f2	0.13295725
50	0x3ec6d50c	0.38834417
51	0xbd92e9a5	-0.071734704
52	0x3e360e58	0.17778909
53	0xbe6bccee	-0.23027393
54	0x3da332a1	0.07968641
55	0x3e183df5	0.14867385
56	0xbec5b4f0	-0.38614607
57	0xbe51a678	-0.20473659
58	0x3e1e385e	0.1545119
59	0xbe566e23	-0.20940451
60	0x3cd6bf20	0.026214182
61	0x3ef589a2	0.47956568
62	0x3dd10838	0.10206646
63	0xbd569eef	-0.052397665
64	0x3e5224a7	0.20521794
65	0xbe369844	-0.17831522
66	0x3eb43f23	0.3520442
67	0x3eae0b63	0.33993062
68	0xbde5dc8c	-0.112237066
69	0x3da3188e	0.07963668
70	0x3d4a2142	0.049348123
71	0x3e5fefb8	0.21868789
72	0x3ed4d5bb	0.41569313
73	0x3dab77c9	0.083724566
74	0x3eab4ea4	0.33458436
75	0x3e9cecf3	0.30649528
76	0x3e695abb	0.22788517
77	0x3e8dec85	0.27719513
78	0xbde84e16	-0.11343019
79	0xbe0649d0	-0.13114095
80	0xbc18e50d	-0.009331954
81	0xbdd5c450	-0.10437834
82	0x3ee9c62b	0.45659003
83	0xbebf29c8	-0.37336564
84	0x3e6b6ccf	0.22990726
85	0xbe196d6f	-0.14983152
86	0xbe9f455d	-0.31107607
87	0x3ec089b3	0.37605056
88	0xbcafa930	-0.02144298
89	0xbe5f3714	-0.21798354
90	0xbe4faf47	-0.20281707
91	0xbe996966	-0.29963225
92	0x3dd2ed8d	0.102992155
93	0xbe271624	-0.1631704
94	0x3e814e40	0.25255013
95	0xbb3f06a3	-0.0029148243
96	0xbe82c70d	-0.2554249
97	0x3ecb1557	0.39664719
98	0x3e6a58e9	0.22885479
99	0xbe8a637b	-0.27029023
100	0x3ef43653	0.47697696
101	0x3ea63e98	0.3246963
102	0x3df17def	0.11791598
103	0xbec67898	-0.3876388
104	0x3f00179d	0.5003603
105	0x3e3f430e	0.18677923
106	0xbe12e3d4	-0.14344722
107	0xbe890c27	-0.26767084
108	0x3e286e3b	0.164483
109	0xbe86bb18	-0.26314616
110	0x3e0a0830	0.13479686
111	0x3eb60e4a	0.35557777
112	0x3e7b954b	0.2456867
113	0x3ead95d8	0.33903384
114	0x3eda9cce	0.42697757
115	0x3da26476	0.07929318
116	0x3ec62ce9	0.3870614
117	0x3ecb2550	0.39676905
118	0xbe5d1566	-0.21590194
119	0xbdcd8ace	-0.100362405
120	0x3ef0572a	0.469415
121	0xbea1756d	-0.315349
122	0x3e8c2614	0.273728
123	0x3ead4e53	0.3384882
124	0x3de81692	0.1133243
125	0xbe56e9bc	-0.209876
126	0xbe0ce827	-0.13760434
127	0x3e77a2ad	0.2418315

layers.2.weight f4 [38, 128]
0	0xbd62286b	-0.055214327
1	0xbd00eb47	-0.031474378
2	0xbc5c3bf9	-0.013442033
3	0xbd3aff18	-0.045653433
4	0xbdb0d6c0	-0.0863471
5	0xbd79aacd	-0.060953904
6	0xbd3b4421	-0.04571927
7	0x3d865004	0.065582305
8	0xbe017267	-0.12641297
9	0xbcd187b0	-0.025577396
10	0xbc7e4845	-0.01552016
11	0xbd35cc91	-0.044384543
12	0xbdc3f6b6	-0.09568541
13	0x3ce0a46c	0.027422152
14	0xbd265ec2	-0.04061771
15	0xbce13b29	-0.02749403
16	0xbd62929f	-0.05531561
17	0xbd9b2da1	-0.075770624
18	0x3d2b7b96	0.041865908
19	0x3dc61f4a	0.09673937
20	0x3c9874a8	0.018610314
21	0xbde47550	-0.11155188
22	0xbdaa853c	-0.08326194
23	0xbe3b1288	-0.18268788
24	0x3db5635b	0.08856841
25	0xbd089be3	-0.03335179
26	0xbd84f486	-0.06491952
27	0x3c8c50ed	0.017128432
28	0x3c2c8cf2	0.010531651
29	0x3d156ba8	0.036479622
30	0xbd218b90	-0.039439738
31	0x3c2c82b2	0.010529207
32	0x3d7e3c92	0.062069483
33	0x3d21f2ca	0.039538182
34	0xbcc0ef5d	-0.023551637
35	0x3d5792de	0.052630298
36	0x3d98cdc3	0.07461121
37	0x3d833275	0.06406108
38	0xbdaf57ee	-0.08561693
39	0x3da39059	0.079865165
40	0x3d9daf01	0.07699395
41	0xbd695dd9	-0.056974266
42	0xbd8aae56	-0.06771533
43	0xbd403bf8	-0.04693219
44	0xbbc6aff6	-0.0060634566
45	0xbdd4541d	-0.10367606
46	0x3c113bd4	0.008864362
47	0x3dae09c7	0.08497959
48	0xbdad1e03	-0.0845299
49	0x3dad3609	0.08457572
50	0x3be9f18e	0.0071393913
51	0xbd83e747	-0.06440597
52	0xbe078ab2	-0.13236502
53	0xbd970307	-0.07373624
54	0xbd841cb6	-0.06450789
55	0x3dc92086	0.098206565
56	0x3c47a4e2	0.012185307
57	0xbbdb5c2c	-0.0066943374
58	0x3d37b2dc	0.044848308
59	0x3da6767f	0.0812807
60	0xbb6ddb32	-0.003629398
61	0xba2b9f39	-0.00065468583
62	0x3dd388cc	0.10328826
63	0x3d22dfa6	0.03976407
64	0xbd60cc55	-0.054882366
65	0xbcb3bbff	-0.02194023
66	0xbde93cc3	-0.113885425
67	0x3d86597a	0.06560035
68	0x3d86eb5e	0.065878615
69	0xbd4465e6	-0.04794874
70	0x3d8468d6	0.06465308
71	0x3c3b14c2	0.011418523
72	0x3d807a52	0.06273331
73	0xbda88c22	-0.08229853
74	0xbc95f85a	-0.0183069
75	0xbd9f81f6	-0.0778846
76	0xbca907cf	-0.020633606
77	0xbcc167e8	-0.023609117
78	0xbd8404ec	-0.06446251
79	0xbd1684d1	-0.036747757
80	0x3c6f2031	0.014595077
81	0xbc142b6b	-0.009043555
82	0xbd388083	-0.045044433
83	0xbda557cc	-0.080733865
84	0xbd7b88c7	-0.061409738
85	0x3c73d083	0.014881256
86	0x3dd3b609	0.10337455
87	0x3d96f859	0.07371587
88	0x3c58ac6e	0.013224704
89	0xbdb42798	-0.087966144
90	0x3d95accd	0.0730835
91	0x3bb38598	0.005478572
92	0x3dc2ec59	0.09517736
93	0xbdb92001	-0.090393074
94	0xbddf0514	-0.108896405
95	0xbd25ffdc	-0.04052721
96	0xbd4ab16f	-0.04948562
97	0x3d5182b3	0.051150035
98	0x3a9877c2	0.001163237
99	0xbd72b220	-0.059251904
100	0x3d7a54df	0.061116096
101	0xbdb9b3f8	-0.090675294
102	0xbd88d50b	-0.0668126
103	0x3d827e07	0.06371694
104	0x3bc01c46	0.0058627455
105	0xbda41dce	-0.08013497
106	0x3db59d86	0.08867936
107	0xbd8776a1	-0.066144235
108	0xbd56dd20	-0.052456975
109	0xbc3a5f2c	-0.01137523
110	0xbd9c9edf	-0.0764749
111	0x391b046b	0.00014783598
112	0x3d0ffd37	0.035153594
113	0xbd3d0b6b	-0.046153467
114	0xbcbebcab	-0.023283323
115	0xbc9983e6	-0.018739652
116	0xbd076ecd	-0.033064652
117	0xbc1b19a1	-0.00946656
118	0x3d4d9348	0.050189286
119	0x3c4073d3	0.011746365
120	0xbd17f1ec	-0.03709595
121	0x3dd1f260	0.102513075
122	0xbd800ee3	-0.062528394
123	0x3a8d4e32	0.001078075
124	0xbd8b58c7	-0.06804042
125	0x3d770829	0.060310517
126	0x3cdbc55e	0.02682751
127	0x3d187b62	0.037227042
128	0xbe0c262d	-0.13686438
129	0x3d1191a4	0.035539284
130	0x3c4223c8	0.011849351
131	0xbd1b97c5	-0.037986536
132	0x3d4389b7	0.047738757
133	0x3dc74270	0.09729469
134	0x3d8cc6ac	0.06873831
135	0xbcc15290	-0.02359894
136	0x3c41f8a3	0.011839065
137	0xbca17e3a	-0.01971351
138	0x3d3e3bdd	0.04644381
139	0xbd851b62	-0.064993635
140	0xbd8c1b96	-0.06841199
141	0xbdbdc044	-0.092651874
142	0x3d450ca6	0.048107766
143	0x3d3535c2	0.04424072
144	0xbdc503c4	-0.09619859
145	0xbc9668d6	-0.018360537
146	0xbc6dbbfb	-0.01451015
147	0x3d655f17	0.055998888
148	0xbdec3202	-0.11532976
149	0xbe392b6c	-0.1808297
150	0x3e00701e	0.1254277
151	0xbdb1c8f4	-0.08680907
152	0xbd9080a5	-0.07055787
153	0xbd9b5b53	-0.07585778
154	0x3d46000b	0.048339885
155	0xbcc262e7	-0.023728801
156	0xbdcb1e22	-0.09917857
157	0xbd63fb7a	-0.05565975
158	0xbd2c85b3	-0.042119693
159	0x3c69001c	0.0142212175
160	0x3d250263	0.04028548
161	0x3b1e5bf7	0.0024163702
162	0xbd4a3269	-0.04936448
163	0xbda3eb08	-0.08003813
164	0xbc6f707f	-0.0146142235
165	0xbd916c4b	-0.07100733
166	0xbe2b09f9	-0.16703023
167	0x3d5d2089	0.053986106
168	0xbb5033ef	-0.0031769236
169	0xbcb12156	-0.021622341
170	0xbd987e9f	-0.07446026
171	0x3bc508c7	0.006013009
172	0xbd17c93a	-0.03705714
173	0x3c35235c	0.011055794
174	0xbd867f21	-0.06567217
175	0x3bf90141	0.0075990264
176	0xbd0397e7	-0.032127287
177	0x3c313a0d	0.010817063
178	0xbd2dc123	-0.042420518
179	0xbd096861	-0.03354681
180	0x3d4a6e8e	0.04942184
181	0xbdbe112a	-0.092806175
182	0xbbd2d81c	-0.0064344537
183	0xbd8559d8	-0.06511277
184	0x3d85bff8	0.06530756
185	0x3d143181	0.036180023
186	0xbdc6ca0c	-0.09706506
187	0xbdefbcb0	-0.11705911
188	0x3bd53855	0.0065069594
189	0xbe8002fb	-0.25002274
190	0xbdc4ffff	-0.0961914
191	0xbd94bf2e	-0.07263027
192	0xbbcc77ee	-0.0062398827
193	0xbdf76166	-0.12079124
194	0x3dccbb0d	0.099966146
195	0x3d089c98	0.033352464
196	0x3d4911aa	0.04908911
197	0xbc23b948	-0.009992905
198	0xbe113d4c	-0.14183539
199	0xbdbcf88e	-0.092270955
200	0xbda83fec	-0.08215317
201	0xbd1690c6	-0.03675916
202	0xbd908c81	-0.07058049
203	0xbe04784a	-0.12936512
204	0xbd6ad47b	-0.057331543
205	0x3b124ebe	0.0022324766
206	0x3d794f31	0.06086654
207	0xbd9863d6	-0.07440917
208	0xbdc15787	-0.09440523
209	0xbdc8d666	-0.09806518
210	0xbde2edda	-0.11080523
211	0x3d298423	0.04138578
212	0x3dd53f5f	0.10412478
213	0xbd56e93d	-0.052468527
214	0xbdb8b0fc	-0.09018132
215	0x3d2f9ff2	0.042877145
216	0x3ddaacbd	0.106774785
217	0x3b649145	0.0034876626
218	0xbcf1f492	-0.029535566
219	0x3a633a0b	0.0008668012
220	0x3d5dc3d9	0.054141853
221	0xbd416d6a	-0.047223486
222	0x3cb59b16	0.022168677
223	0xbdcc49a5	-0.09974984
224	0xbd09f31c	-0.033679113
225	0x3ce25b14	0.02763132
226	0xbc9695b5	-0.018381933
227	0x3d683e11	0.056699816
228	0xbbc92f6b	-0.006139686
229	0x3cf54889	0.029941814
230	0xbdc8229c	-0.09772226
231	0x3d2419bb	0.0400636
232	0xbd3bdeac	-0.045866653
233	0xbd37b63f	-0.044851538
234	0xbc302699	-0.01075139
235	0xbc5ae1a1	-0.013359458
236	0x3dbbb532	0.0916542
237	0x3d64287c	0.05570267
238	0xbe121227	-0.14264737
239	0x3dc8777c	0.09788415
240	0x3d97a669	0.07404787
241	0xbc8849a3	-0.016636675
242	0xbb447494	-0.0029976713
243	0x3d45b415	0.048267443
244	0xbd9498a3	-0.07255676
245	0x3cd19089	0.025581615
246	0xbd286a10	-0.041116774
247	0xbca724bc	-0.020403259
248	0xbdec4aed	-0.115377285
249	0xbdcc0374	-0.09961596
250	0x3d8c6b28	0.06856376
251	0xbd869307	-0.06571012
252	0x3cc2f03f	0.023796199
253	0x3db775cb	0.08958014
254	0xbe0bdab8	-0.13657653
255	0xbd3e006f	-0.046387132

layers.2.bias f4 [38]
0	0xbd466f6a	-0.048446096
1	0xbd58b2a5	-0.052904744
2	0xbe32ee07	-0.17473613
3	0x3cad673f	0.021167396
4	0x3cfc5e67	0.030806733
5	0x3d371e72	0.04470677
6	0x3eae15be	0.34000963
7	0x3e1ed276	0.15509972
8	0x3d8170b4	0.063203245
9	0x3e35c85f	0.17752217
10	0xbdd77809	-0.10520942
11	0xbe1df32b	-0.15424792
12	0x3df844d7	0.12122505
13	0xbde008fd	-0.109392144
14	0x3dfafe19	0.122554965
15	0xbd7c5325	-0.06160273
16	0x3db3a469	0.08771593
17	0x3d5c13ee	0.053729944
18	0x3d7828d0	0.060585797
19	0x3e102004	0.14074713
20	0xbd19c648	-0.03754261
21	0x3d4d3705	0.0501013
22	0x3e35e23c	0.17762083
23	0xbd2d6083	-0.04232837
24	0xbce92f96	-0.028465074
25	0xbdaf7d77	-0.085688524
26	0xbe8090f3	-0.25110587
27	0x3dd6c17c	0.10486123
28	0x3c0ffbd1	0.008788065
29	0x3e85dd68	0.26145482
30	0xbe1ec4c8	-0.15504754
31	0x3e22315e	0.15839145
32	0x3dea1017	0.1142885
33	0xbd89ecad	-0.067345954
34	0xbe6e9614	-0.23299438
35	0x3ca5f78e	0.020259645
36	0xbe38af51	-0.18035628
37	0x3db6fbbd	0.08934734
