runs/10_agents_50000_episodes_mlp/models/critic.pth (torch, 19272 bytes, 3 tensors)

fc1.weight f4 [128, 32]
00000000: 0481 3d3e 2a4e 07be 37a8 c73d 3d02 9f3d
00000010: 8201 3bbe 83ef c1bd 5d73 4e3c 8b86 023e
00000020: 66b1 473e 21e7 403d 0b20 503e 2ff6 f23d
00000030: 0a66 303e 9458 11bd dbb5 eebd 5ffa d03d
00000040: ccb9 a83c b958 41bd 2678 bd3d 5f20 293e
00000050: 0211 e7bd 7c13 133e 2046 9ebd 9cc2 0bbd
00000060: cc2a 393e 7e3c 49be 536f 93bd 4942 483e
00000070: b8f7 ddbc 3985 aa3d 3720 14be 5226 04be
00000080: f6d0 98bb 59b8 103e 29ad 643d c6b0 013e
00000090: a373 c8bd e3a6 18be 5d62 f4bd aed8 dc3d
000000a0: 52ae 463e 6b39 5a3d 4423 acbc 9a31 1c3e
000000b0: 10b8 0d3d da4b a93c bae7 f03d a5d5 a8bd
000000c0: 2a90 453c a6f7 ddbc 91a9 c2bd 1120 11be
000000d0: e6ac 0b3d 9f54 0c3d 3bfa 7c3d d343 d63b
000000e0: 397d 443d 12b2 e4bd 198d 28be efab 7a3d
000000f0: 3205 18bc 9d89 113d a02b 2abe 3d7a 45be
00000100: 73a8 10be c749 aa3d bc0b 5e3e dcb7 8a3c
00000110: e3ec a6bd 2059 123e 09e7 6c3d da7a 543d
00000120: 6d0b 0dbe 87cf f5bd 2848 b6bd 2a5f e4bd
00000130: d285 003e cfd6 bf3d fd1a 4dbd 2f10 16be
00000140: 9c83 303e 4fcc c7bd 01d6 e43d 5af6 c2bc
00000150: f5f9 f6bd 9548 07be 27d4 513d 5fcf b2bd
00000160: 1d0b 3ebd 49c9 473d 3e37 d8bd d612 2ebd
00000170: 1faa 36be 6fe1 eebb 9964 573d c891 623d
00000180: ea88 da3d 59c1 1e3e 6d7e 103e 2d55 b3bd
00000190: 0a82 133e f6ca acbd b7b2 e53d 7795 4bbd
000001a0: f449 713d 3711 3abd 1ba3 20bd 0db3 8b3d
000001b0: 3f2f 2b3e 9a6e ccbd 088b 8cbd 2246 03be
000001c0: cb33 9fbd d934 16be 375c 8e3d 56d2 943c
000001d0: c22c 29b9 a8a0 d13d f76a aebd 684c d13d
000001e0: 81f7 3fbd 439a 0bbd db59 0fbd 4ec0 673d
000001f0: 690d 30be 690b 203e 1e91 0fbd 12a6 8a3d
00000200: b66d 0abd a61d 033d f715 e9bc fdc6 bd3d
00000210: dc4c aabd fa0d 99bd 1c6d c6bd bf1e 473d
00000220: 9b41 e7bd 2d11 403e 5078 813c 69ed a03d
00000230: 76fb 433e 0910 133e e92a d33d 83a3 a13d
00000240: d251 cf3d 6a93 aabd 4d49 c6bd 8e92 37bd
00000250: 30d9 d93d 5751 403d 806e cf3d bc08 2cbd
00000260: 38b4 5fbd 32cd 293d 4d3c c43d 3390 44be
00000270: 130f c9bc 993f b7bc e424 5a3d a747 0f3d
00000280: ddf4 3cbd b707 d63c 680a f2bd 2324 f73d
00000290: ae1a 1f3e 7779 5b3c 211e 263e 163c 303e
000002a0: c1a2 963d 7136 58bd fe94 bb3d 4a6b 06be
000002b0: 203c 893d 9883 e43d 0b26 dcbc af83 bcbd
000002c0: b725 7dbc a852 2a3d 2348 913c f92b 933d
000002d0: d694 76bb b501 293e 7888 113e f496 e23d
000002e0: 48a5 923d 81ad 81bd 35cd d83c 3ef4 173c
000002f0: b945 21be e1b0 ed3c a1c1 7a3c be4c f6bd
00000300: f9db b63d 4635 d13d f80e 353e fbd5 8f3d
00000310: 9731 4f3b 2a83 d1bc 9f1e d83d eff3 9dbd
00000320: ce1a 2e3d d4cb 0a3e cad7 dfbd 842f 2e3d
00000330: 4176 0e3e 571d 443e 4520 713e ec0f 143e
00000340: 1c06 5fbd 8182 9d3d e111 213e 931d febd
00000350: 039c ecbd 03de bdbd a4cf 553e 0f91 17be
00000360: 0770 27be 7971 27bc 6495 173e 3a21 56bd
00000370: dee5 d7bd a149 2d3d bdf3 ad3d 0006 d4bb
00000380: 4303 6fbd 776f 953d b87b 683d 1fc6 10be
00000390: 7958 d9bc ddfc 0a3d 41ab a33d 33c2 ec3b
000003a0: 338f ad3d d148 5f3d e95d b13d 15ea 003d
000003b0: 3f46 2f3e 5e04 043e d7f1 e039 c6d0 ac3c
000003c0: 8a60 51bc 1e22 6dbe 9fdd 173e 38e6 25be
000003d0: c23f 58be 41b7 27bd 47e6 e7bd 0618 a0bd
000003e0: c6c1 193d a01a 293e f047 943d f099 50be
000003f0: 0fb1 873d 2485 78bc 1d46 64be 0b84 89bd
0.18506247 -0.13213411 0.09748881 0.07764099 -0.18262294 -0.09469511 0.012600747 0.12746637
0.19501266 0.04709542 0.20324723 0.11863362 0.17226425 -0.035484865 -0.1165578 0.102040045
0.020596407 -0.047203753 0.09251432 0.16516255 -0.11282541 0.14362901 -0.07728219 -0.03412114
0.18082732 -0.19651982 -0.07198968 0.19556536 -0.02709566 0.083261915 -0.14465414 -0.12905243
-0.004663582 0.14132823 0.0558292 0.1266509 -0.09787681 -0.14907412 -0.11932824 0.10783516
0.19402435 0.053277414 -0.02101291 0.15253296 0.034599364 0.020666052 0.11762948 -0.082438745
0.012058297 -0.027095627 -0.095049985 -0.14172389 0.034100436 0.03426039 0.061762076 0.006538847
0.047970984 -0.11166777 -0.16460074 0.061199125 -0.009278582 0.03553163 -0.16618204 -0.19284911
-0.14126758 0.08314853 0.21684164 0.016933374 -0.08150651 0.14291811 0.05783752 0.051874973
-0.1377389 -0.12002473 -0.089004815 -0.111509636 0.12551048 0.09367143 -0.050074566 -0.14654611
0.17237705 -0.09755766 0.111736305 -0.02379911 -0.12059394 -0.13211282 0.051227715 -0.08730959
-0.046397317 0.048775945 -0.105574116 -0.042498432 -0.17838334 -0.0072900574 0.05258617 0.05531481
0.106706455 0.15503444 0.14110728 -0.0875648 0.14405075 -0.08437149 0.11215728 -0.049703088
0.058908418 -0.045426574 -0.03921805 0.068212606 0.16717242 -0.09982033 -0.068624556 -0.12819722
-0.077735506 -0.14668597 0.06951182 0.018166702 -0.0001613377 0.10235721 -0.08516496 0.102196515
-0.046866897 -0.034082662 -0.034997802 0.05657988 -0.17192616 0.15629353 -0.035050504 0.06769957
-0.033796035 0.032010697 -0.028452856 0.0926647 -0.08315441 -0.07473369 -0.0968878 0.048613306
-0.1129181 0.18756552 0.01580444 0.078577824 0.19138893 0.14361586 0.10310919 0.078925155
0.10123028 -0.08328898 -0.0968195 -0.0448175 0.10637128 0.04695257 0.10128498 -0.042000517
-0.05461523 0.041455455 0.09581814 -0.19195633 -0.02454332 -0.022369193 0.053257838 0.034980442
-0.046131957 0.026126726 -0.11818391 0.120674394 0.15537521 0.013395659 0.16222431 0.17210421
0.073552616 -0.052786294 0.091592774 -0.13126865 0.06700921 0.11157912 -0.026873609 -0.09204804
-0.015450886 0.041582733 0.017734593 0.071861215 -0.0037625334 0.16504557 0.14212215 0.11063948
0.07160431 -0.06331921 0.026465038 0.0092745405 -0.15749253 0.029015006 0.015304954 -0.12026356
0.08928675 0.10215239 0.17681491 0.070232354 0.0031615251 -0.02557524 0.105527155 -0.07712542
0.04250603 0.13554317 -0.1092983 0.042525783 0.13912298 0.19151817 0.23547466 0.14459199
-0.054449186 0.07690907 0.15729477 -0.124079846 -0.115531944 -0.09270861 0.2087999 -0.14801429
-0.16351329 -0.010219925 0.14803082 -0.05227778 -0.105418906 0.042306546 0.08493755 -0.006470442
-0.05835272 0.07296651 0.056758612 -0.14138077 -0.026531445 0.033932555 0.079916485 0.007225299
0.08474579 0.054512803 0.0866049 0.031473238 0.1711664 0.12892291 0.00042904794 0.021095645
-0.012779364 -0.23157546 0.14830635 -0.16201103 -0.21118072 -0.04094625 -0.11323219 -0.07817082
0.037538312 0.16514063 0.072402835 -0.20371222 0.06625568 -0.015168462 -0.22292371 -0.06714638

fc1.bias f4 [128]
00000000: fe76 3f3d 9300 f73c 9142 b23b 0e2a e5bc
00000010: 14a4 d93d b462 29be bf79 c83d 8ef5 083d
00000020: a653 1abe ed91 d93d df63 ac3c bdc5 6b3e
00000030: 26b6 e3bd 8c42 90bd 5984 96bd a56b a1bd
00000040: 7d3a 2dbe bfce 0c3e 5a3f 0fbe e16e c9bd
00000050: 51ad 43bd 82d5 0b3e ed5c 563e 53b0 28bd
00000060: 48ef 193e f3ae 7dbd 43f2 023e 2845 f9bd
00000070: c888 d93c 74bb 10be 1b99 01bc b613 1f3e
00000080: a1ae 83bd bb24 f5bd d7f7 dfbb b66d 34bc
00000090: c279 85bc 07c9 a0bc 308d b13c 07cd 413e
000000a0: ec87 ab3d 1982 70bd 825b 263e e869 bc3d
000000b0: fe80 d9bd 16e2 fdbd 3fe9 e8bd 1846 febd
000000c0: f040 c13d a8e5 333e a380 55bc e966 4e3d
000000d0: 774d e0bd 22f8 cc3d 4698 0bbe 0eda ef3c
000000e0: d502 2abc 66b5 8abd 4d0e d7bd ee59 9a3d
000000f0: 8149 ee3d 6e4b f5bc 57e1 ddbd bee5 c8bd
00000100: 1d4e 443e fd23 07be a15f dfbd d29f 05be
00000110: 8058 ee3d 8164 e5bd a3f8 bfbd 10a9 95bb
00000120: 0ce7 3b3d be6f 80bd ef68 92bd 595a dabc
00000130: 92a8 ae3d b9ff 0dbe b2b4 853d 2ece 22be
00000140: def0 223d 61b0 013c d435 2ebd f1db cebd
00000150: 01c4 54be 5299 b33d 0986 b6bd 8f07 79bd
00000160: 689b 9abd fdd3 16bd e6eb 153d 1d52 8bbc
00000170: 973e 81bc 9ac2 823d 37a0 39bc 250c 37bd
00000180: 88ee 18be 78b9 07be e6ca 153e 6f05 4ebd
00000190: ee3f b13d 5350 943d ca6b 26be 94c7 26bd
000001a0: 53d2 09be 92c9 1abd 2e52 1c3e 07a2 60bd
000001b0: 8178 29bd 670c f53d 0532 09bd bf0c 843b
000001c0: e208 883c f22b e9bd 3805 963d 50b3 3e3e
000001d0: e169 c9bd f05b 91bc 2fb8 30be d62c 1e3e
000001e0: f3eb bc3d 0422 fe3c cf69 9abd dfab 3b3e
000001f0: 39ca f03c 8de5 363c 2c16 9fbd d1b0 d0bc
0.04674434 0.030151641 0.0054400642 -0.027974155 0.106269985 -0.16541559 0.09788846 0.033437304
-0.15070972 0.10623536 0.021043716 0.2302465 -0.111187264 -0.07043943 -0.07349462 -0.0788186
-0.16916843 0.13750742 -0.1398901 -0.098356016 -0.04777271 0.13655666 0.20933886 -0.04118378
0.15032685 -0.061934423 0.12787728 -0.12171394 0.02655448 -0.14134008 -0.007910038 0.15534863
-0.06429792 -0.119698964 -0.0068349647 -0.011012485 -0.01629341 -0.019627107 0.021673769 0.18925868
0.083755344 -0.05871782 0.16245845 0.091998875 -0.106203064 -0.12396638 -0.11372613 -0.12415713
0.09436214 0.17568076 -0.013031158 0.05039111 -0.10952275 0.10008265 -0.13632306 0.029278781
-0.010376652 -0.0677288 -0.105007745 0.07536684 0.116351135 -0.029943194 -0.10833996 -0.09809445
0.19170423 -0.13197322 -0.10906912 -0.13049248 0.11637974 -0.1120081 -0.093735956 -0.004567273
0.04587464 -0.06271313 -0.07148921 -0.02665441 0.08528246 -0.13867082 0.065286055 -0.15898964
0.03978049 0.007915587 -0.042531803 -0.10100544 -0.20777895 0.08769478 -0.08912284 -0.060798224
-0.07549173 -0.03682326 0.036601923 -0.017006928 -0.015776915 0.063847736 -0.011329702 -0.044689316
-0.14934742 -0.13254344 0.14628181 -0.05029815 0.08654772 0.07241883 -0.16252056 -0.040717676
-0.13459139 -0.03778989 0.15265724 -0.05484202 -0.041374687 0.11965256 -0.033494968 0.0040298398
0.016605798 -0.11385335 0.07325214 0.1862309 -0.09834648 -0.017744035 -0.1725776 0.15446791
0.09224691 0.03102208 -0.07539713 0.18327282 0.029393302 0.011163128 -0.07767901 -0.025474938

fc2.weight f4 [1, 128]
00000000: d20e 033e a886 b23c 4f97 f93d a53b a73d
00000010: 212a 76bd ea7f 60bd e241 b4bd 2fdf 23be
00000020: f479 96bd f2ae 9c3d a320 a8bd 59a2 fb3d
00000030: dace f33d 80f1 0bbe 2b76 ebbd 54e8 4b3d
00000040: 0e9f c0bd 2a16 36bd eb01 21be 2ec6 9ebd
00000050: a1e4 543d 40f0 d93d 9272 d23d 76f7 9abd
00000060: 99e4 abbd 0905 bfbd 2d2c 4fbd baed d83d
00000070: dc15 aabd 93d6 bfbc a3fe 943d 0ec8 103e
00000080: f306 b03d 4d5c a5bd 4b98 1f3d 0863 f53d
00000090: 03c7 01be 1e27 f0bd 9abb c0bd c045 fe3d
000000a0: 9394 57bd fe10 c3bd ad92 843d 2d2f 05bd
000000b0: e97e 87bd a56e 13be 8986 8cbd 4954 a5bd
000000c0: 809e 9dbc 2a02 d03d 3651 87bd 32b3 4b3d
000000d0: 69af 193e fdb6 243c 6e79 b7bd 5ca5 61bd
000000e0: a1bc dbbd 47f9 093e 5dd6 afbd 5393 013e
000000f0: a501 b1bd 31a3 b93d f9bb 043e fb66 9ebd
00000100: 7190 683d 070a aa3d 3af7 e13d a559 3dbd
00000110: a39f 043e 9cdc cebd eb13 14be e35e b93d
00000120: 381e a3bd 2f60 053d 50c0 233d 4dd6 03be
00000130: e0e8 2abd f995 d4bd d6ad 14be e816 58bd
00000140: 9008 eabd 6397 f1bd 5efe 8ebd 5928 fa3d
00000150: 7879 fbbd e3c3 753d 9721 fa3d b165 893c
00000160: e8f1 013e 4b35 ecbd 5ba5 173d c88d 1abd
00000170: 5146 5ebd 9202 c0bd f662 ba3d a73f c7bd
00000180: e47a 5ebd 34f4 acbd 406f 063e b35f a23d
00000190: 8942 4f3d 96c9 173d 1e7e 83bc f348 a53d
000001a0: 6ebb 9fbd d632 aa3c 69ba 253d e040 5ebd
000001b0: 5007 f8bd dfc0 20bd c649 ad3d 4a2b 393d
000001c0: 8ecf e33d 147b 033e 689c dfbd f223 adbd
000001d0: 2431 c2bd 9303 10be 4e83 8ebd fff0 b03d
000001e0: 59b0 a63c a242 20be 4f66 d73d b538 e03b
000001f0: c519 c63d c804 fd3d e7b8 abbd 48b5 2fbd
0.12798622 0.021792725 0.12187063 0.08165673 -0.06009877 -0.05480949 -0.08801629 -0.16003107
-0.073474795 0.07650556 -0.0820935 0.12286825 0.11904688 -0.13666344 -0.11497148 0.049782112
-0.09405337 -0.04445473 -0.15723388 -0.077526435 0.05197585 0.10641527 0.10275759 -0.07566731
-0.08393211 -0.09327132 -0.05057924 0.10592218 -0.083049506 -0.023417747 0.072751306 0.14138815
0.085950755 -0.080742456 0.038963597 0.11981779 -0.12673573 -0.11726211 -0.09410782 0.124156475
-0.052631926 -0.095247254 0.06473289 -0.032515693 -0.06616003 -0.14397676 -0.06861598 -0.08072717
-0.019240618 0.10156663 -0.06607287 0.04973144 0.1500832 0.010053393 -0.08958708 -0.05508934
-0.107293375 0.13473998 -0.085858084 0.12653856 -0.08642892 0.090643294 0.12962331 -0.07734486
0.056778375 0.08302694 0.11033483 -0.04622807 0.12951522 -0.10100672 -0.14460723 0.09051301
-0.07964748 0.03256243 0.039978325 -0.12874718 -0.041725993 -0.103801675 -0.14519438 -0.05275622
-0.114274144 -0.11796453 -0.069821104 0.12214727 -0.12279028 0.060001265 0.12213438 0.016772123
0.12689936 -0.11533602 0.03702293 -0.03773287 -0.054266278 -0.0937549 0.091009066 -0.097289376
-0.054316416 -0.084450155 0.13128376 0.079284094 0.050600562 0.03705748 -0.016051348 0.080705546
-0.07799421 0.020776194 0.040460978 -0.05426109 -0.1211077 -0.039246436 0.08461337 0.0452073
0.11123572 0.1283992 -0.10918504 -0.08454122 -0.09482029 -0.14063863 -0.06958638 0.08639716
0.020347761 -0.15650418 0.10517561 0.0068426975 0.09672884 0.123544276 -0.08384877 -0.042897493
