runs/10_agents_50000_episodes_graph/models/critic_gnn.pth (torch, 9186 bytes, 10 tensors)

layer.w1.weight f4 [32, 9]
-0.24227767 -0.23049021 -0.20411368 0.04866328 -0.20466633 0.45250973 0.07277221 0.29116923
0.12729332 0.033462882 0.014434497 -0.18648814 0.29569685 0.26672333 0.5231373 0.16569683
0.08421588 0.12221833 -0.026154798 0.2172523 -0.3378268 -0.20493951 -0.6139879 0.24762693
-0.12010341 -0.26448557 0.05111277 0.2768705 0.16096029 0.17047967 -0.3189443 -0.3219052
-0.08043553 -0.031174453 0.21700525 0.31354588 0.28381693 -0.12664187 0.26111555 -0.08334191
-0.03460581 0.06917963 0.41908625 -0.1772006 -0.25598523 -0.31837356 -0.12896168 -0.0306462
0.11192033 -0.051417377 -0.52699244 0.007428652 -0.10727056 -0.08962715 -0.072599694 0.20561847
-0.22808184 -0.155632 -0.41208822 0.024287298 -0.46700022 -0.25062522 -0.18956995 -0.18766475
-0.014829239 -0.2976775 -0.09417605 0.46126172 0.03716103 -0.16846737 0.12054988 -0.117217064
0.060516916 -0.24830493 0.06868072 0.04035128 -0.36885062 -0.32961792 0.19522889 0.015065114
0.010789673 -0.25389194 -0.2101911 -0.266234 -0.3103708 0.4029177 -0.46297944 -0.08328242
0.14790866 0.15076241 0.2780279 -0.09251881 -0.29868692 0.024145495 -0.3798075 -0.5030611
-0.25809625 0.22910297 -0.3143127 -0.14360675 0.2969203 -0.03964747 -0.28227952 -0.18634129
0.47897932 -0.13029765 -0.29531294 -0.24884021 0.14279966 0.28310347 0.052640405 -0.049680136
0.53929377 0.14112242 -0.048819005 -0.30372012 0.021769127 -0.096737504 0.28538162 0.19849117
-0.08576135 -0.19515494 -0.23159845 0.0057478603 0.17902002 -0.13486835 -0.23647904 0.10436972
0.22298703 0.341653 0.002967742 -0.34834614 0.42568558 -0.11642818 -0.22006151 -0.03423234
-0.19497082 0.12873138 -0.24322502 -0.049593184 -0.31589633 0.3846586 0.04893919 -0.1031185
0.012979746 0.27700698 -0.2306023 0.055626035 -0.023419537 -0.35702994 0.061960872 -0.1382111
-0.03740724 0.29935682 -0.14524965 -0.21265166 -0.14263745 -0.12221566 0.37943453 0.11777827
0.09456178 -0.03346964 0.121701 0.18717992 0.22707552 0.047804296 -0.5593118 0.44912222
0.27990058 -0.10488443 -0.32779998 -0.055098616 -0.13480675 -0.20319162 -0.28195426 -0.27631375
-0.27948567 -0.34983855 0.1790173 0.098730765 -0.2788757 0.24612753 -0.34351724 -0.13255827
-0.06273808 0.25581196 -0.21756706 0.045007985 -0.3275934 0.25303733 0.1390154 -0.311559
0.10734433 0.16571335 0.034171 -0.35608292 -0.10225181 -0.024986744 0.19797873 0.314712
-0.13674703 0.1353138 0.22646244 0.55379474 0.37460715 -0.04337625 0.08447838 -0.19874668
-0.29183218 -0.25998363 -0.2590503 0.41172075 -0.43594182 0.33535138 -0.12588465 0.10741067
-0.2994629 -0.1347249 0.011081351 0.17430227 0.51751983 0.32798803 -0.2523917 0.22818267
-0.32368 0.16900072 0.014646928 0.20825627 -0.24519736 -0.22841217 0.13402607 0.35056582
0.31108356 -0.3279304 -0.18384549 0.21971373 -0.08221707 -0.13959506 0.36336628 -0.029143287
0.13062961 -0.19740152 -0.2657892 0.17910668 -0.14896989 -0.30664986 0.13266864 0.18943726
-0.40508354 0.3275724 0.037185192 -0.2927794 -0.29407176 0.2245493 0.14045149 0.27552807
00000000: a317 78be a005 6cbe 2d03 51be 2653 473d
00000010: 0d94 51be 5baf e73e 9909 953d 2214 953e
00000020: 2e59 023e 6010 093d ab7e 6c3c bff6 3ebe
00000030: 9465 973e f68f 883e 53ec 053f 6eac 293e
00000040: 6079 ac3d 9b4d fa3d 9642 d6bc 6377 5e3e
00000050: a2f7 acbe aadb 51be 502e 1dbf ea91 7d3e
00000060: c7f8 f5bd a76a 87be a05b 513d f8c1 8d3e
00000070: c6d2 243e 3992 2e3e ab4c a3be c2d0 a4be
00000080: 62bb a4bd 9161 ffbc a036 5e3e 1689 a03e
00000090: 7450 913e 68ae 01be f0b0 853e 2aaf aabd
000000a0: d2be 0dbd 0dae 8d3d 7992 d63e 1374 35be
000000b0: 7f10 83be dc01 a3be 880e 04be bd0d fbbc
000000c0: 7c36 e53d 079b 52bd fae8 06bf 0d6c f33b
000000d0: abb0 dbbd 708e b7bd 26af 94bd a68d 523e
000000e0: 498e 69be ff5d 1fbe 3afd d2be 28f6 c63c
000000f0: a71a efbe f351 80be a01e 42be 302b 40be
00000100: 56f6 72bc 2f69 98be 5fdf c0bd 7f2a ec3e
00000110: 2a36 183d b682 2cbe dbe2 f63d 800f f0bd
00000120: 96e0 773d a643 7ebe 7aa8 8c3d 6247 253d
00000130: fdd9 bcbe aec3 a8be 15ea 473e abd3 763c
00000140: 2bc7 303c 20fe 81be 563c 57be d34f 88be
00000150: ece8 9ebe 3b4b ce3e a40b edbe f98f aabd
00000160: 5e75 173e 7661 1a3e ac59 8e3e 807a bdbd
00000170: 7eed 98be c6cc c53c 2176 c2be 9dc8 00bf
00000180: 3125 84be f899 6a3e 98ed a0be a60d 13be
00000190: f005 983e 6365 22bd f186 90be 40d0 3ebe
000001a0: c73c f53e bf6c 05be 4233 97be f8cf 7ebe
000001b0: 133a 123e f0f2 903e 779d 573d 667d 4bbd
000001c0: 280f 0a3f 6582 103e 70f6 47bd 3481 9bbe
000001d0: 2b55 b23c 501e c6bd 8a1d 923e 4541 4b3e
000001e0: a6a3 afbd b2d6 47be 2528 6dbe 8c58 bc3b
000001f0: 0651 373e ee1a 0abe 9027 72be cbbf d53d
00000200: b656 643e 24ed ae3e 737e 423b 6d5a b2be
00000210: 76f3 d93e e671 eebd ce57 61be 3637 0cbd
00000220: 6ea6 47be 29d2 033e fb0f 79be 3922 4bbd
00000230: 2abd a1be f9f1 c43e 7674 483d cb2f d3bd
00000240: 00a9 543c dcd3 8d3e 0223 6cbe 20d8 633d
00000250: 54da bfbc a1cc b6be afca 7d3d 3687 0dbe
00000260: 5638 19bd 4c45 993e 53bc 14be 5bc1 59be
00000270: 8d0f 12be 344c fabd 3e45 c23e bc35 f13d
00000280: 9ba9 c13d 7617 09bd 603e f93d 18ac 3f3e
00000290: 7c86 683e 70ce 433d 0f2f 0fbf 59f3 e53e
000002a0: 214f 8f3e a6cd d6bd 66d5 a7be 16af 61bd
000002b0: c80a 0abe 7711 50be 4f5c 90be ff78 8dbe
000002c0: bf18 8fbe 0a1e b3be 5050 373e 5b33 ca3d
000002d0: ccc8 8ebe db08 7c3e 7ee1 afbe 5bbd 07be
000002e0: d37c 80bd c9f9 823e e6c9 5ebe 4b5a 383d
000002f0: 52ba a7be 1c8e 813e 0e5a 0e3e a984 9fbe
00000300: 58d7 db3d c3b0 293e e4f6 0b3d 8050 b6be
00000310: 6669 d1bd 00b1 ccbc f0ba 4a3e ee21 a13e
00000320: 6a07 0cbe b38f 0a3e c5e5 673e 7ec5 0d3f
00000330: 82cc bf3e 4bab 31bd 0003 ad3d 4084 4bbe
00000340: 076b 95be 931c 85be 3ea2 84be 10cd d23e
00000350: c433 dfbe 2db3 ab3e e8e7 00be 20fa db3d
00000360: 3453 99be 53f5 09be 8e8e 353c 4b7c 323e
00000370: 2e7c 043f 0cee a73e 7c39 81be b8a8 693e
00000380: 63b9 a5be 860e 2d3e abf9 6f3c 2241 553e
00000390: 0415 7bbe e1e4 69be 213e 093e 5d7d b33e
000003a0: 5846 9f3e 7ee6 a7be fe41 3cbe a3fc 603e
000003b0: 6c61 a8bd 02f2 0ebe 250b ba3e e7bd eebc
000003c0: c5c3 053e a023 4abe 8615 88be be67 373e
000003d0: 908b 18be 3601 9dbe 4ada 073e d7fb 413e
000003e0: 1c67 cfbe 92b7 a73e 804f 183d 2ee7 95be
000003f0: 9390 96be 40f0 653e 84d2 0f3e 0412 8d3e

layer.w1.bias f4 [32]
0.034533907 0.0665335 0.20836417 -0.120053805 0.44688228 0.36006778 -0.56819963 -0.094626054
0.16089483 0.15090956 0.10637656 -0.38675773 -0.069771685 -0.017921256 0.12142897 0.45067093
0.30280322 0.35080835 0.1392957 -0.11110403 0.06998709 -0.41987035 0.00951194 0.040114675
-0.18740822 0.17790505 -0.21376897 0.32063127 0.44018367 -0.12076501 -0.36878002 -0.15289977
00000000: 6d73 0d3d b742 883d 6b5d 553e c5de f5bd
00000010: c1cd e43e ce5a b83e 8875 11bf 4ecb c1bd
00000020: 9dc1 243e 0988 1a3e f4db d93d 1c05 c6be
00000030: 75e4 8ebd 99cf 92bc c0af f83d 57be e63e
00000040: 0609 9b3e 279d b33e 88a3 0e3e 828a e3bd
00000050: 6455 8f3d 3ff9 d6be f8d7 1b3c 494f 243d
00000060: f1e7 3fbe be2c 363e 41e6 5abe c829 a43e
00000070: c15f e13e a553 f7bd bcd0 bcbe c291 1cbe

layer.w2.weight f4 [32, 9]
0.23532638 0.25022 0.049418017 -0.07339033 -0.11957422 -0.08970954 0.11185906 0.25098562
0.3443012 -0.01707824 -0.1597052 -0.19873536 -0.28831372 0.01822609 0.019002052 -0.25388655
-0.104287826 0.095795006 -0.11336379 -0.1768008 -0.12691969 -0.247071 -0.34951147 0.31559917
-0.11690408 -0.19413833 -0.26549596 -0.3720067 -0.19395077 0.22084814 0.022640793 -0.19565848
0.032020807 -0.15426157 -0.5353887 -0.35168332 -0.10839716 -0.42267445 -0.3252532 -0.18297018
0.28099942 -0.37418422 0.19157217 0.05154412 0.094191656 -0.30414587 0.132348 -0.23141569
-0.024556462 0.20168225 -0.07069001 0.09740081 0.15318231 -0.25530428 -0.2033153 -0.11226453
-0.18974367 -0.039082505 -0.26048487 0.075693 -0.054072782 -0.46369377 0.25343874 0.01913761
-0.20174296 0.005160076 -0.16037859 -0.10902072 -0.20768552 -0.15570204 0.059695493 0.27913016
-0.2966042 -0.27961028 -0.060955804 -0.19367231 -0.19145614 0.017572934 0.24674013 -0.26500893
-0.0625319 0.38412875 -0.10068544 -0.07919734 0.17061232 -0.26434046 -0.19654346 -0.11253108
-0.31212637 -0.18065332 0.1455318 -0.4543448 -0.06267894 0.3334347 -0.06624326 -0.08505466
0.080486156 0.04205113 0.20141338 -0.3607567 0.1474225 -0.016842868 -0.31506807 -0.060309865
0.1882393 0.18881962 0.22507626 0.27710637 0.18171734 -0.08360638 0.2686832 -0.1494663
0.34650695 0.22229183 0.11034644 -0.050983362 0.122103855 -0.19510885 -0.27279282 0.29198655
-0.079640284 0.2568567 -0.08658785 -0.15486807 -0.31515145 -0.18360433 -0.29217976 -0.42479122
-0.1966949 -0.12024298 0.16932942 0.16902815 -0.2815808 0.14582498 0.22627926 0.037941813
-0.13124363 0.11638906 -0.1824977 0.31645548 0.16476206 0.072940536 0.32527635 -0.028791752
-0.32629812 -0.022135327 -0.18140139 0.19365023 -0.1096178 -0.3451366 -0.021304995 0.093033805
-0.023589179 -0.35952774 0.08659034 -0.11875995 -0.14925157 -0.2856929 0.15075941 0.17660224
0.36564118 -0.2924166 -0.103388935 0.41357258 -0.1322182 0.21877328 -0.22918257 -0.082227916
-0.21186268 0.35912648 0.23170966 -0.32651377 0.15300822 0.14543901 0.108980685 -0.03507571
0.10697694 -0.1075789 -0.5181697 0.0044438466 -0.36775875 0.30208004 -0.054044273 -0.04599283
-0.24581851 0.33933312 0.24841535 0.057955354 -0.022531005 0.14036828 -0.19766632 -0.30060655
-0.081521906 -0.08194268 -0.1016754 -0.20333399 -0.26517788 0.07624806 -0.20477583 0.48974243
-0.19777848 -0.14231263 0.1030394 -0.061765857 -0.09282539 0.40779832 -0.060740914 0.16705246
-0.34342808 -0.032340046 -0.17697912 0.3184719 -0.37587756 0.14880075 0.07948401 0.1432848
0.3478451 0.062083274 -0.03239179 -0.20611133 0.24886058 0.11484579 -0.15677264 0.18173514
0.07906022 0.009251484 0.50362176 -0.30934945 0.21430293 0.37007058 0.3683339 0.28763407
0.34775907 -0.14753433 0.2095336 -0.3495821 -0.18263789 -0.0701941 0.12796007 -0.24873728
0.2023505 0.021976424 0.04646661 -0.37072778 -0.034496896 -0.09912253 -0.19999804 -0.0857064
-0.28156188 -0.017589256 0.18887502 0.057882123 0.108637296 0.32521594 0.07896878 0.15562698
00000000: 66f9 703e d61c 803e 8c6a 4a3d ab4d 96bd
00000010: 54e3 f4bd a3b9 b7bd 5d16 e53d 3081 803e
00000020: 3f48 b03e aae7 8bbc c389 23be 4881 4bbe
00000030: db9d 93be e24e 953c 31aa 9b3c 6bfd 81be
00000040: db94 d5bd 2c30 c43d 462b e8bd 450b 35be
00000050: 3cf7 01be 2e00 7dbe 2bf3 b2be 3796 a13e
00000060: 686b efbd 33cc 46be 16ef 87be aa77 bebe
00000070: 089b 46be 0426 623e 2f79 b93c b25a 48be
00000080: 4028 033d bff6 1dbe 3c0f 09bf d60f b4be
00000090: 55ff ddbd c968 d8be 9687 a6be 895c 3bbe
000000a0: 28df 8f3e 1395 bfbe 7f2b 443e ed1f 533d
000000b0: 8ee7 c03d 02b9 9bbe 3c86 073e 3cf8 6cbe
000000c0: a22a c9bc cb85 4e3e edc5 90bd 137a c73d
000000d0: d3db 1c3e 3eb7 82be e331 50be f2ea e5bd
000000e0: 2a4c 42be fa14 20bd 465e 85be ee04 9b3d
000000f0: 6c7b 5dbd 4569 edbe b9c2 813e 7ac6 9c3c
00000100: b595 4ebe db15 a93b 493a 24be 4146 dfbd
00000110: 83ab 54be 5b70 1fbe 4383 743d 26ea 8e3e
00000120: 81dc 97be 1429 8fbe cbac 79bd 0952 46be
00000130: 140d 44be 1df5 8f3c 72a9 7c3e 40af 87be
00000140: ba10 80bd 86ac c43e 2b34 cebd 3732 a2bd
00000150: ffb4 2e3e a257 87be b042 49be b276 e6bd
00000160: 07cf 9fbe 2ffd 38be 4a06 153e e29f e8be
00000170: d15d 80bd f4b7 aa3e 8caa 87bd 2331 aebd
00000180: edd5 a43d ce3d 2c3d 4f3f 4e3e 1ab5 b8be
00000190: edf5 163e 0efa 89bc 9a50 a1be 7a07 77bd
000001a0: cec1 403e ee59 413e 647a 663e e3e0 8d3e
000001b0: 1c14 3a3e d239 abbd d890 893e b20d 19be
000001c0: 5c69 b13e 78a0 633e 50fd e13d eed3 50bd
000001d0: 9611 fa3d 9dca 47be 80ab 8bbe 437f 953e
000001e0: 721a a3bd b982 833e f854 b1bd bc95 1ebe
000001f0: 885b a1be c602 3cbe 9698 95be 3c7e d9be
00000200: 636a 49be f441 f6bd b164 2d3e b715 2d3e
00000210: 5c2b 90be 2553 153e c0b5 673e e068 1b3d
00000220: bb64 06be 635d ee3d ade0 3abe 7406 a23e
00000230: 63b7 283e d961 953d 9f8a a63e aedc ebbc
00000240: 8c10 a7be 2555 b5bc 49c1 39be 3f4c 463e
00000250: 4c7f e0bd bfb5 b0be d087 aebc 8288 be3d
00000260: 183e c1bc 0514 b8be 4756 b13d 6b38 f3bd
00000270: 67d5 18be 5746 92be ad60 1a3e 38d7 343e
00000280: 5235 bb3e a1b7 95be 94bd d3bd c9bf d33e
00000290: 3564 07be 1a06 603e d6ae 6abe 1c67 a8bd
000002a0: 88f2 58be 6ddf b73e 4c45 6d3e d02c a7be
000002b0: 30ae 1c3e f7ed 143e 4431 df3d 8cab 0fbd
000002c0: ba16 db3d 5452 dcbd c5a6 04bf b09d 913b
000002d0: e04a bcbe 3caa 9a3e 875d 5dbd fa62 3cbd
000002e0: d9b7 7bbe 12bd ad3e 9860 7e3e 9862 6d3d
000002f0: f192 b8bc b4bc 0f3e 0a69 4abe 1ae9 99be
00000300: f5f4 a6bd 90d1 a7bd 313b d0bd c936 50be
00000310: 65c5 87be f127 9c3d c1b0 51be 85bf fa3e
00000320: 7186 4abe 67ba 11be 5206 d33d 32fe 7cbd
00000330: 3d1b bebd f1ca d03e 77cb 78bd cd0f 2b3e
00000340: ced5 afbe ff76 04bd 043a 35be c00e a33e
00000350: 0673 c0be 395f 183e 83c8 a23d 40b9 123e
00000360: c118 b23e 084b 7e3d 41ad 04bd d90e 53be
00000370: 4fd5 7e3e 4534 eb3d 0289 20be c718 3a3e
00000380: 53ea a13d 8993 173c 5bed 003f 0d63 9ebe
00000390: 3a72 5b3e e479 bd3e 4396 bc3e c644 933e
000003a0: 7a0d b23e 3d13 17be fa8f 563e 6dfc b2be
000003b0: 6d05 3bbe edc1 8fbd f707 033e fcb4 7ebe
000003c0: f834 4f3e e707 b43c c653 3e3d 08d0 bdbe
000003d0: 9e4c 0dbd c100 cbbd 49cc 4cbe d686 afbd
000003e0: e128 90be 5817 90bc 7468 413e ce15 6d3d
000003f0: 3b7d de3d b482 a63e 62ba a13d ae5c 1f3e

layer.w2.bias f4 [32]
0.08952766 -0.25639865 0.016669774 -0.36201215 0.4613322 -0.15976822 -0.10698035 -0.1371557
0.08218301 0.047303006 -0.1792272 -0.12901896 0.1434506 -0.19908492 0.4353832 0.050291978
-0.28051594 0.43649855 -0.046380103 -0.38000682 -0.20514657 -0.15604189 -0.051216517 0.06475845
-0.005161156 -0.2271704 -0.13512608 0.31412974 0.40723467 0.051825978 0.25554782 -0.23375447
00000000: 475a b73d af46 83be 0d8f 883c a859 b9be
00000010: bc33 ec3e 489a 23be 8418 dbbd 8b72 0cbe
00000020: 914f a83d ccc0 413d 5687 37be 8c1d 04be
00000030: b7e4 123e ebdc 4bbe 8cea de3e f6fe 4d3d
00000040: c99f 8fbe bd7c df3e 10f9 3dbd 4190 c2be
00000050: f111 52be 72c9 1fbe 69c8 51bd 14a0 843d
00000060: ea1e a9bb 5b9f 68be 7e5e 0abe 9dd5 a03e
00000070: 1081 d03e 7a47 543d 2ad7 823e 555d 6fbe

layer.w3.weight f4 [32, 9]
-0.012882194 0.2129291 0.079015665 0.13014777 -0.31559458 0.1541263 0.15255782 -0.07154243
-0.008128604 -0.32420677 0.1541975 -0.21577556 -0.02553538 0.26726645 -0.097270936 0.051073056
0.020149034 -0.18360853 -0.11621563 -0.28484505 -0.2655699 0.28288546 -0.053792804 -0.11903762
0.11499005 0.2605723 0.14628248 0.06399338 -0.25119528 -0.22673245 0.07541502 -0.22511005
0.028920183 0.25060552 -0.1919096 -0.25478655 0.17955443 0.20312712 0.09713972 -0.331772
0.117012165 0.19491063 -0.40807906 0.045797866 -0.18012218 0.09321531 0.09546888 -0.007193868
0.17631602 0.10423377 -0.011456046 0.017467346 -0.068053566 -0.13984081 -0.08021661 -0.07863065
0.16781683 -0.23237018 0.27720416 -0.2537031 -0.21137103 -0.21038453 0.2698381 0.17797773
-0.065573215 -0.18799232 0.14952816 -0.01593424 0.16549994 -0.015358061 0.04107642 0.15300393
-0.14087138 0.007871946 -0.0035343955 0.26901358 -0.13347574 -0.13483733 -0.013859688 0.003464222
-0.14067928 0.2939942 0.20476055 -0.023679558 0.22694393 -0.26639098 -0.40709984 0.25351262
0.14429256 0.19868076 -0.17249195 0.13046679 -0.015388399 0.23993282 0.17694794 0.29600915
0.20105208 0.092944585 0.20764594 0.11215162 -0.16886282 -0.22324595 0.13901234 -0.17423281
0.054524746 -0.18221436 0.00038627785 -0.19815946 0.3085991 -0.054519694 -0.042014543 -0.29234225
0.20146814 0.21587047 -0.17327261 -0.012899756 0.3131736 0.119928524 -0.24330501 0.28489336
-0.022953492 0.20186743 0.40416586 0.32068032 0.18080652 -0.16373102 -0.29083592 -0.02538403
0.02701714 -0.121990815 -0.19458471 0.16018932 -0.29316047 0.31126124 0.18216956 -0.043453895
0.07760768 -0.3068905 -0.36560023 0.00088809914 -0.18056501 0.012344538 -0.18271069 0.3060443
-0.0048557124 -0.015612165 0.34712926 -0.24686073 -0.3237612 -0.09450059 -0.24271494 0.061127067
0.277691 -0.17317462 -0.12041962 -0.04192025 -0.12764812 0.048073146 0.17573631 0.32400015
-0.04576218 0.13314478 0.23288783 -0.24354832 -0.058281377 0.055345867 0.02459143 0.35211635
0.1153993 -0.13527057 -0.07045281 0.09181325 -0.13085243 -0.13734546 -0.17222887 -0.12615159
-0.03206401 -0.013008456 0.24467906 0.14637506 -0.024713676 -0.29854512 0.07188872 0.10808682
-0.34250766 0.2427519 0.4759321 -0.060836595 0.21587312 0.2571362 -0.14177728 -0.1869703
0.21745747 -0.23058422 -0.29212904 0.28751665 0.019156218 0.2511271 0.121149026 0.02314226
-0.1548042 -0.25627476 -0.3357235 -0.045793794 0.105299756 0.303238 -0.19533603 0.3095472
-0.039631486 0.20165773 -0.19368808 0.1064536 -0.036108103 -0.106555335 0.049398184 0.1761874
0.19460261 -0.19189756 -0.018210849 0.09623415 0.0769279 -0.090032674 0.027851349 0.3072111
-0.024997791 0.02982398 0.20354351 -0.24322805 0.295224 0.3337006 -0.05738908 -0.12487157
-0.16890018 0.24164951 -0.093419716 0.2265631 -0.12891738 0.026515128 -0.020503134 0.26022863
0.13284628 -0.24116501 -0.25014088 -0.30713034 -0.13241541 0.24989073 0.062693246 0.07109453
-0.1554199 0.18818301 0.1625706 -0.20500915 -0.11618233 -0.03507368 0.09292108 -0.2524963
00000000: d60f 53bc 160a 5a3e f7d2 a13d 7545 053e
00000010: 9d95 a1be 49d3 1d3e 1e38 1c3e d684 92bd
00000020: d62d 05bc 6efe a5be f3e5 1d3e 45f4 5cbe
00000030: 932f d1bc 26d7 883e fc35 c7bd fb31 513d
00000040: 960f a53c e003 3cbe 7602 eebd 36d7 91be
00000050: c7f8 87be 5dd6 903e d855 5cbd ffc9 f3bd
00000060: e77f eb3d bc69 853e 13cb 153e f60e 833d
00000070: ab9c 80be 8d2c 68be 3173 9a3d 4083 66be
00000080: 05ea ec3c 5e4f 803e f383 44be 6273 82be
00000090: 1edd 373e 8e00 503e 31f1 c63d 05de a9be
000000a0: 13a4 ef3d a796 473e bdef d0be 8b96 3b3d
000000b0: f371 38be abe7 be3d 3085 c33d 8aba ebbb
000000c0: 308c 343e 8478 d53d 24b2 3bbc ae17 8f3c
000000d0: ab5f 8bbd 6e32 0fbe 9b48 a4bd 1b09 a1bd
000000e0: 2dd8 2b3e 73f2 6dbe b4ed 8d3e 5fe5 81be
000000f0: a671 58be 0b6f 57be 3828 8a3e cb3f 363e
00000100: 404b 86bd 0f81 40be e91d 193e 8688 82bc
00000110: d178 293e 60a0 7bbc c03f 283d 10ad 1c3e
00000120: 9640 10be 56f9 003c 51a1 67bb 26bc 893e
00000130: ddad 08be cc12 0abe bf13 63bc 0008 633b
00000140: 3b0e 10be 6886 963e c0ac 513e a2fb c1bc
00000150: fd63 683e 6664 88be 646f d0be 68cc 813e
00000160: 6ec1 133e f872 4b3e bba1 30be 1699 053e
00000170: a01f 7cbc f3b0 753e d731 353e 838e 973e
00000180: 99e0 4d3e bb59 be3d 23a1 543e c0af e53d
00000190: 60ea 2cbe 969a 64be 4059 0e3e 166a 32be
000001a0: 5755 5f3d 6796 3abe 5685 ca39 50ea 4abe
000001b0: b400 9e3e 0b50 5fbd 7117 2cbd e2ad 95be
000001c0: aa4d 4e3e 260d 5d3e 606e 31be 8059 53bc
000001d0: 4a58 a03e 169d f53d f324 79be 8bdd 913e
000001e0: f608 bcbc 56b6 4e3e d4ee ce3e 3630 a43e
000001f0: 5825 393e 1ba9 27be 72e8 94be 2bf2 cfbc
00000200: 0d53 dd3c 52d6 f9bd 3741 47be ab08 243e
00000210: 2119 96be a25d 9f3e a88a 3a3e b6fc 31bd
00000220: c6f0 9e3d c020 9dbe f42f bbbe 53cf 683a
00000230: 09e6 38be bf40 4a3c 8318 3bbe d7b1 9c3e
00000240: ab1c 9fbb 2bca 7fbc edba b13e 0fc9 7cbe
00000250: 07c4 a5be 8689 c1bd 448a 78be 6060 7a3d
00000260: 842d 8e3e b054 31be 909e f6bd 91b4 2bbd
00000270: 30b6 02be 59e8 443d 38f4 333e 59e3 a53e
00000280: 2071 3bbd 1b57 083e 267a 6e3e bb64 79be
00000290: 74b8 6ebd 59b2 623d f773 c93c 9848 b43e
000002a0: 7856 ec3d 5e84 0abe 9049 90bd 9608 bc3d
000002b0: 2efe 05be 4aa4 0cbe c45c 30be e22d 01be
000002c0: 8d55 03bd 6b21 55bc 268d 7a3e 58e3 153e
000002d0: 5674 cabc e8da 98be 653a 933d 9f5c dd3d
000002e0: 2a5d afbe f493 783e 5fad f33e cb2f 79bd
000002f0: d80d 5d3e 5ba7 833e 102e 11be 2475 3fbe
00000300: 2cad 5e3e 451e 6cbe f091 95be 6235 933e
00000310: 80ed 9c3c bb93 803e fb1c f83d d694 bd3c
00000320: fe84 1ebe 7236 83be f3e3 abbe 4692 3bbd
00000330: 66a7 d73d 0342 9b3e 2b06 48be f87c 9e3e
00000340: a054 22bd 5d7f 4e3e 2b56 46be 5804 da3d
00000350: 17e6 13bd af39 dabd c055 4a3d 786a 343e
00000360: e845 473e cb80 44be eb2e 95bc 6916 c53d
00000370: 608c 9d3d 0d63 b8bd 8328 e43c c64a 9d3e
00000380: 2bc8 ccbc 6b51 f43c b66d 503e c610 79be
00000390: 9a27 973e ceda aa3e d010 6bbd aabc ffbd
000003a0: 2bf4 2cbe f872 773e d652 bfbd 2800 683e
000003b0: eb02 04be 4136 d93c 30f6 a7bc b03c 853e
000003c0: db08 083e f6f3 76be 7712 80be 3040 9dbe
000003d0: e897 07be 5be3 7f3e 5165 803d 029a 913d
000003e0: 6526 1fbe 0cb3 403e e878 263e ebed 51be
000003f0: 00f1 edbd 6ba9 0fbd 684d be3d 3247 81be

layer.w3.bias f4 [32]
0.19771092 -0.44084546 0.31950516 0.0013962692 0.033621915 0.43129247 -0.4069265 0.12623873
0.10420247 0.22069955 0.3035785 -0.20226897 -0.38934475 -0.08971721 -0.36423188 -0.32712448
0.15428834 0.01207454 -0.047197133 0.17759608 0.023028314 0.11645824 -0.3636547 -0.12446369
-0.24441472 -0.30480763 -0.26416457 -0.18190996 -0.2842567 -0.30100617 -0.08189949 -0.29197013
00000000: bb74 4a3e 7fb6 e1be 2e96 a33e 0503 b73a
00000010: 22b7 093d 5ed2 dc3e ac58 d0be ba44 013e
00000020: 1b68 d53d 10ff 613e a46e 9b3e 991f 4fbe
00000030: 3258 c7be a8bd b7bd 9a7c babe dc7c a7be
00000040: c3fd 1d3e 4bd4 453c c851 41bd bfdb 353e
00000050: e0a5 bc3c a881 ee3d f330 babe d2e6 febd
00000060: da47 7abe bf0f 9cbe 9440 87be 9b46 3abe
00000070: 188a 91be 7b1d 9abe ebba a7bd 1c7d 95be

layer.w4.weight f4 [32, 9]
0.026154656 0.25379485 0.16501264 -0.18290098 -0.25667292 -0.13922429 -0.24615245 -0.100332335
-0.3642951 0.23424542 0.0946429 0.13051008 0.2577065 -0.069483176 -0.17024091 0.27676994
-0.333028 0.26326028 0.012687679 0.062973596 -0.14737572 0.007469623 0.019934153 -0.022477325
-0.009105608 0.22483192 -0.001741742 -0.40796307 -0.19087124 0.21421756 -0.22025558 -0.18667957
0.10076677 -0.08473087 -0.14315385 0.21022049 -0.061850075 -0.13998237 0.20794845 0.023275848
-0.19666685 -0.17913732 0.2028438 -0.095334984 -0.18193908 0.27500793 -0.11367822 -0.14284156
0.1063613 0.1945213 -0.16724867 -0.24561809 0.43813834 -0.44315815 -0.0068519614 0.21053068
0.24818102 0.34803087 0.17508025 -0.15147234 0.19742915 -0.12820888 0.06385413 0.020774025
-0.13763337 0.2925387 0.08988635 0.011057225 -0.18403901 -0.15143515 0.17967229 -0.30502945
0.11694376 0.15194318 -0.17546102 -0.2978388 0.08052666 -0.30022722 -0.12372138 -0.06875133
-0.39537573 0.05008724 -0.30762663 0.28020257 0.041509375 0.029795885 -0.31354102 0.19111417
0.40461618 -0.3168798 -0.31798106 -0.15460531 -0.31195518 0.1354774 0.15305327 -0.07780157
-0.2956394 -0.08464915 -0.13506201 -0.23093617 -0.09117594 0.011920389 -0.026452893 -0.13465145
-0.02236798 -0.29665864 -0.033101954 0.24824005 0.2367056 -0.0915725 0.1510678 0.221154
0.02002507 -0.18117474 0.19735157 -0.47924003 0.43807092 -0.31002218 0.14526615 -0.12564811
-0.21642661 -0.27318075 0.1365292 -0.38269782 0.3178 -0.49786335 0.27069637 -0.20904933
0.047814187 -0.14227271 0.027876457 -0.17695186 0.06838209 -0.010032805 0.25924906 -0.11956911
-0.22817467 -0.12400463 0.2446832 -0.17841034 -0.2528502 0.29908028 0.0038594531 0.27644178
0.25453123 -0.091889195 -0.18286009 0.007895555 -0.27412093 -0.36591417 -0.005583041 0.03239582
-0.18481746 0.2859154 0.15951864 -0.2703367 -0.23045734 -0.12623486 0.28321424 -0.26110163
-0.106196664 0.21996206 0.12587999 0.15469737 -0.15042819 -0.038833097 -0.20663157 -0.10778673
0.14996256 -0.047041636 -0.20176384 -0.28099355 0.1873557 0.10081898 0.2507411 0.1146623
-0.059953757 0.055815686 -0.08073061 0.30019158 -0.4124042 -0.3003834 0.016307913 -0.19586246
-0.068016276 0.29277015 -0.32920733 0.08194595 -0.50895965 -0.21683091 0.13597852 -0.005157916
0.032617737 0.13994282 -0.1390951 -0.19700111 0.27491796 0.123656504 -0.22712052 0.026028518
0.34277436 0.08003666 -0.098579526 0.04525518 0.27898958 0.024252161 0.52201945 0.25608265
0.0677028 -0.26986596 0.2128052 0.11765853 -0.34254915 0.023726458 -0.042979084 -0.06838999
0.27375922 -0.062375292 0.25454217 0.25346625 0.12951678 -0.10816428 -0.27533612 0.2402444
-0.4072166 0.2383506 -0.20153415 -0.11734666 -0.0069628838 0.013099758 0.21123219 0.23100872
-0.0016325061 -0.12080329 0.010979225 0.32427412 -0.20034939 -0.13132967 -0.11199511 0.14320584
-0.22893013 -0.29227206 0.35925624 -0.09438779 0.012458223 0.06140944 0.116072625 0.02130808
0.017775286 -0.25568253 0.16056767 -0.36671767 0.08639813 0.047730356 0.19928668 -0.16320802
00000000: 4a42 d63c 66f1 813e 13f9 283e 654a 3bbe
00000010: a26a 83be d090 0ebe 630f 7cbe 0a7b cdbd
00000020: e384 babe 08de 6f3e 23d4 c13d 6fa4 053e
00000030: 1bf2 833e 324d 8ebd a253 2ebe cab4 8d3e
00000040: a582 aabe 0dca 863e fcdf 4f3c 4df8 803d
00000050: a9e9 16be bdc3 f43b f34c a33c 5e22 b8bc
00000060: b02f 15bc 573a 663e 2a4b e4ba 89e0 d0be
00000070: c073 43be d95b 5b3e ae8a 61be ee28 3fbe
00000080: cf5e ce3d 6187 adbd ec96 12be 0a44 573e
00000090: 8156 7dbd 8a57 0fbe 70f0 543e feac be3c
000000a0: 0963 49be c66f 37be 49b6 4f3e fd3e c3bd
000000b0: 3d4e 3abe d7cd 8c3e 20d0 e8bd 0f45 12be
000000c0: f4d3 d93d 9730 473e 3c43 2bbe 4f83 7bbe
000000d0: ab53 e03e a0e5 e2be 6b86 e0bb 5b95 573e
000000e0: 2a23 7e3e 1a31 b23e 3d48 333e 911b 1bbe
000000f0: de2a 4a3e 3049 03be f4c5 823d 4a2e aa3c
00000100: c3ef 0cbe a2c7 953e 5616 b83d 5d29 353c
00000110: b974 3cbe d111 1bbe 03fc 373e d22c 9cbe
00000120: 3680 ef3d fe96 1b3e 0eac 33be 547e 98be
00000130: 29eb a43d 62b7 99be a361 fdbd 7fcd 8cbd
00000140: b06e cabe 4728 4d3d 3d81 9dbe b676 8f3e
00000150: bc05 2a3d 8016 f43c 7388 a0be 6fb3 433e
00000160: da29 cf3e 123e a2be 6ace a2be db50 1ebe
00000170: 97b8 9fbe 96ba 0a3e ffb9 1c3e 6e56 9fbd
00000180: 0c5e 97be 895c adbd b24d 0abe 887a 6cbe
00000190: 74ba babd bc4d 433c bdb3 d8bc 12e2 09be
000001a0: 0e3d b7bc a4e3 97be ea95 07bd a432 7e3e
000001b0: f462 723e 5d8a bbbd 84b1 1a3e 3276 623e
000001c0: 9e0b a43c df85 39be 8816 4a3e f35e f5be
000001d0: d54a e03e 3abb 9ebe a6c0 143e e6a9 00be
000001e0: f09e 5dbe 59de 8bbe 50ce 0b3e f8f0 c3be
000001f0: aeb6 a23e f2e7 febe b798 8a3e 0711 56be
00000200: cfd8 433d f0af 11be 2b5d e43c de32 35be
00000210: e90b 8c3d a260 24bc 4bbc 843e a6e0 f4bd
00000220: 9fa6 69be 24f6 fdbd 3c8e 7a3e 33b1 36be
00000230: 9575 81be 0d21 993e e1ee 7c3b c789 8d3e
00000240: eb51 823e 6730 bcbd ad3f 3bbe 5c5c 013c
00000250: 9459 8cbe 1a59 bbbe f1f1 b6bb 7bb1 043d
00000260: ca40 3dbe 8163 923e db58 233e 9269 8abe
00000270: 02fd 6bbe b643 01be 7501 913e 1daf 85be
00000280: a37d d9bd bc3d 613e afe6 003e fd68 1e3e
00000290: d909 1abe 740f 1fbd 3a97 53be 4abf dcbd
000002a0: c98f 193e bbae 40bd 2e9b 4ebe 63de 8fbe
000002b0: 2cda 3f3e 2e7a ce3d 2361 803e 11d4 ea3d
000002c0: 1292 75bd fd9e 643d 1756 a5bd b6b2 993e
000002d0: a526 d3be dacb 99be 2c98 853c 2b90 48be
000002e0: 1e4c 8bbd f8e5 953e dd8d a8be 47d3 a73d
000002f0: 2e4b 02bf ec08 5ebe f43d 0b3e bc03 a9bb
00000300: 2d9a 053d 2c4d 0f3e f26e 0ebe a9ba 49be
00000310: 0cc2 8c3e 9f3f fd3d 4892 68be c239 d53c
00000320: 1f80 af3e 43ea a33d 10e4 c9bd 7f5d 393d
00000330: b9d7 8e3e 78ac c63c 11a3 053f 441d 833e
00000340: c4a7 8a3d df2b 8abe 9be9 593e f5f6 f03d
00000350: 9a62 afbe fd5d c23c d60a 30bd 0d10 8cbd
00000360: 2b2a 8c3e 3c7d 7fbd 5a53 823e 54c6 813e
00000370: 0ca0 043e 3c85 ddbd dbf8 8cbe a102 763e
00000380: b27e d0be 2e12 743e f85e 4ebe 7253 f0bd
00000390: e728 e4bb 5ea0 563c 404d 583e 8d8d 6c3e
000003a0: d1f9 d5ba b767 f7bd 35e2 333c 4207 a63e
000003b0: 6428 4dbe 497b 06be b15d e5bd 8da4 123e
000003c0: a96c 6abe afa4 95be 6ff0 b73e 634e c1bd
000003d0: 931d 4c3c 7788 7b3d 7cb7 ed3d 488e ae3c
000003e0: 7a9d 913c d2e8 82be da6b 243e 6bc2 bbbe
000003f0: 81f1 b03d e880 433d cf11 4c3e 0120 27be

layer.w4.bias f4 [32]
-0.32602525 -0.22778143 0.3068053 -0.112416744 -0.17771202 0.23146953 0.1275265 -0.07252545
-0.004684594 -0.013315628 0.30769217 0.050509077 -0.08438467 0.26496446 0.14997452 -0.11940715
-0.07848682 0.3180246 -0.1750257 0.08208592 -0.26881737 0.21100661 -0.041673206 -0.15082474
0.27977237 0.27435318 -0.14814578 0.13409048 -0.15216741 0.14358693 0.31149814 0.027578337
00000000: c8ec a6be 893f 69be 9615 9d3e c03a e6bd
00000010: 24fa 35be 5906 6d3e 4f96 023e 3988 94bd
00000020: 3981 99bb cb29 5abc d489 9d3e 9be2 4e3d
00000030: dfd1 acbd 6ca9 873e ec92 193e bc8b f4bd
00000040: b3bd a0bd 1fd4 a23e f039 33be aa1c a83d
00000050: 6ea2 89be 1e12 583e 86b1 2abd cd71 1abe
00000060: 533e 8f3e 0578 8c3e 87b3 17be 044f 093e
00000070: c6d1 1bbe 7408 133e af7c 9f3e f7eb e13c

layer.w5.weight f4 [32, 1]
0.28438413 0.41493538 -0.08004935 0.37703633 0.8887433 -0.6522012 0.20839518 0.69330543
-0.5694322 -1.0385897 0.21370806 -0.3801198 -0.32417685 0.7705819 0.8321079 0.74376225
0.00645908 -0.57978565 -0.11557551 -0.08559523 -0.8623882 0.048994094 -0.117667764 0.6885027
0.14635527 0.6317466 0.14919198 -0.1657254 -0.29495448 0.57476103 0.8556058 0.87719876
00000000: cc9a 913e 6972 d43e eaf0 a3bd e80a c13e
00000010: ae84 633f a8f6 26bf 8c65 553e 777c 313f
00000020: 4fc6 11bf 82f0 84bf 49d6 5a3e 109f c2be
00000030: 82fa a5be db44 453f 0605 553f 3467 3e3f
00000040: b1a6 d33b d56c 14bf dab2 ecbd 8d4c afbd
00000050: 79c5 5cbf 08ae 483d ccfb f0bd b741 303f
00000060: 28de 153e 25ba 213f c8c5 183e ebb3 29be
00000070: 4604 97be 8a23 133f fb08 5b3f 1990 603f

layer.w5.bias f4 [32]
-0.090206996 0.2672436 -0.85745794 0.4677474 -0.9020447 0.8459735 -0.009431978 -0.044446778
-0.13497026 0.59962374 -0.3748911 0.05032986 0.5198195 0.5706158 0.8096039 -0.50000477
0.26998645 0.8435183 0.48402223 -0.7261472 0.570611 -0.16561219 -0.9915597 0.8587984
-0.47655264 0.56413686 0.75468177 -0.16358396 0.41861314 -0.046728402 0.8065283 0.05297223
00000000: 72be b8bd 27d4 883e 5d82 5bbf 967c ef3e
00000010: 67ec 66bf b891 583f 9588 1abc d30d 36bd
00000020: a535 0abe f180 193f baf1 bfbe af26 4e3d
00000030: e412 053f e113 123f 3442 4f3f 5000 00bf
00000040: aa3b 8a3e d1f0 573f c3d1 f73e c8e4 39bf
00000050: 9013 123f 3e96 29be dbd6 7dbf 36da 5b3f
00000060: b5fe f3be 466b 103f d332 413f 8e82 27be
00000070: 7654 d63e 4866 3fbd a378 4e3f 69f9 583d
