runs/7_agents_50000_episodes_graph/models/actor.pth (torch, 26432 bytes, 4 tensors)

fc1.weight f4 [128, 38]
000000 f1 79 26 3d ce e8 0b 3e 8d e9 b6 bc c1 9a 70 3d
       0.040643636 0.13663027 -0.022328163 0.058741335
000010 c5 08 2e be 3f 61 81 be f6 78 9f bc 6c e8 85 3e
       -0.16995533 -0.25269505 -0.019466858 0.26153886
000020 3f 64 9f 3d 6e 5d ce bd ca ec a1 bc 95 78 81 bd
       0.07782792 -0.10076414 -0.01976623 -0.06321827
000030 8e 48 59 3e 61 0d bd 3d e3 0f d8 3c 91 9b 05 bd
       0.21219084 0.092310674 0.026374763 -0.032619063
000040 00 35 5f 3d 85 f0 05 3d 19 e3 81 bd fe e4 3e 3d
       0.054493904 0.03270008 -0.063421436 0.046605103
000050 aa 68 ef 3d a9 f7 31 be a7 ee 44 3e 50 de 27 3e
       0.11689885 -0.17379631 0.19231664 0.16393399
000060 21 dc 1a be f9 71 8a 3c 10 64 39 3d 15 79 3f 3e
       -0.15123035 0.01690005 0.045261443 0.18698533
000070 05 a8 92 be 41 35 50 be bd 70 e0 bd dc d1 1d 3e
       -0.28643814 -0.20332815 -0.10959003 0.15412086
000080 51 61 0e bc 10 1b 02 be 3c 11 25 be 1c 17 f7 bd
       -0.008690194 -0.12705636 -0.16119856 -0.12064955
000090 85 da 86 3c 18 07 02 3d 5d 52 10 be 4a 95 ca bd
       0.01646162 0.031745046 -0.14093919 -0.09891756
0000a0 d1 f8 31 3e 71 6d af 3d f9 a3 99 3c f3 6e b3 3d
       0.17380072 0.08565796 0.018754946 0.08761396
0000b0 b8 ab 83 3d b8 18 93 3c f3 27 81 bb ce 9a dc 3d
       0.06429237 0.017956123 -0.00394153 0.10771714
0000c0 7a 4b 92 bd cf f3 d2 bd 48 71 c8 bd d6 2d e9 bd
       -0.07143302 -0.10300409 -0.09787232 -0.11385696
0000d0 f6 7e 90 bd 4f bc 3c 3d 30 ff e5 bd 90 e4 8d 3d
       -0.07055466 0.046078023 -0.11230314 0.069283605
0000e0 00 30 06 be 6b 7e 02 3d 03 46 72 3d fa dd 32 3e
       -0.13104248 0.031858843 0.0591488 0.1746749
0000f0 e8 ee 30 bd 89 82 24 3e 5a 94 d0 bc 09 ca f4 3d
       -0.04319659 0.1606542 -0.025461365 0.11952598
000100 46 2c b0 bd 29 3b 88 bd 98 27 8d 3d 84 96 fa bd
       -0.086021945 -0.06651909 0.068923175 -0.1223574
000110 3c 5f 0f 3e f7 77 9d bd d5 1f 32 3c 8a 5c 77 3d
       0.14001173 -0.07688897 0.010871847 0.060390987
000120 37 3f c0 bd cd 99 00 3e 47 86 06 3c f6 4d 32 bc
       -0.09387057 0.1255867 0.008210725 -0.010882845
000130 d5 b8 07 be 4d 07 f7 3d 1d 39 21 3c 59 d0 b1 3d
       -0.13254102 0.120619394 0.009840277 0.08682317
000140 b4 c0 03 be 46 a0 5c be 6c 3b f5 bd 99 e8 b4 3c
       -0.12866479 -0.21545514 -0.119742244 0.022083567
000150 1b 10 40 bc 34 10 fa bc 3e 77 1f bd 98 13 b1 3d
       -0.01172259 -0.030525304 -0.038932078 0.08646315
000160 2b a4 5c 3e a6 cc 5a 3d c5 ea 90 3d fc 22 b4 3b
       0.21547 0.053417824 0.07076029 0.0054973345
000170 64 1d 83 3d 96 84 4a 3e b8 43 d4 bd 84 e4 76 3d
       0.0640209 0.1977714 -0.10364479 0.060276523
000180 45 c5 c1 bd b8 36 a1 3c ef e3 fd 3d e9 7c 9b 3e
       -0.09461454 0.019679412 0.123969905 0.30368736
000190 cd 2d 0a be 98 4c cd 3d c2 b7 27 3e b2 58 19 be
       -0.13494034 0.10024375 0.16378692 -0.14975241
0001a0 9c 66 a2 bd b7 82 7f 3d be d5 20 be 21 5a 96 bd
       -0.079297274 0.06238052 -0.15706536 -0.073414095
0001b0 8c 95 90 bb d5 e3 26 3e 5d 64 d6 bc 69 0b da bd
       -0.0044123586 0.16297849 -0.026170904 -0.106467076
0001c0 a2 6f 5d be d7 92 08 be 99 6f 03 3e d4 b4 05 be
       -0.21624616 -0.13337265 0.1283554 -0.13057262
0001d0 83 58 40 3e 8a e1 ad bd 29 25 cc bd 0b a7 8b 3e
       0.18783765 -0.08490284 -0.09968025 0.2727588
0001e0 b3 ea 34 3e de 89 88 bd 37 d0 da 3d 2d 27 9f 3d
       0.17667656 -0.06666921 0.10684245 0.07771144
0001f0 50 97 b3 3d d5 2a 18 be c3 d6 98 3c 6a 2a 6d 3d
       0.08769095 -0.14860089 0.018657094 0.057901777
000200 4d de 18 3e b3 af 49 bc 91 35 a7 bb 42 4d b7 bc
       0.14928551 -0.012309956 -0.005102821 -0.022375707
000210 79 c2 08 3e fe 24 a1 3d c3 c1 21 bd bb 76 58 be
       0.13355435 0.07868384 -0.039491426 -0.21139042
000220 f9 9a 04 3e 40 d3 30 be a6 72 68 3e 22 81 10 bd
       0.12949742 -0.17268085 0.22699985 -0.0352794
000230 c4 98 0e 3d 31 8e 06 bd 23 1e 7c bd 34 92 98 3d
       0.034813657 -0.032850448 -0.061552178 0.07449761
000240 b8 61 16 be 58 49 c8 bd 34 8d ff bd 7f a9 7f bc
       -0.14685714 -0.09779614 -0.12478104 -0.015604376
000250 18 0d 3c 3e 6e 97 18 be 5b 96 27 3e 8f 9b 21 3e
       0.1836437 -0.14901516 0.1636595 0.15781997
000260 c2 68 06 3e ce c3 1c be 73 b9 07 be 4a e8 bd 3d
       0.131259 -0.15309069 -0.13254337 0.09272821
000270 53 7a c5 bd ec a8 db bb 88 dd 69 3d 15 37 67 3e
       -0.09642472 -0.0067034867 0.057096034 0.22579606
000280 20 c9 56 3b db 73 ba 3d 7a 1d 39 bd 57 fa 61 3e
       0.0032773688 0.09104129 -0.045194127 0.22068153
000290 82 80 5a bd d5 f6 af bd 11 18 6f 3c 51 c4 6f bd
       -0.05334521 -0.08592001 0.01459314 -0.05853683
0002a0 f8 bd 08 3e 8e ef bc bd 0f 98 90 bd 81 84 be bd
       0.13353717 -0.09225379 -0.07060253 -0.09302617
0002b0 6c b2 f6 3d ea ea 44 bd 82 f7 7e bc 6f aa 9d 3e
       0.1204575 -0.048075594 -0.01556194 0.30794093
0002c0 09 6d 95 bc 54 ad 3e 3d 29 cb cb 3d e9 8e a8 bd
       -0.018240469 0.046552017 0.09950859 -0.08230383
0002d0 6f 7c dc 3d 78 b5 08 be e7 0b 6a be bd 5e 08 be
       0.10765921 -0.13350475 -0.22856103 -0.1331739
0002e0 77 45 9b 3e 22 1d 96 bd 78 a9 21 3e 05 45 04 3e
       0.30326435 -0.073297754 0.15787303 0.12916954
0002f0 98 f5 05 be ec c0 9b bd 06 2d 09 be 46 6e 2d be
       -0.13081968 -0.07605156 -0.13396081 -0.16936597
000300 3a 4b f6 3d 32 80 40 be 89 e4 e3 3d 9a a1 fb bd
       0.12026067 -0.18798903 0.11127574 -0.122866824
000310 3b 5a d9 3d f8 de 55 bd 00 ab ab bd 5d f7 ca bc
       0.10612913 -0.052214593 -0.08382225 -0.024776155
000320 f6 0e 13 be f5 ec 36 3e 2b 15 88 bb 37 97 c1 3d
       -0.14361176 0.1786383 -0.004152914 0.0945267
000330 8f 6d f3 bd 07 48 3c 3d 35 65 09 3e 0b 5f 08 3d
       -0.11886131 0.045967128 0.13417514 0.033293765
000340 be 4a 30 be 22 aa 08 3e 48 b2 c4 bc 9b 02 22 be
       -0.17216012 0.1334615 -0.024010792 -0.15821306
000350 d4 d7 0a be 55 3a 5c bd c8 90 1c 3e d3 32 38 bc
       -0.13558894 -0.053766567 0.15289605 -0.011242586
000360 55 8b e3 bd d6 2b 53 bc 6e ab de 3d c9 01 0c 3e
       -0.1111056 -0.012888869 0.10872541 0.13672556
000370 0e 68 33 be 10 bc d1 3c 0e f7 1d 3d 41 a5 59 be
       -0.17520162 0.02560237 0.038565688 -0.21254446
000380 74 cd c8 bd 22 62 04 be e1 69 99 3d e6 eb b2 bd
       -0.09804812 -0.1292806 0.07490898 -0.087364
000390 0f 19 d2 bd ef 39 a9 bd e0 29 11 3e cf 11 56 bd
       -0.10258686 -0.08263003 0.1417613 -0.052263077
0003a0 56 77 20 3e 65 9f 38 3e 18 0a 11 3e 1f 01 cf 3b
       0.15670523 0.18029554 0.14164007 0.0063172723
0003b0 55 4b a7 bd 5e bd 37 3e ba df 83 bd d7 67 f6 bc
       -0.08168665 0.17943332 -0.06439157 -0.030078812
0003c0 b8 f4 0b bd d4 b1 cc bc 0d b5 08 be fc 05 55 3d
       -0.03416893 -0.024987139 -0.13350315 0.05200766
0003d0 fb 9c 41 3e 1a ce b6 3c 38 cf b1 3d 94 c2 a2 bd
       0.1890754 0.022315074 0.08682102 -0.07947269
0003e0 25 07 df 3d 24 5d cf bd 0f 74 bc 3d 00 13 79 3d
       0.108900346 -0.10125187 0.09201824 0.060809135
0003f0 48 38 bd 3d 57 f5 33 3e 40 63 d3 bd 2a 4a 7d be
       0.092392504 0.17574058 -0.10321665 -0.24735323

fc1.bias f4 [128]
000000 48 83 4c be 63 ae 81 3d 61 89 09 3d 88 da 1e bc
       -0.19971955 0.0633209 0.03357828 -0.009695657
000010 e7 36 a4 3e 68 d0 e2 3d 98 fb fc 3d 6e 13 58 3c
       0.32073137 0.110749066 0.12352675 0.013188226
000020 b2 cd 96 be e0 58 d0 3d 26 6f b5 3d b4 a9 a8 bc
       -0.29453808 0.101732016 0.088590905 -0.020588733
000030 ab 33 4e 3d e6 83 71 3e b8 a0 24 be 84 c2 ad bd
       0.050342243 0.23585472 -0.16076934 -0.084843665
000040 c9 5c 5b 3e c4 bd be 3d 59 1a 41 3e 77 22 2c bd
       0.21422113 0.09313539 0.18857707 -0.042025056
000050 fe e1 f6 bd 41 12 8a 3c 3e 9f 7d bd 5a 3b 70 3e
       -0.12054823 0.016854407 -0.061919443 0.23460141
000060 ae e3 14 be d0 fa 83 be c3 18 93 bd c4 cb 25 3e
       -0.14539978 -0.25777292 -0.07182457 0.16191012
000070 10 84 b8 bd ac 99 86 3c 8b 44 79 3e 10 02 a6 3d
       -0.09009564 0.016430698 0.24342553 0.08105862
000080 fe 3c 44 bd 49 3a 5c bd 23 93 db bd b2 31 49 3e
       -0.04790973 -0.053766523 -0.107214235 0.19647864
000090 4b 86 7e 3e de 66 c7 3d 82 4e 16 3c 6b ea 09 3e
       0.24855916 0.09736417 0.009173991 0.1346833
0000a0 c5 93 45 3e ec 3b 13 3e 8f 8c b4 3d 75 83 42 3e
       0.19294651 0.14378327 0.08815872 0.1899546
0000b0 95 ad bd bd 44 5b 11 be 0f aa 10 3e db 2d 11 3e
       -0.09261624 -0.14194971 0.14127372 0.14177649
0000c0 87 19 73 3e a8 e4 d2 3d d0 b3 85 3e 70 1d 6d 3e
       0.23740207 0.10297519 0.2611375 0.23155761
0000d0 4e 5b 4c be 59 2b 70 be 98 90 0f 3e 84 52 1c bd
       -0.19956705 -0.23454036 0.14020002 -0.03816463
0000e0 c9 d1 45 3e e3 6a c9 3e 03 1a e4 bd c3 c6 2a 3e
       0.19318308 0.3933936 -0.11137774 0.16677384
0000f0 3c 84 35 3e cf bd 88 3d 37 05 16 3e 9b 1b 04 be
       0.17726225 0.06676828 0.14650427 -0.12901156
000100 89 96 08 bc c6 0c 6b bd 8d 9c 85 3e fd 09 16 be
       -0.008336672 -0.05738523 0.26096 -0.14652248
000110 0d 39 a8 be 3f f2 ec bb 45 d7 9b 3d ae 3c 81 3d
       -0.32856026 -0.0072310264 0.07609419 0.06310402
000120 29 51 85 3e c8 30 15 be ba 9a 32 3e 10 1d 65 bd
       0.26038483 -0.1456939 0.17441836 -0.05593592
000130 0d c7 bf bd 98 e8 39 3e 60 3e ee 3d 74 01 3f 3e
       -0.09364138 0.18155134 0.11632991 0.18652898
000140 20 86 97 bd f6 a6 e5 bd 17 fa b6 bd e3 7d 8f bc
       -0.07398629 -0.11213486 -0.089344196 -0.017516082
000150 1c 2f dd bd 44 c3 4b 3e 1b 60 53 3e 15 43 e5 3d
       -0.10800001 0.19898707 0.2064213 0.111944355
000160 13 80 5f 3e c1 af d4 3d 7e f8 2f 3d 5b d2 95 3e
       0.218262 0.10385085 0.04296159 0.2926205
000170 31 24 f0 bd c0 14 a9 bd a0 ce 40 be 7b b5 13 3e
       -0.11725653 -0.08255911 -0.18828821 0.14424698
000180 f7 8f c0 3e 04 2f ec bd f1 ef 6e 3e 9f 3d c5 3d
       0.37609836 -0.11532405 0.23333718 0.09630894
000190 a6 d6 ff 3d 51 6b a5 3d c4 54 8e 3e 3a c8 4c 3d
       0.12492113 0.080771096 0.27799046 0.04999564
0001a0 1d 51 33 3d f3 27 03 3e 57 5a 57 3d a5 f6 42 3e
       0.043778528 0.12808208 0.05257639 0.190394
0001b0 5d 90 8c 3e 1d 11 2b be 3b df 28 3e c2 f7 d4 bd
       0.2745389 -0.16705747 0.16491406 -0.103988186
0001c0 7f b2 fd 3c c2 15 96 3e 78 cf 43 bd b4 3c 9a bd
       0.030968903 0.29313475 -0.04780528 -0.075311095
0001d0 43 15 03 be 89 e9 a9 3e 3a 5a 5f 3e 60 21 1e be
       -0.1280108 0.33185986 0.21811762 -0.15442419
0001e0 f8 1e ce 3d 14 a8 ac 3d 77 cb 93 3c fa a7 7c 3e
       0.100645006 0.08430496 0.018041356 0.24673453
0001f0 b8 46 46 3e 82 96 9b 3c 24 71 2f 3e 53 6d d5 3d
       0.19362915 0.018992666 0.17133003 0.104212426

fc2.weight f4 [9, 128]
000000 4c bd 41 3d 8e 53 af bb 02 c4 41 bc e7 29 0a be
       0.04729967 -0.0053505367 -0.011826517 -0.13492547
000010 f8 83 2c be ac 73 f0 bd ba e1 81 be dd 16 42 be
       -0.16847217 -0.11740813 -0.25367528 -0.18954034
000020 9f e9 ac bb aa 35 3a 3d 7f 79 4e be 8c 76 04 be
       -0.0052768732 0.045461334 -0.20163535 -0.12935847
000030 60 b6 8b 3d 5c f0 1c be 45 ad 4f be 71 1c 67 bd
       0.06821895 -0.15326065 -0.20280941 -0.05642361
000040 f0 e9 21 be 33 ca 0f bd de 08 b8 bd 48 87 f9 bc
       -0.15811896 -0.03510494 -0.08986066 -0.030460015
000050 bf 49 bd bc 6c 1e 06 3d 63 f3 ee 3c de 31 05 be
       -0.023106454 0.032743856 0.02916879 -0.13007304
000060 19 9f 0d be b9 9d 89 be d6 8a 78 3c 81 30 26 be
       -0.13830222 -0.26878145 0.01516982 -0.1622944
000070 61 68 bb bd b6 0d 2b 3d 37 f7 d9 bd 8f 49 1b 3c
       -0.09150768 0.041761123 -0.106428556 0.009477987
000080 b3 6a 82 bd 4e da d4 bd 5b ae 5e be 39 6c e8 bd
       -0.063680075 -0.10393201 -0.21746199 -0.11348767
000090 bd d1 d9 bd d3 bf 3c be 11 75 93 bd f8 e0 8b bd
       -0.106357075 -0.1843255 -0.07200063 -0.06830019
0000a0 76 5f 8a bd 32 05 60 be 95 14 c3 bd 58 5d d6 bd
       -0.06756489 -0.21876982 -0.0952541 -0.10467023
0000b0 11 c4 21 3b 79 91 2c be 9d 90 11 be 28 c5 1c be
       0.0024683515 -0.16852368 -0.14215322 -0.15309584
0000c0 81 80 16 be 4a a0 d7 bd 29 e1 cd bd 15 48 1b be
       -0.14697458 -0.105286196 -0.100527115 -0.15164216
0000d0 37 59 ad bd 7f bd 86 be ff 9d 05 3c 03 f8 37 be
       -0.08464282 -0.2631645 0.008155345 -0.17965703
0000e0 43 a1 28 be 88 e1 7c be ee 1a e9 3b 33 04 2d bd
       -0.16467766 -0.24695408 0.007113806 -0.042240333
0000f0 2c 36 05 bd 74 44 d9 bd 2b 47 84 be 36 e6 4f be
       -0.032522365 -0.106087595 -0.25835547 -0.20302662
000100 a7 ce 8c bd 02 4d 84 be 37 66 16 be 46 ab 91 3b
       -0.06875353 -0.25840002 -0.1468743 0.004445466
000110 50 4d dc 3c 86 59 39 be 54 56 1f be 66 96 83 bc
       0.026892334 -0.18100557 -0.15560275 -0.016062927
000120 e8 f2 81 be a1 4b 52 be 7e 85 09 be 9d 8b 22 bc
       -0.25380635 -0.20536663 -0.1342983 -0.009920982
000130 8e 5b 8c bd 92 0b fb bc 13 d8 a4 bc db c5 1a be
       -0.068534 -0.030645166 -0.020122563 -0.15114538
000140 e3 fd 43 be 84 e9 8a be b9 4e 15 bd 42 2e 38 be
       -0.19139819 -0.27131283 -0.03645203 -0.17986396
000150 d0 95 25 3d cd f7 9b bd f5 31 70 be 35 bc 50 be
       0.040426075 -0.076156236 -0.23456557 -0.20384295
000160 4b 7b 36 be 72 98 4b be 95 8f 1a bd 18 d4 6e be
       -0.1782047 -0.19882372 -0.037734587 -0.23323095
000170 93 75 f5 bd bd 51 44 bc 51 50 d6 bc 38 05 9d be
       -0.11985316 -0.011982379 -0.026161345 -0.30668044
000180 7a aa ab bd 70 0f 39 bb 96 b2 56 be 49 17 48 be
       -0.08382125 -0.0028237961 -0.20966563 -0.19540133
000190 81 eb fb bc 71 fa f9 bd e2 f5 3e be a3 16 13 be
       -0.030751945 -0.12205971 -0.18648484 -0.14364104
0001a0 8f 71 0d be 86 a8 02 be f2 33 62 3d 1e be c9 bd
       -0.1381285 -0.12759599 0.05522532 -0.09850715
0001b0 1e 9e 8f be 01 fa 83 3d 81 d8 5b be a4 fc 1f be
       -0.2805032 0.06444169 -0.21469308 -0.15623719
0001c0 27 56 42 be 4a 23 de bd 46 ed 71 3d 43 b1 53 3b
       -0.18978177 -0.108465746 0.059064172 0.00323017
0001d0 ac 2f 62 be 27 1a d7 bd ac 9f 8a bd b6 99 fb bd
       -0.22088498 -0.10503035 -0.06768736 -0.122851774
0001e0 aa b7 01 be 27 6f a2 bd 3f d5 bb bd 18 9d 27 be
       -0.12667719 -0.07931357 -0.09171533 -0.1636852
0001f0 05 c6 07 bd 6f 35 05 be b9 59 22 be 97 b8 66 be
       -0.03314783 -0.13008665 -0.15854539 -0.22531353
000200 48 61 47 be 4c a2 8d bd 06 49 12 be a7 28 bc bd
       -0.19470704 -0.06915721 -0.14285669 -0.09187441
000210 36 d8 e0 bd ac 6a d9 3c 74 34 47 be 46 c7 43 be
       -0.10978739 0.026540123 -0.19453603 -0.19118986
000220 72 6f 1f be d3 c8 5c 3c a7 bf 05 be a5 7e 12 be
       -0.15569857 0.013475615 -0.13061391 -0.14306124
000230 44 c0 78 3d f1 a5 63 be db e5 1d be bf 55 30 be
       0.060730234 -0.2223127 -0.15419714 -0.1722021
000240 69 60 1f be ef f7 20 bd c7 0c 3d be 72 f9 3a bc
       -0.15564121 -0.039298948 -0.18461905 -0.011412011
000250 63 68 14 bd 20 b4 01 be d5 97 3d 3d b1 94 82 bd
       -0.036232363 -0.12666368 0.046287376 -0.06376017
000260 21 a4 35 bd 06 81 23 be b0 06 47 be b7 35 89 bd
       -0.04434598 -0.15967187 -0.19436145 -0.066996984
000270 be 4a 94 3d 72 ee 5c 3d 10 fa 3d be 67 db 84 3d
       0.072408184 0.053938337 -0.18552423 0.0648716
000280 cf a8 4b be d5 44 9d bd 99 73 85 bd 27 78 ed bd
       -0.19888614 -0.07679144 -0.06516189 -0.11595183
000290 ac 8f 58 be 1c ad 62 bd 8e a4 03 3d 29 fb ee bc
       -0.21148556 -0.05534087 0.032139353 -0.029172497
0002a0 ac e3 5b bd d4 ab 7c be 40 67 0e be 58 58 1e be
       -0.05368392 -0.24674922 -0.13906574 -0.15463388
0002b0 b3 10 14 3d 6b b3 80 bd e2 5d 41 be 6f 6d c3 bd
       0.036148738 -0.06284221 -0.1888347 -0.09542357
0002c0 65 4b ad bd 50 0f c1 bd b1 f9 32 be 7a 21 4a be
       -0.08461646 -0.09426749 -0.17478062 -0.19739333
0002d0 19 7d 3f be be 77 19 be 42 fe 92 bd 4c 9a e9 bd
       -0.18700065 -0.14987084 -0.07177402 -0.11406383
0002e0 4b 6e 61 be 6f d0 48 be 36 c3 a1 bd c2 24 cd bd
       -0.2201473 -0.19610761 -0.07898562 -0.100167766
0002f0 9d ae 16 be 1b d4 8e bd 47 32 57 be 35 5b 5b be
       -0.14715047 -0.0697405 -0.21015273 -0.21421511
000300 ba fe 4e be c3 a5 b2 bd 4a 42 9d bd 65 bc 3d be
       -0.20214358 -0.08723023 -0.07678659 -0.18528898
000310 35 fd 95 bd 54 72 be bd 12 e4 3b bd b2 3f 82 bd
       -0.07323686 -0.0929915 -0.0458718 -0.06359805
000320 b8 49 51 be 15 4c 61 be ba d8 cc bd ad 2e 86 bd
       -0.20438278 -0.22001679 -0.10002275 -0.065518714
000330 fb 34 6c bd ca ea 63 be 62 9b 20 3d 77 85 f0 bd
       -0.057667714 -0.22257534 0.039210685 -0.117442064
000340 14 17 b6 bd 4b c1 3c be 3d 7e 43 bd d4 97 d8 bd
       -0.088911206 -0.1843311 -0.047727812 -0.10575834
000350 c0 79 5c bb fd 7c 0f be 36 68 6f be 4d ef 11 be
       -0.0033641905 -0.14012523 -0.23379597 -0.14251442
000360 a0 1c 2b be fa 83 6a be f3 69 f2 bd 84 1a 4c be
       -0.16710138 -0.22901908 -0.118366145 -0.1993199
000370 56 8c 50 bd 8c 5c 29 bd b0 28 a3 bd 97 1c 07 be
       -0.050915085 -0.041348025 -0.07966745 -0.131945
000380 ef 27 80 be ed d2 38 be 4e f7 f4 bd a9 2c c7 bd
       -0.25030467 -0.18049212 -0.11961232 -0.09725315
000390 77 84 a8 3d a4 49 6c be a4 e2 16 be 55 14 17 be
       0.08228391 -0.23074967 -0.14734894 -0.1475385
0003a0 72 ca 45 be 2e 2c 10 be 62 82 6d 3c 8e 65 f5 bd
       -0.19315508 -0.14079353 0.014496418 -0.11982261
0003b0 46 8b 1d be 83 92 95 3d 07 ae 23 be 5e f0 47 be
       -0.1538516 0.073033355 -0.15984355 -0.19525287
0003c0 48 27 bd bd ad 8a 11 be c7 6b 1c 3d 49 44 90 bd
       -0.09236008 -0.14213057 0.038188722 -0.07044274
0003d0 5c 9f 50 bd 4a 1a 30 be b4 9c 8e bc 64 a2 a2 bd
       -0.050933227 -0.17197528 -0.017408706 -0.0794113
0003e0 d4 e4 69 be 12 20 45 bd b1 41 11 be d8 93 19 be
       -0.22841197 -0.048126288 -0.14185216 -0.14997804
0003f0 7b eb 18 be e6 40 55 be f8 66 7d be db 99 b5 bd
       -0.14933579 -0.20825538 -0.2474631 -0.08867236

fc2.bias f4 [9]
000000 c4 ef fb bd 84 7f f8 bd 68 fe 29 be 35 fc 45 3c
       -0.12301591 -0.12133697 -0.16600955 0.012084057
000010 eb 5b ce 3e d5 be 1d be 64 ca b0 bd 45 48 50 be
       0.40304503 -0.15404828 -0.08632353 -0.20340069
000020 e5 37 56 be
       -0.2091976
