runs/7_agents_50000_episodes_graph/models/critic_gnn.pth (torch, 9186 bytes, 10 tensors)

layer.w1.weight f4 [32, 9]
0.24593791 0.23236933 -0.012090475 0.034536965 -0.4204712 0.5646179 0.311663 -0.26285383
0.13609612 -0.005956173 0.08513877 0.06136061 -0.05500787 -0.21437441 -0.22103438 0.20031539
0.2387636 0.13777205 -0.2437958 -0.2939312 0.17529786 0.05608315 -0.46177635 0.28532985
0.13359764 0.13289401 0.10743818 0.25891712 0.14161107 0.2992516 -0.121172845 -0.41845647
0.6036167 -0.09159811 0.17901507 0.24303588 -0.320243 0.082827 -0.10821345 -0.06874716
-0.30534378 -0.17339773 -0.024749093 0.056082994 0.06315997 0.32726815 -0.08491902 0.018748173
-0.052497722 0.019893851 -0.35253912 0.15416652 0.08852282 -0.15086901 -0.17358133 0.037744522
0.26149714 0.14845218 -0.05512696 -0.5663397 -0.08766262 0.3073174 -0.15999624 -0.013731867
0.23397645 -0.01753722 -0.12251691 -0.5194746 0.15262951 0.1543189 -0.110691994 -0.27227348
-0.1201549 0.0972344 0.31123456 0.1343123 -0.4046691 -0.30299473 0.31112662 0.007941753
-0.17473757 0.123898596 -0.25637728 0.019543719 -0.06418743 0.036343567 0.46566814 -0.2273515
-0.22999045 -0.17420992 -0.08706176 0.011578888 -0.29305607 0.22823949 -0.1740826 0.0149845015
-0.16351068 -0.269786 0.14529717 -0.0053551495 0.031609774 0.024296846 -0.2710139 0.19152682
-0.45753568 0.2996381 -0.008084744 0.24214926 0.30367866 -0.11390293 0.24523826 0.30105376
0.045634847 0.3154793 0.08381814 -0.27945155 0.110014796 0.10405636 0.07431495 -0.117425926
-0.16629207 -0.39106864 0.025602875 0.00087838096 -0.318617 0.04179147 0.32672808 -0.019957662
0.0370327 0.32142857 -0.031516746 0.18975705 0.09547175 -0.06988403 -0.2593962 -0.32787836
-0.31399155 -0.15215044 -0.16175307 0.5362809 0.08286387 -0.35804293 -0.081287 -0.26557964
0.019086987 0.21683767 -0.20835584 0.15659596 -0.16182016 -0.18297033 0.01654017 -0.1306719
-0.11051571 -0.31196713 -0.24839179 0.051130403 -0.17336044 -0.27978233 -0.45065835 0.19369178
-0.30835855 0.09938419 -0.20677182 0.18790284 0.19332646 -0.2110678 -0.44201463 0.52612996
0.12188542 0.31845298 0.110716075 -0.13229959 -0.13357525 -0.014746086 0.19797276 -0.28906494
0.1527882 0.41048962 -0.047302037 0.23203734 -0.17692578 0.18487206 -0.24093975 0.10586286
-0.36513358 -0.42968538 0.021170346 -0.32825527 -0.047440797 0.26380697 0.17604217 0.0266591
-0.25079784 -0.24597055 -0.11055586 -0.41032076 -0.15167591 0.041155607 0.14349565 -0.06296566
0.11554497 -0.22268432 0.5514722 0.20828117 0.083392896 -0.12835178 0.13278615 0.015867084
-0.31194997 -0.29102677 -0.21570072 0.35167316 0.41375446 -0.021869719 0.27372333 -0.2506866
0.20868388 -0.12945864 -0.010303344 -0.30639243 0.43298316 0.37134725 -0.37162516 -0.20526502
0.23858657 0.15186381 -0.13621888 0.069290996 -0.16910991 -0.013393042 -0.49545777 -0.25480166
0.08776572 -0.30562693 0.124456644 0.2587653 -0.030273493 -0.18352194 0.17605235 -0.47744405
0.23470122 -0.15848999 -0.30583417 0.05565265 0.2222608 0.21152899 0.07943845 0.5043376
-0.46698347 0.038358726 0.21591905 0.32062355 -0.24193768 0.17513743 0.15760617 -0.013328097
00000000: 26d7 7b3e 3af2 6d3e 2117 46bc a276 0d3d
00000010: 0048 d7be cc8a 103f 4b92 9f3e c794 86be
00000020: c85c 0b3e 002c c3bb 3c5d ae3d 4355 7b3d
00000030: ef4f 61bd f784 5bbe d656 62be 7a1f 4d3e
00000040: 727e 743e 1e14 0d3e 9ba5 79be 267e 96be
00000050: 4881 333e 72b7 653d f36d ecbe c116 923e
00000060: d2cd 083e 5e15 083e 8c08 dc3d c990 843e
00000070: 7e02 113e 8137 993e 7829 f8bd ed3f d6be
00000080: a086 1a3f ca97 bbbd ba4f 373e 66de 783e
00000090: e4f6 a3be 34a1 a93d 039f ddbd 50cb 8cbd
000000a0: 0556 9cbe 2d8f 31be 9cbe cabc 48b7 653d
000000b0: 045a 813d b18f a73e 06ea adbd c595 993c
000000c0: da07 57bd 6ef8 a23c 0280 b4be d4dd 1d3e
000000d0: 744b b53d 687d 1abe 4ebf 31be 009a 1a3d
000000e0: f4e2 853e d903 183e cfcc 61bd a3fb 10bf
000000f0: 7688 b3bd b558 9d3e 0ed6 23be a0fb 60bc
00000100: 8697 6f3e 37aa 8fbc 25ea fabd 4afc 04bf
00000110: e94a 1c3e c605 1e3e 7cb2 e2bd 6e67 8bbe
00000120: c613 f6bd d422 c73d 235a 9f3e 2a89 093e
00000130: ca30 cfbe 2022 9bbe fd4b 9f3e 201e 023c
00000140: 68ee 32be 8cbe fd3d e243 83be 261a a03c
00000150: b374 83bd fedc 143d 0e6c ee3e d5ce 68be
00000160: 9e82 6bbe 1664 32be 704d b2bd 60b5 3d3c
00000170: 720b 96be 9db7 693e b642 32be 8e81 753c
00000180: 586f 27be 6421 8abe c8c8 143e 407a afbb
00000190: 4079 013d 2e0a c73c 55c2 8abe 9b1f 443e
000001a0: 1e42 eabe 2a6a 993e e075 04bc faf5 773e
000001b0: c57b 9b3e f045 e9bd bd1f 7b3e b823 9a3e
000001c0: 9beb 3a3d 8186 a13e d8a8 ab3d 4614 8fbe
000001d0: 704f e13d 801b d53d 7032 983d 017d f0bd
000001e0: 7848 2abe 263a c8be 1fbd d13c 2643 663a
000001f0: c421 a3be 882d 2b3d e748 a73e 407e a3bc
00000200: 9aaf 173d 4992 a43e b417 01bd ac4f 423e
00000210: b186 c33d 5c1f 8fbd 94cf 84be acdf a7be
00000220: 80c3 a0be 53cd 1bbe 99a2 25be b449 093f
00000230: 88b4 a93d 6751 b7be cc79 a6bd 0efa 87be
00000240: 505c 9c3c b20a 5e3e 3c5b 55be b15a 203e
00000250: 2fb4 25be 935c 3bbe 407f 873c dbce 05be
00000260: 1056 e2bd 28ba 9fbe 6b5a 7ebe 1d6e 513d
00000270: 6685 31be a13f 8fbe b1bc e6be 2357 463e
00000280: 2ce1 9dbe f089 cb3d febb 53be 9a69 403e
00000290: 5ff7 453e 2822 58be be4f e2be 74b0 063f
000002a0: 109f f93d 450c a33e 1cbf e23d 8b79 07be
000002b0: f3c7 08be 9199 71bc 5fb9 4a3e 5200 94be
000002c0: 8374 1c3e b22b d23e c8bf 41bd 329b 6d3e
000002d0: 082c 35be 1a4f 3d3e e9b8 76be a1ce d83d
000002e0: caf2 babe b9ff dbbe 6f6d ad3c 1311 a8be
000002f0: 4851 42bd b511 873e 6644 343e 2f64 da3c
00000300: 9368 80be b4df 7bbe 1c6b e2bd 9015 d2be
00000310: ee50 1bbe c892 283d 86f0 123e 24f4 80bd
00000320: d7a2 ec3d 5c07 64be 482d 0d3f a947 553e
00000330: e5c9 aa3d a66e 03be 18f9 073e b0fb 813c
00000340: e8b7 9fbe 7601 95be a6e0 5cbe 810e b43e
00000350: a0d7 d33e 2028 b3bc 7725 8c3e fe59 80be
00000360: 3ab1 553e ce90 04be 5bcf 28bc 78df 9cbe
00000370: f8af dd3e 3a21 be3e a745 bebe fe30 52be
00000380: 0a50 743e 3082 1b3e f67c 0bbe 70e8 8d3d
00000390: 262b 2dbe 7d6e 5bbc a4ac fdbe 5d75 82be
000003a0: 84be b33d 227b 9cbe 20e3 fe3d e37c 843e
000003b0: 1e00 f8bc 2ded 3bbe 1147 343e 8c73 f4be
000003c0: 8455 703e 334b 22be 4c96 9cbe 08f4 633d
000003d0: 5698 633e 0e9b 583e a0b0 a23d 451c 013f
000003e0: 7518 efbe 0a1e 1d3d e219 5d3e c528 a43e
000003f0: 83be 77be 3a57 333e 8363 213e 175e 5abc

layer.w1.bias f4 [32]
0.2056896 -0.10964064 -0.28057745 0.21397106 -0.2109165 -0.26103252 0.41868126 0.26717338
-0.14655161 -0.16449027 0.32947463 -0.26170343 0.06044639 0.26897892 0.55652696 -0.15077382
-0.15352388 0.19517799 -0.23899771 0.24697393 0.23649381 -0.04344239 0.34024903 -0.21858983
-0.15346521 -0.113002256 0.32711 -0.19213077 0.21014848 -0.43577164 -0.0010221729 -0.11198301
00000000: 4ba0 523e 468b e0bd d9a7 8fbe 3b1b 5b3e
00000010: 7ffa 57be 0ea6 85be 645d d63e f3ca 883e
00000020: a011 16be 2370 28be e6b0 a83e fefd 85be
00000030: a296 773d 9bb7 893e 8d78 0e3f 7464 1abe
00000040: 5d35 1dbe bddc 473e d1bb 74be bce6 7c3e
00000050: 6f2b 723e a6f0 31bd 1f35 ae3e 03d6 5fbe
00000060: fc25 1dbe ba6d e7bd f67a a73e eebd 44be
00000070: 2a31 573e 761d dfbe 6efa 85ba 5957 e5bd

layer.w2.weight f4 [32, 9]
-0.3121364 -0.24078475 -0.2667023 0.19501513 -0.1454144 0.22402014 0.15067895 0.0076828096
0.13546091 -0.20654014 -0.044272304 0.004755966 -0.23750208 -0.391955 0.22708258 0.023188729
-0.25149122 0.18715592 -0.04317678 -0.26976973 0.26120496 0.22759199 -0.055511177 -0.20532174
-0.31852123 0.011681967 -0.049034618 0.016597087 -0.035816275 -0.3331577 0.009010798 0.09528487
0.01534232 -0.116535716 0.029350873 0.21207772 -0.24905318 -0.3343736 -0.046820037 -0.15490031
-0.33599085 0.17976597 -0.25381193 0.026691582 -0.124575995 -0.169345 0.297526 -0.20030111
-0.10327324 -0.28201 0.03699245 -0.30448183 -0.0101219155 -0.27321306 0.06336729 -0.15571192
0.13023989 -0.06983973 0.15991673 -0.1611386 0.34212157 -0.030980296 0.14096712 -0.33981195
0.011653257 -0.29062364 0.29959 0.19375426 0.27864587 -0.32351467 -0.34023282 0.26583457
-0.07983098 0.12268279 0.13591997 0.12946908 -0.21833713 0.16395053 -0.09318956 0.028066235
-0.15175784 0.2772637 -0.061991952 -0.09723195 0.19010016 -0.061985705 0.27943414 0.14554307
0.113133736 0.17574126 -0.111859605 0.06404262 -0.099825054 -0.19332546 0.062289625 -0.20571059
0.26689544 0.10398201 0.3002573 0.34091267 0.023140853 0.26948106 0.030933492 -0.16123004
-0.37620443 -0.13227694 -0.06780696 -0.19738093 0.45563337 0.37530017 -0.2708053 0.27331623
-0.08113129 0.10832424 -0.28441748 0.07837909 0.09675867 0.03390869 0.2955153 -0.1681548
0.054482955 0.018197972 0.21950997 -0.28390247 0.14414607 0.13290781 0.16874817 0.34984905
0.2577358 -0.32583928 -0.09703601 0.3096891 0.31621405 0.50957006 -0.003819648 -0.18558533
0.049060237 -0.31009862 0.27241406 0.27836603 0.19983792 -0.19368804 -0.21312824 0.07758523
-0.25074404 -0.19562665 -0.30705753 0.3094469 -0.22328153 -0.1955863 -0.26507148 -0.04499538
0.07875234 -0.22526889 -0.033110864 -0.10847276 0.29435113 -0.31600043 -0.19176601 -0.070990704
0.053275343 0.28820184 0.13589667 -0.03542434 -0.013241197 0.17120148 -0.13288075 0.2507655
0.19484809 -0.19617313 0.09412011 -0.12551911 0.21356209 0.17386658 0.24672589 0.15402493
0.070738666 0.32082778 0.26828048 0.36429143 -0.48422518 -0.06886981 -0.0011862182 -0.13650227
-0.120611794 -0.057031184 -0.16062282 -0.3496238 0.1660003 -0.30199364 -0.1422199 0.0799484
0.021608874 0.0099410685 -0.20008026 -0.04785249 -0.3384248 -0.11712402 0.023284364 0.14064114
0.24602084 0.27727973 0.081097566 0.32283956 0.013374694 0.41577625 0.25057387 0.4193472
-0.079305165 -0.29355872 -0.13491888 0.2965785 0.15168017 0.16941668 -0.13956393 0.11318383
0.41209915 -0.17038082 0.30992034 -0.013642118 0.40109724 0.16779304 -0.261165 0.15966228
-0.063816726 -0.28018257 -0.41880578 -0.0057820235 -0.23406562 0.00856863 -0.33875415 -0.045083907
0.021576673 0.07124991 -0.13411307 -0.116380595 -0.16148826 -0.071319796 -0.13562271 -0.12263168
-0.110550016 0.23228467 -0.21079166 -0.106526665 -0.22977003 -0.24875373 -0.06153877 0.3084009
-0.047120225 0.27797312 0.08132339 0.14338791 0.11431437 0.24366975 -0.3129752 0.17637444
00000000: 58d0 9fbe 4790 76be 348d 88be 0cb2 473e
00000010: 83e7 14be 8965 653e 954b 1a3e 14c0 fb3b
00000020: 44b6 0a3e 427f 53be e056 35bd efd7 9b3b
00000030: bf33 73be 53ae c8be 5688 683e 4af6 bd3c
00000040: 75c3 80be cda5 3f3e 23da 30bd 421f 8abe
00000050: a8bc 853e e00d 693e b05f 63bd dd3f 52be
00000060: 3715 a3be b965 3f3c 86d8 48bd 9df6 873c
00000070: 16b4 12bd a593 aabe 07a2 133c b724 c33d
00000080: 5b5e 7b3c 47aa eebd 3e71 f03c e72a 593e
00000090: cc07 7fbe 0433 abbe 5ec6 3fbd 309e 1ebe
000000a0: fe06 acbe 9214 383e a3f3 81be 4ea8 da3c
000000b0: b321 ffbd c768 2dbe 5455 983e bc1b 4dbe
000000c0: ec80 d3bd 9d63 90be 6585 173d 0be5 9bbe
000000d0: 64d6 25bc 95e2 8bbe b6c6 813d f272 1fbe
000000e0: 9b5d 053e 2208 8fbd 36c1 233e 8401 25be
000000f0: 8f2a af3e 64ca fdbc af59 103e d5fb adbe
00000100: 4ded 3e3c 9fcc 94be dc63 993e 8467 463e
00000110: acaa 8e3e b7a3 a5be ff32 aebe 781b 883e
00000120: 6d7e a3bd 1d41 fb3d 9b2e 0b3e 8b93 043e
00000130: c593 5fbe a6e2 273e 2bda bebd 29eb e53c
00000140: 6866 1bbe 82f5 8d3e 46eb 7dbd 8b21 c7bd
00000150: 9ea9 423e b9e4 7dbd fe11 8f3e 3e09 153e
00000160: a9b2 e73d 84f5 333e a616 e5bd c728 833d
00000170: 1471 ccbd 1cf7 45be 6823 7f3d cca5 52be
00000180: 85a6 883e 85f4 d43d 53bb 993e 1b8c ae3e
00000190: e391 bd3c 6cf9 893e 3c68 fd3c 7d19 25be
000001a0: de9d c0be 9b73 07be 60de 8abd 3a1e 4abe
000001b0: c748 e93e 5827 c03e fea6 8abe 1bf0 8b3e
000001c0: 2928 a6bd 19d9 dd3d 2b9f 91be 3785 a03d
000001d0: 6929 c63d d7e3 0a3d c84d 973e c630 2cbe
000001e0: 8529 5f3d ea13 953c 39c7 603e aa5b 91be
000001f0: 079b 133e fc18 083e 52cc 2c3e 6a1f b33e
00000200: f2f5 833e 68d4 a6be d1ba c6bd 928f 9e3e
00000210: cfe6 a13e 2f73 023f 0f53 7abb 150a 3ebe
00000220: 63f3 483d 3fc5 9ebe db79 8b3e fe85 8e3e
00000230: 50a2 4c3e 2856 46be 4a3e 5abe 01e5 9e3d
00000240: 8661 80be 5a52 48be a536 9dbe d36f 9e3e
00000250: eaa3 64be c647 48be 73b7 87be 134d 38bd
00000260: e848 a13d e3ac 66be 429f 07bd f726 debd
00000270: 31b5 963e cfca a1be 4f5e 44be 9363 91bd
00000280: 3f37 5a3d 318f 933e 7f28 0b3e 1d19 11bd
00000290: 9bf1 58bc 714f 2f3e e411 08be 5664 803e
000002a0: 4286 473e 9ce1 48be 0bc2 c03d 1588 00be
000002b0: 05b0 5a3e 150a 323e b6a5 7c3e b6b8 1d3e
000002c0: 6fdf 903d 8a43 a43e 0f5c 893e 6884 ba3e
000002d0: 5dec f7be 9d0b 8dbd e17a 9bba 40c7 0bbe
000002e0: 5103 f7bd 8899 69bd 4f7a 24be e401 b3be
000002f0: fcfb 293e e99e 9abe 18a2 11be fdbb a33d
00000300: 1805 b13c dddf 223c d7e1 4cbe f900 44bd
00000310: 0446 adbe b8de efbd dabe be3c 3b04 103e
00000320: e3ec 7b3e 9cf7 8d3e 7b16 a63d 3a4b a53e
00000330: 8821 5b3c a0e0 d43e 384b 803e adb4 d63e
00000340: bf6a a2bd 544d 96be 2d28 0abe 23d9 973e
00000350: 0c52 1b3e 917b 2d3e d9e9 0ebe edcc e73d
00000360: a9fe d23e 4f78 2ebe e1ad 9e3e 3183 5fbc
00000370: 9e5c cd3e f0d1 2b3e 6bb7 85be 827e 233e
00000380: 58b2 82bd 1774 8fbe b66d d6be 2177 bdbb
00000390: e6ae 6fbe 7063 0c3c 2f71 adbe e7a9 38bd
000003a0: 90c1 b03c 79eb 913d f054 09be f358 eebd
000003b0: 2e5d 25be 1d10 92bd aee0 0abe 5126 fbbd
000003c0: 0c68 e2bd 08dc 6d3e c5d9 57be a72a dabd
000003d0: d648 6bbe 4cb9 7ebe 1410 7cbd b9e6 9d3e
000003e0: 2301 41bd 7e52 8e3e e18c a63d 48d4 123e
000003f0: a71d ea3d 9084 793e 493e a0be 809b 343e

layer.w2.bias f4 [32]
0.04797794 0.082430966 -0.099526465 0.08513945 0.17483099 0.18713091 0.17993842 -0.2954691
-0.16016665 -0.27944255 0.2564219 -0.15130106 0.015572571 0.14910144 0.09864067 -0.3999213
0.12085752 -0.043601945 -0.12239706 0.050875 -0.2780176 0.12913036 0.017420584 0.15793541
-0.08139525 -0.12810445 0.20594496 0.02040181 0.15068834 -0.21299754 -0.12046955 -0.31204534
00000000: 8484 443d 91d1 a83d 88d4 cbbd 985d ae3d
00000010: e506 333e 3f9f 3f3e c741 383e ba47 97be
00000020: ba02 24be 1813 8fbe bb49 833e aaee 1abe
00000030: 1924 7f3c 0cae 183e 1f04 ca3d 7cc2 ccbe
00000040: 2684 f73d f497 32bd 4fab fabd 4e62 503d
00000050: 5358 8ebe c03a 043e 9db5 8e3c d2b9 213e
00000060: 8eb2 a6bd d02d 03be 3ce3 523e b221 a73c
00000070: 0b4e 1a3e 071c 5abe bdb8 f6bd 68c4 9fbe

layer.w3.weight f4 [32, 9]
-0.31642744 -0.18781273 -0.0044518528 0.1327747 0.030072885 -0.1689164 0.2832171 0.00014770031
-0.12754254 -0.20613389 0.14356866 -0.03365326 0.274855 -0.23787676 0.15822987 0.2347037
0.047614902 0.042740017 -0.31718516 -0.26545167 -0.14530234 -0.2187485 0.10637672 -0.08375066
0.13207321 -0.33212394 -0.008781463 -0.20923242 -0.17449841 -0.018084869 -0.30448318 -0.06719045
0.04304246 -0.21047777 -0.23983948 -0.017360836 -0.32551634 -0.10693376 0.31279945 0.4133863
0.034285426 0.25333923 0.28625688 0.0033317804 0.022025794 0.02666545 0.043679804 0.28195018
-0.068580486 -0.14571886 0.0804688 0.13173214 -0.10869023 -0.3026113 0.007155031 -0.08800523
0.106679045 -0.3078853 0.12890567 -0.27071643 -0.19871424 -0.11742902 -0.20099747 -0.19128776
-0.09651992 0.24350365 -0.051537365 0.1803209 -0.012841177 -0.08549046 0.18305114 0.23078081
0.06069386 -0.09684703 -0.24112447 0.33810213 -0.30158284 0.33360493 0.0425353 0.30675963
-0.20785579 -0.053670883 -0.26050946 0.21126328 0.07657291 0.26591358 0.18444332 -0.009004894
0.12108052 0.025550216 0.009716541 -0.27743107 0.27723205 -0.087146305 -0.15070906 0.15030481
-0.03188217 0.27851263 -0.25599802 0.09835398 -0.036777735 -0.082772024 0.24661891 0.15382074
0.105563566 -0.13283452 0.2538803 0.22912571 0.12435499 0.17881426 0.017405948 -0.076666996
0.16406487 0.07334255 0.23538984 0.32999673 -0.054888964 -0.29849455 -0.12316081 -0.039083287
-0.20446473 -0.12522131 0.14322168 -0.21961305 -0.044701308 -0.26503158 -0.050907105 0.099148005
0.00895993 -0.35760048 -0.09970996 0.2506283 -0.2939001 -0.114630505 0.23503831 -0.19911906
-0.20436482 -0.082623266 -0.1246449 -0.04814729 0.21676725 0.17458393 -0.041523695 0.088309914
0.08198622 -0.084236905 0.30118746 0.022246616 -0.31973162 -0.06464422 0.29617447 0.056018203
0.05237463 -0.105885625 0.14370456 0.002922873 0.021098755 -0.2543786 0.32456023 -0.32113355
-0.1547846 0.22818288 -0.3078221 -0.30422497 0.32726482 0.30558637 -0.2387624 -0.16710457
-0.21172492 0.030438185 -0.20510957 0.30257228 -0.14477865 -0.16315986 0.33048204 -0.010691077
0.061201867 -0.13394211 -0.230522 -0.24129812 -0.22169344 0.0982784 -0.007030212 -0.18668807
0.08151884 -0.24762449 -0.021036077 -0.30251056 0.16546854 0.20806631 -0.13927817 -0.23108174
0.2244407 0.16768181 0.31329143 0.07836182 0.09896815 0.2120426 -0.21232593 -0.122314855
0.24695477 -0.023280447 -0.20830116 -0.16854337 0.22966984 0.29053494 -0.07449749 -0.012735635
-0.11523795 0.19978517 -0.056396574 0.005832652 0.2911523 -0.2596565 -0.027986318 -0.061605185
0.17464682 0.013968706 0.24928893 0.09959133 0.30854183 -0.10705602 0.23050778 0.16110262
0.26863125 -0.103054136 -0.10404956 0.18850341 -0.09073491 0.057030674 -0.017791716 -0.2644126
0.28779772 -0.18043523 0.08919084 -0.18851528 -0.15145957 -0.18588759 -0.32736996 -0.33172467
-0.24833053 -0.28176957 0.24107876 0.06318453 -0.10144794 -0.24898075 -0.20527314 0.069796
0.27442196 -0.1239883 -0.23885751 -0.17379376 0.045621276 0.13623798 -0.1507395 -0.1496093
00000000: c702 a2be fb51 40be d9e0 91bb 17f6 073e
00000010: 695b f63c 6cf8 2cbe d501 913e 00e0 1a39
00000020: 839a 02be c314 53be aa03 133e 00d8 09bd
00000030: cbb9 8c3e f795 73be 0307 223e 2b56 703e
00000040: d807 433d 2810 2f3d 1866 a2be 48e9 87be
00000050: 23ca 14be 9bff 5fbe 0adc d93d 7785 abbd
00000060: 333e 073e 260c aabe 20e0 0fbc 0641 56be
00000070: b6af 32be b826 94bc 38e5 9bbe 269b 89bd
00000080: 4a4d 303d 7c87 57be 7b98 75be 5038 8ebc
00000090: 14aa a6be 1600 dbbd 4027 a03e 5ea7 d33e
000000a0: e06e 0c3d aeb5 813e 4390 923e 005a 5a3b
000000b0: 706f b43c 8071 da3c 98e9 323d c65b 903e
000000c0: ed73 8cbd 5337 15be d4cc a43d cae4 063e
000000d0: fc98 debd deef 9abe c074 ea3b 163c b4bd
000000e0: 8b7a da3d 24a3 9dbe d9ff 033e 589b 8abe
000000f0: bf7b 4bbe a07e f0bd 48d2 4dbe f0e0 43be
00000100: 3cac c5bd 0559 793e d818 53bd 0ba6 383e
00000110: cd63 52bc 9f15 afbd c271 3b3e ce51 6c3e
00000120: 209a 783d bc57 c6bd 55e9 76be b91b ad3e
00000130: 1169 9abe 44ce aa3e 7f39 2e3d 990f 9d3e
00000140: 26d8 54be 00d6 5bbd 7f61 85be 6755 583e
00000150: 42d2 9c3d d325 883e b6de 3c3e 4389 13bc
00000160: 10f9 f73d b04e d13c 2032 1f3c 720b 8ebe
00000170: 5cf1 8d3e c379 b2bd 7a53 1abe 81e9 193e
00000180: e196 02bd 3599 8e3e 2c12 83be d06d c93d
00000190: 40a4 16bd 6184 a9bd ab89 7c3e 2f83 1d3e
000001a0: b631 d83d c605 08be 99fc 813e ee9f 6a3e
000001b0: d4ad fe3d 161b 373e eb96 8e3c 9603 9dbd
000001c0: 9f00 283e 9e34 963d 090a 713e 55f5 a83e
000001d0: 40d3 60bd 47d4 98be bc3b fcbd cc15 20bd
000001e0: 345f 51be 043a 00be b4a8 123e 3ee2 60be
000001f0: b818 37bd 38b2 87be f883 50bd 1c0e cb3d
00000200: accc 123c 6917 b7be bc34 ccbd 5a52 803e
00000210: 137a 96be 66c3 eabd e2ad 703e dee5 4bbe
00000220: 0345 51be 6336 a9bd d345 ffbd 1836 45bd
00000230: 3cf8 5d3e 21c6 323e c014 2abd d4db b43d
00000240: 64e8 a73d 6684 acbd 3e35 9a3e 893e b63c
00000250: ddb3 a3be 3064 84bd 2ea4 973e 5873 653d
00000260: c886 563d 90da d8bd 4a27 133e ac8d 3f3b
00000270: 4cd7 ac3c e93d 82be c22c a63e 9e6b a4be
00000280: db7f 1ebe c6a8 693e dc9a 9dbe 60c3 9bbe
00000290: 418f a73e d175 9c3e 217e 74be 761d 2bbe
000002a0: 6bce 58be 8059 f93c 3e08 52be c1ea 9a3e
000002b0: db40 14be 6113 27be f134 a93e a129 2fbc
000002c0: cfae 7a3d 1f28 09be f60d 6cbe db16 77be
000002d0: 9b03 63be 3046 c93d b15d e6bb 282b 3fbe
000002e0: 59f3 a63d 4691 7dbe da53 acbc aae2 9abe
000002f0: 9670 293e 560f 553e f09e 0ebe b1a0 6cbe
00000300: c8d3 653e c8b4 2b3e bc67 a03e 297c a03d
00000310: d0af ca3d b221 593e f86b 59be 3680 fabd
00000320: b6e1 7c3e a3b6 bebc e64c 55be a296 2cbe
00000330: 922e 6b3e ffc0 943e 2492 98bd 20a9 50bc
00000340: e001 ecbd 7c94 4c3e 1800 67bd d51f bf3b
00000350: ea11 953e b2f1 84be 9043 e5bc b855 7cbd
00000360: 9ed6 323e 00dd 643c 9945 7f3e 8af6 cb3d
00000370: 32f9 9d3e 3040 dbbd 3b0a 6c3e 16f8 243e
00000380: 098a 893e 0c0e d3bd f017 d5bd 0a07 413e
00000390: 39d3 b9bd ff98 693d efbf 91bc 1761 87be
000003a0: 395a 933e 03c4 38be b0a9 b63d 260a 41be
000003b0: 3818 1bbe 5159 3ebe 099d a7be d1d7 a9be
000003c0: 5c4a 7ebe 1a44 90be 5add 763e e466 813d
000003d0: f0c3 cfbd cff4 7ebe 1f33 52be 35f1 8e3d
000003e0: 0981 8c3e 94ed fdbd 1097 74be fef6 31be
000003f0: 60dd 3a3d f881 0b3e 755b 1abe 2e33 19be

layer.w3.bias f4 [32]
-0.14945778 -0.22474109 0.026599655 0.28151098 0.09490675 -0.10932854 0.08417045 -0.18224911
0.039623853 -0.072221085 0.24332106 -0.09058547 0.24978945 0.059439424 0.07374043 0.015088868
0.42987347 -0.29906732 0.1692438 -0.2110763 0.09896668 -0.2753748 0.023847397 -0.18029886
-0.284495 0.104662605 -0.28522664 0.22971636 -0.0867541 -0.23385608 -0.14229527 -0.29550472
00000000: 760b 19be 8722 66be 85e7 d93c 3522 903e
00000010: 785e c23d a4e7 dfbd 8f61 ac3d 839f 3abe
00000020: 9f4c 223d a6e8 93bd 2829 793e e084 b9bd
00000030: cec8 7f3e c176 733d 3905 973d 4d37 773c
00000040: 6018 dc3e 5a1f 99be 3f4e 2d3e 6324 58be
00000050: 0baf ca3d edfd 8cbe 9e5b c33c 44a0 38be
00000060: 54a9 91be 5959 d63d 3a09 92be c43a 6b3e
00000070: 22ac b1bd f877 6fbe dab5 11be 654c 97be

layer.w4.weight f4 [32, 9]
0.1885493 0.08854731 -0.32192525 0.25790367 0.21186078 -0.1274795 -0.04367396 0.0032680256
-0.62023497 0.0676594 -0.17756842 0.28332835 0.18389045 0.22020352 -0.29937765 -0.17674465
-0.05293786 -0.18616663 0.006329304 0.09219506 -0.29394963 0.28424507 0.103112474 -0.123341545
-0.090195335 -0.088609174 0.5180832 -0.101106696 -0.2655637 -0.1808506 -0.08676303 0.21608216
-0.103594266 -0.19905753 -0.43239158 0.16291527 -0.0018495754 0.10908105 -0.17350572 -0.17090641
-0.04011613 -0.16492103 -0.29769817 0.24901098 -0.46282786 0.14233631 -0.19114675 -0.14531632
-0.14551874 0.20811707 -0.009784136 -0.18557239 -0.103722684 -0.23286563 0.2428086 -0.08306673
-0.23639552 0.14195326 -0.15350229 -0.18385105 0.24767478 -0.41282687 -0.0116125615 -0.2515076
-0.13054469 -0.1363072 -0.15355761 -0.067645505 0.26862666 0.26130128 0.16958022 0.09238923
-0.27281687 0.20095922 0.28124008 -0.009118083 -0.20331922 0.2766341 -0.06478102 -0.20755303
-0.38441452 -0.31136456 -0.2736127 0.015305008 -0.26919004 -0.009075832 -0.029603213 -0.19791229
0.18868981 0.06644728 0.18497413 -0.29779252 0.20360023 0.07343188 0.009233171 -0.026023662
0.23888576 -0.044295225 -0.33150148 0.2429036 -0.1547634 -0.016215239 0.25873804 0.14098376
0.20118174 -0.26823097 0.33478385 -0.08659799 0.3482554 -0.15112701 -0.040579703 -0.17958395
0.24724467 0.15578772 -0.15057462 0.004393369 0.011093749 0.1573234 0.04668323 -0.10497239
0.059090964 0.08124913 -0.29030457 -0.14058243 -0.3053566 0.41385475 0.36107114 0.25865996
-0.15733814 0.046383146 -0.2472168 -0.105300084 0.30541328 -0.017832657 0.409073 0.35252854
0.36946288 0.054252815 -0.023316897 -0.16608995 0.02044381 0.18512948 -0.3818472 -0.18610033
0.040781517 0.21118638 -0.047625426 -0.2508069 -0.07203711 -0.1634291 -0.023284573 0.41949943
-0.3989705 -0.21548024 -0.0041228128 -0.25477698 0.31750938 0.22548491 0.3304121 0.10252531
-0.113743484 0.095993206 0.20745064 -0.08976902 0.05581112 -0.086176634 -0.11924795 0.19444709
-0.16544801 -0.013917409 -0.26777756 -0.3453205 -0.103278846 0.26322716 -0.32306495 0.30616856
-0.020482894 -0.2436679 0.15391669 0.085280016 -0.162339 0.15983866 -0.16082528 -0.1825232
-0.27965078 -0.18985984 -0.039369244 -0.4852332 0.11738352 -0.11632906 0.27325538 0.17801757
0.18773873 0.36165535 -0.227826 -0.12909946 0.18067881 -0.118185036 0.25647178 0.022109827
0.016826555 -0.09770468 0.16383068 0.29611608 0.037510257 -0.056446962 -0.27412865 0.035384394
-0.3147845 -0.061444055 0.14873454 0.23418306 0.08841939 0.13676605 -0.042384144 0.0040683076
0.22555983 0.033869684 -0.28900856 -0.1292646 0.22284093 -0.29254234 -0.12746719 0.4906813
-0.060808226 -0.144388 0.1764202 0.04244153 0.23087455 -0.10156781 0.26900083 -0.2442052
0.3539455 -0.34349832 -0.05932573 -0.004484617 0.14411265 -0.13706908 -0.104675144 -0.3035091
-0.23763902 -0.30396175 0.40637657 -0.21240103 -0.16864914 -0.2253787 0.0066770795 0.29997626
0.19932944 0.12173207 -0.53781754 0.014422359 0.19589277 0.0051800134 -0.2804816 0.3341291
00000000: 1113 413e 4b58 b53d 63d3 a4be f30b 843e
00000010: 08f2 583e fc89 02be 77e3 32bd 5f2c 563b
00000020: b8c7 1ebf 0391 8a3d 7fd4 35be 6a10 913e
00000030: c74d 3c3e 087d 613e 0748 99be 8dfc 34be
00000040: 5fd5 58bd 77a2 3ebe 0d66 cf3b c3d0 bc3d
00000050: 9180 96be 9288 913e a22c d33d 7e9a fcbd
00000060: 55b8 b8bd ba78 b5bd 1aa1 043f 0711 cfbd
00000070: f7f7 87be e630 39be d1b0 b1bd a444 5d3e
00000080: 3b29 d4bd bdd5 4bbe 6e62 ddbe 43d3 263e
00000090: 746d f2ba e365 df3d 7cab 31be 1702 2fbe
000000a0: d050 24bd 0fe1 28be e56b 98be bcfc 7e3e
000000b0: c6f7 ecbe 9cc0 113e f9bb 43be cdcd 14be
000000c0: dd02 15be a41c 553e a44d 20bc b006 3ebe
000000d0: 8f6c d4bd 5474 6ebe d1a2 783e e41e aabd
000000e0: ab11 72be 325c 113e b42f 1dbe 7343 3cbe
000000f0: 759e 7d3e 0b5e d3be 9d42 3ebc 9bc5 80be
00000100: 82ad 05be 1d94 0bbe 353e 1dbe ba89 8abd
00000110: 6f89 893e 48c9 853e 70a6 2d3e 9136 bd3d
00000120: a7ae 8bbe 41c8 4d3e b3fe 8f3e 0364 15bc
00000130: ea32 50be fca2 8d3e e9ab 84bd c888 54be
00000140: fbd1 c4be 2d6b 9fbe f716 8cbe dbc1 7a3c
00000150: 47d3 89be ccb2 14bc 7082 f2bc 85a9 4abe
00000160: e737 413e 8315 883d dc69 3d3e 4378 98be
00000170: 947c 503e 7463 963d ba46 173c 932f d5bc
00000180: 789e 743e e96e 35bd 90ba a9be b9bb 783e
00000190: 4c7a 1ebe d2d5 84bc 5079 843e 0c5e 103e
000001a0: 9602 4e3e 9255 89be ca68 ab3e 495a b1bd
000001b0: 884e b23e 0ac1 1abe e736 26bd dbe4 37be
000001c0: b52d 7d3e d186 1f3e 3c30 1abe 40f6 8f3b
000001d0: 8ec2 353c 6319 213e ea36 3f3d c4fb d6bd
000001e0: 5e09 723d f265 a63d cda2 94be d7f4 0fbe
000001f0: b357 9cbe c5e4 d33e 51de b83e 146f 843e
00000200: 401d 21be 41fc 3d3d 6726 7dbe 92a7 d7bd
00000210: 215f 9c3e cb15 92bc 0472 d13e 9f7e b43e
00000220: 3d2a bd3e 3338 5e3d 1403 bfbc 7c13 2abe
00000230: c779 a73c 9592 3d3e 7a81 c3be 1691 3ebe
00000240: 850a 273d 3e41 583e e112 43bd c369 80be
00000250: 3188 93bd f559 27be 4abf bebc a1c8 d63e
00000260: dd45 ccbe daa6 5cbe a918 87bb 2172 82be
00000270: 9790 a23e 84e5 663e c62b a93e caf8 d13d
00000280: 58f2 e8bd 1698 c43d f16d 543e d2d8 b7bd
00000290: 339a 643d 607d b0bd 4538 f4bd 231d 473e
000002a0: 346b 29be d805 64bc 241a 89be d9cd b0be
000002b0: dc83 d3bd b6c5 863e c568 a5be 20c2 9c3e
000002c0: becb a7bc 1484 79be 569c 1d3e 4aa7 ae3d
000002d0: 323c 26be bfac 233e 62af 24be 5de7 3abe
000002e0: 632e 8fbe 9e6a 42be a541 21bd 7c70 f8be
000002f0: c566 f03d ee3d eebd 21e8 8b3e 3d4a 363e
00000300: 953e 403e e42a b93e 384b 69be a632 04be
00000310: de03 393e ff0a f2bd 4550 833e ab1f b53c
00000320: d8d7 893c 6419 c8bd 3bc3 273e 879c 973e
00000330: 5ba4 193d ee34 67bd 975a 8cbe 3aef 103d
00000340: 6f2b a1be c3ac 7bbd de4d 183e afcd 6f3e
00000350: 3a15 b53d 660c 0c3e ff9a 2dbd 704f 853b
00000360: 28f9 663e f0ba 0a3d eef8 93be f05d 04be
00000370: 6a30 643e 1cc8 95be c286 02be 943a fb3e
00000380: 0c12 79bd 73da 13be 7fa7 343e 2bd7 2d3d
00000390: 616a 6c3e c902 d0bd 7aba 893e ee10 7abe
000003a0: 5838 b53e 03df afbe 89ff 72bd b2f3 92bb
000003b0: 4492 133e d65b 0cbe ec5f d6bd 8b65 9bbe
000003c0: a557 73be e0a0 9bbe 9710 d03e a87f 59be
000003d0: 5cb2 2cbe adc9 66be 67cb da3b 7d96 993e
000003e0: 041d 4c3e aa4e f93d 69ae 09bf c24b 6c3c
000003f0: 1d98 483e 1abd a93b 499b 8fbe f812 ab3e

layer.w4.bias f4 [32]
0.11963445 -0.22036095 0.09009608 0.32238117 -0.27923837 0.15555403 0.11381497 0.028379133
-0.058748454 0.039247368 -0.0022862863 0.264687 0.06827421 0.107274026 0.02350598 -0.08935499
0.07093654 0.048062325 -0.24123445 0.019565014 -0.30735284 0.2819869 0.16538285 -0.29772043
-0.30341184 -0.17434803 -0.06008808 0.17557995 -0.2879791 0.10746868 -0.30206266 -0.27640435
00000000: e802 f53d 4da6 61be 4b84 b83d 250f a53e
00000010: 55f8 8ebe 8e49 1f3e d317 e93d 5b7b e83c
00000020: 38a2 70bd d9c1 203d 85d5 15bb 0e85 873e
00000030: 59d3 8b3d 7cb2 db3d 9d8f c03c c0ff b6bd
00000040: 2d47 913d 00dd 443d 2a06 77be cf46 a03c
00000050: 5a5d 9dbe 9660 903e 1f5a 293e d06e 98be
00000060: cc58 9bbe 4a88 32be eb1e 76bd 3bcb 333e
00000070: ff71 93be 8a18 dc3d f5a7 9abe df84 8dbe

layer.w5.weight f4 [32, 1]
-0.5858813 0.6542537 0.060284648 -0.009812481 -0.4106485 -0.48584 -0.004960403 -0.5592621
-0.76837385 0.4473908 0.15905562 -0.813132 -0.06734031 0.6204495 0.42464826 0.88916326
-0.3115523 0.41663057 -0.2585421 -0.14700736 -0.7242977 0.884789 0.27329898 0.7678327
0.18336463 0.82995725 0.08280376 0.48227835 1.0216346 0.16068053 0.18681167 -0.094089024
00000000: 51fc 15bf 2c7d 273f 09ed 763d 87c4 20bc
00000010: 8540 d2be 05c0 f8be e08a a2bb cd2b 0fbf
00000020: 26b4 44bf 6810 e53e 7adf 223e 6b29 50bf
00000030: b7e9 89bd c7d5 1e3f 7f6b d93e 34a0 633f
00000040: c883 9fbe 9a50 d53e a15f 84be 1989 16be
00000050: 936b 39bf 8881 623f d8ed 8b3e af90 443f
00000060: f0c3 3b3e 1478 543f 0595 a93d 30ed f63e
00000070: ecc4 823f 7089 243e 8f4b 3f3e bfb1 c0bd

layer.w5.bias f4 [32]
-0.6523427 0.26303712 0.36380982 0.33695582 0.2154279 0.30201772 -0.9321891 0.07235887
0.8386241 -0.7495064 -0.8737903 0.46355653 -0.016259992 -0.07630712 -0.20814493 0.39350146
0.5247037 0.55744815 -0.7760967 0.7358669 -0.7855938 0.43379676 0.32399344 -0.35671067
-0.6965976 0.71664125 -0.7878913 -0.7802302 0.8659603 0.91015756 0.42507502 -0.003138237
00000000: eeff 26bf cdac 863e 4845 ba3e 7985 ac3e
00000010: 2299 5c3e 11a2 9a3e f2a3 6ebf e330 943d
00000020: 12b0 563f a7df 3fbf b9b0 5fbf 4857 ed3e
00000030: ad33 85bc e846 9cbd f223 55be 0679 c93e
00000040: fb52 063f ecb4 0e3f 46ae 46bf c661 3c3f
00000050: ad1c 49bf 9c1a de3e 78e2 a53e c8a2 b6be
00000060: 3854 32bf cd75 373f 3fb3 49bf 2bbd 47bf
00000070: 93af 5d3f 1600 693f 6fa3 d93e e1aa 4dbb
