runs/7_agents_50000_episodes_graph/models/critic.pth (torch, 19272 bytes, 3 tensors)

fc1.weight f4 [128, 32]
00000000: d162 143e cdb6 5f3c 211e e43d ef59 fe3d
00000010: 2ec5 29bc 8e52 b2bb 8580 6d3e 259d afbc
00000020: 375a edbd 0932 383e 92bc 3f3d 53be 033d
00000030: 2878 e23d 2f93 f73d 6d84 513d 5fdb 1b3d
00000040: c1a0 193d 47d1 b4bc c3d8 48be ba1f 7f3c
00000050: 3291 f63d b64f 94bd 0c6d 963d 18f0 f2bb
00000060: e1b1 383e 461f 17be dc1a 8cbd 2ba6 1d3e
00000070: fca6 e3bd 4bc4 54be 9522 f03d 2d68 2dbe
00000080: 1ff2 983d 522f c53d 622d 4abe d9e1 7b3e
00000090: e93f 8d3d 94d9 ff3c 0777 fb3d fc0e 3ebe
000000a0: 67aa 0c3e bf64 09be 3a11 6bbe 7dbc 25be
000000b0: b7da 0f3e b61e 9e3d e617 e4bd 3883 013d
000000c0: 93f1 adbd 2843 11be c757 053e 3a82 b43d
000000d0: 2a38 ffbd 37fc 443e 200a 03bc 4360 e6bb
000000e0: e828 b63b 3343 713e 09c3 cabc 8f95 3abe
000000f0: e4e7 e6bd 843b c4bd 48c6 e9bc 7eb2 d13b
00000100: e38e e23c bdd6 7dbe ddff 933c 06d4 efbd
00000110: e230 9ebd b41c 193d 1a90 fabd 244d 56bd
00000120: 94cc 693e 5c40 c33d e860 803e 4125 08be
00000130: 6eab d7bd a7ee edbd 1bf0 003e 0f19 edbc
00000140: bc84 c5bd 36c1 873e 16d8 9b3c e38c 3bbe
00000150: 2c10 793d 370f ba3c 8312 3a3e 8c8b a23d
00000160: 5517 073e ca4d 6abe fe72 ec3d 8551 72bd
00000170: 86f4 a2bd dd9c 13bd 7005 32bd 641f 1dbe
00000180: 9464 4a3e d330 8b3c cee0 013e 3005 2fbd
00000190: 14de 4cbd 6148 1abe f405 c0bd 00b7 63bd
000001a0: 6f9e e83d 82a3 b73d 971b c63d f516 9f3d
000001b0: eb5a 853c 9b43 00be 0054 1abd 336e cd3d
000001c0: 2ca5 583a ff6a d93b 7917 3f3d 0204 063e
000001d0: cd09 86be 4ce7 4e3e 0bfb 06be 20e9 303e
000001e0: b0a4 03be 1ca1 bebd e7b3 24be b899 e33c
000001f0: 0317 00be c4e3 003e b6ad 47be 8384 153d
00000200: 27f0 2f3d f5ad 243e 7c52 a53d d3e3 a23d
00000210: 6263 40bd 83f6 a1bd 3f8d 6c3d b4e5 083e
00000220: 3076 a9bc 149f 4f3d 02c1 edbd 7801 733d
00000230: 4abe 1e3e 6654 abbd 1a2c 0dbe fa6b c4bd
00000240: c7d5 e3bd b5b0 98bd af7f 39bd 43e3 573e
00000250: c2fe 21be 745d eb3d af74 c6bd cb33 3bbe
00000260: 8779 e93c 123b 343e 02b9 f23d fe9e 95bd
00000270: 08e0 f4bd 49de 013e a6c9 3b3b efbe 063c
00000280: b4e6 55be 69c9 27bd 1954 1e3d fea4 1f3e
00000290: 69ff 283e 2f99 873d 78c8 c23d 7990 d93d
000002a0: 78cb 623c 161d 0b3e 72e5 2a3e 6177 fdbd
000002b0: cdcf dc3d 5c89 5fbc 1d43 873e a3cd 5138
000002c0: 9516 cdbc 19ad 15bd 6d68 8bbe 02a6 593e
000002d0: c8dd c63c 013f be3d 0a89 5c3e 0979 66be
000002e0: 3c71 553c d114 623d cedd 38bd 1633 193c
000002f0: 3e12 22bd eb6a e2bb a352 b83d 0acc 4cbc
00000300: 4ba5 2bbe c77e 39bc cd3e 50bd 9907 1fbd
00000310: 813f e93d f087 babd a091 9ebd edba 103e
00000320: a816 02bd be3a 9f3d c8ca 20be 63cf a83d
00000330: 8fe8 47bd cd47 24be 7cf8 fd3d 07e8 053d
00000340: a34a 753e ceb9 9abd 1bae bcbd 04cb 443d
00000350: 8ae1 eb3c db53 923d 9ab8 163e 7fe2 e5bd
00000360: 9abc 283e 5e35 903e 69f2 d83d cf5e 133e
00000370: 2894 0c3d 7a78 1abe 0cb1 573e 7c7c 743d
00000380: 3214 083e 7069 4cbd 8341 f2bd 7cee cebd
00000390: 28e3 21bd 2bc1 cebd e032 8abd 87c6 fb3d
000003a0: 5d5a 7eba 033f ecbd ca27 7c3d 9b65 9bbd
000003b0: f98c d33d 4bf6 d7bb 2c41 bf3d fc31 6c3d
000003c0: dac8 fb3d b5b1 98be 9c20 51be bb11 923e
000003d0: 3f42 573e 06cf 353d 27d1 803e 1f17 283d
000003e0: f9fa c6bd 73c5 403e a592 063e 92e9 643d
000003f0: 3dd7 edbd d6b7 64bd 5bba 363e 2c9a 1a3e
0.1449082 0.013654423 0.11138559 0.12419497 -0.010361953 -0.00544197 0.23193558 -0.021437237
-0.11589473 0.17987837 0.046810694 0.03216393 0.11058074 0.1208862 0.05115168 0.038051005
0.037506822 -0.022072447 -0.19613938 0.015571529 0.120394126 -0.07241766 0.07345018 -0.0074138753
0.18036605 -0.14758024 -0.068410605 0.1539542 -0.11115834 -0.20778005 0.11725346 -0.16934271
0.07468056 0.09628166 -0.19743875 0.24597873 0.068969555 0.031231679 0.12278562 -0.18560404
0.13736878 -0.13417338 -0.2295579 -0.16185184 0.14048277 0.077207014 -0.11137371 0.03161928
-0.08493342 -0.14185774 0.13021766 0.08813901 -0.12461884 0.19236837 -0.007998019 -0.0070305183
0.0055590756 0.2356079 -0.024751203 -0.18221115 -0.112746984 -0.09581664 -0.02853693 0.0063994518
0.027656024 -0.24788947 0.018066341 -0.11710362 -0.077241674 0.03738089 -0.122345164 -0.05231966
0.22831947 0.0953376 0.25073934 -0.13295461 -0.105307445 -0.11617785 0.12591593 -0.028942613
-0.09644458 0.26514596 0.019023936 -0.18315463 0.06080644 0.022712333 0.18171124 0.07936773
0.13192494 -0.22881237 0.115453705 -0.059159774 -0.079567954 -0.03603827 -0.043462217 -0.15344006
0.1976493 0.016991055 0.12683412 -0.042729557 -0.050016478 -0.15066673 -0.093761355 -0.055594444
0.11358344 0.089667335 0.09673231 0.077680506 0.016278705 -0.1252579 -0.037677765 0.100307845
0.00082643586 0.0066350694 0.046653245 0.13087466 -0.26179352 0.2020542 -0.13181703 0.1727643
-0.12855792 -0.09308073 -0.16084252 0.02778326 -0.12508778 0.12586886 -0.19499859 0.036503326
0.042953636 0.16081984 0.08072373 0.0795361 -0.04696978 -0.079083465 0.05775189 0.13368875
-0.020686239 0.050688818 -0.11609079 0.059327573 0.15502277 -0.08365707 -0.13786355 -0.095909074
-0.11124759 -0.07455579 -0.045287784 0.21082787 -0.15819839 0.11492434 -0.096902244 -0.18281476
0.028500332 0.17600659 0.11851694 -0.07305716 -0.11956793 0.12682451 0.0028654127 0.008224233
-0.20888788 -0.040963564 0.03865442 0.15590283 0.16503681 0.06621014 0.09510893 0.10623259
0.013842456 0.13585314 0.16689089 -0.12376285 0.10781822 -0.013643589 0.2641839 5.0020997e-05
-0.025035182 -0.036542032 -0.27228108 0.21254733 0.024275675 0.09289361 0.21536651 -0.22507109
0.013027485 0.055195633 -0.045133404 0.009350559 -0.03956818 -0.0069097183 0.09000137 -0.012499819
-0.16762273 -0.01132173 -0.05084114 -0.038825605 0.113890655 -0.09107959 -0.077426195 0.14133807
-0.031759888 0.07774876 -0.15702355 0.08242681 -0.04880577 -0.16043015 0.1240091 0.03269198
0.23954253 -0.07554971 -0.092128955 0.048045173 0.028794069 0.071449004 0.14718857 -0.11224841
0.16478196 0.28165716 0.10593111 0.14391635 0.03432098 -0.1508502 0.21063632 0.05968903
0.13288954 -0.04990524 -0.118289016 -0.10104081 -0.039523274 -0.100954376 -0.06747985 0.122937255
-0.0009702796 -0.11535456 0.061561383 -0.07587739 0.10329623 -0.0065906397 0.093386024 0.057664856
0.12294169 -0.2982308 -0.20422596 0.28529152 0.21021365 0.044386886 0.2515957 0.041037675
-0.09715838 0.18825321 0.13141878 0.055886813 -0.11613319 -0.055839382 0.17844526 0.15097874

fc1.bias f4 [128]
00000000: 3235 0c3e 20ca 25bd ff6b 933e 61cd a3bd
00000010: e973 dc3c d9f2 263e 27c7 263e f1e9 7abd
00000020: f2c3 1f3d 69f4 2c3d d737 52bd 3a4f aa3d
00000030: 8479 703e 0c53 783d 6093 003d 984c 5b3d
00000040: 7ec9 48b9 c8ce 8c3d 14a3 15be fb4b 063e
00000050: f134 bebc 3970 643d 278b 353c c8d4 16be
00000060: be32 f83d 8465 2d3c 793e 583e d466 863d
00000070: 514e 87bd 6292 203e b99f 6a3b 2f3d a13d
00000080: f09b b83d 7941 b9bb 2977 e53d e23e 003e
00000090: 7c01 113e 7b89 e93d 864a b23d 2d7a 51bd
000000a0: f38c 213d 2384 8f3e d883 ae3c 86bd 1d3e
000000b0: 1ecd a83d 1856 11bd de79 64bc e75a 8f3d
000000c0: 95dd 6b3e f6f2 27be 5f67 393e 379b cfbc
000000d0: 0996 d0bb 0685 41bd 7d93 ee3d 8b6c 6d3d
000000e0: 5c4a de3c 9ea8 3f3e 02ad c4bd 1f07 b6bd
000000f0: c140 0dbe 5bf5 9ebd 9ffa dabd 04c9 6dbd
00000100: 2ddb dc3d b101 a43d 7352 96bc a799 a43d
00000110: 59a9 43bd e61d 7a3c a4da 1bbe c1dd 68bd
00000120: 5428 9cbd 7d36 1b3e f95f 1f3e 5530 ac3d
00000130: eb1b 903e 4b43 b03c 9ff9 58bd f2be 023e
00000140: ac17 d93d 5b3b 3b3d 5648 a63e deec 0a3e
00000150: 02e5 ff3d 8d44 24be 5869 763e 86e7 033e
00000160: 5d44 793e f375 2b3d d0e9 06be 0638 b73d
00000170: f873 823e 19ab 8a3e 2789 c2bd e80f 173e
00000180: 79d6 30bb df6f dcbc 6516 88bc 2ba2 293e
00000190: 2a2d fb3d de67 8b3c da28 be3a 6846 603e
000001a0: c877 cc3d 89c8 07be d789 f83d 4d1c f8bd
000001b0: e2b7 973e 305a 88bc b8da 07be 64f3 05be
000001c0: 8f1d 093d d43d 2f3e 7aa9 7e3e 42d5 0e3e
000001d0: 88a5 033e 411c 55be df73 413e 271f 58be
000001e0: 6c01 8dbd 58f6 653d 9c18 403b d008 8cbd
000001f0: 6c33 df3d e875 fb3c f34e 7b3e 7250 303e
0.13692167 -0.040475965 0.28793332 -0.07998157 0.026910739 0.16303577 0.16286908 -0.06125826
0.039005227 0.042225275 -0.051322784 0.083158925 0.23483855 0.060626075 0.031390548 0.053539842
-0.00019148548 0.06875378 -0.1461299 0.13114922 -0.023218604 0.055771086 0.01108054 -0.14729607
0.12119053 0.010583285 0.21117581 0.06562582 -0.066067345 0.1568084 0.0035800769 0.07872998
0.09014118 -0.005653557 0.112043686 0.12523988 0.14160722 0.114031754 0.087056205 -0.051141907
0.03944106 0.280305 0.021303102 0.15404329 0.08242248 -0.035482496 -0.013945071 0.0699976
0.23033746 -0.16401276 0.18105839 -0.025342567 -0.006365542 -0.047246 0.11649225 0.057964843
0.027135067 0.18716666 -0.09603311 -0.08888077 -0.13794233 -0.077616416 -0.106923334 -0.05805303
0.10783992 0.08008135 -0.018349862 0.08037119 -0.047768924 0.015265917 -0.15220124 -0.056852106
-0.076248795 0.15157504 0.15563954 0.08407656 0.281463 0.021516463 -0.052972432 0.12768152
0.10600218 0.045710903 0.32477063 0.1356692 0.12494852 -0.16041775 0.24063623 0.12881288
0.24342485 0.041860532 -0.1317513 0.089462325 0.25479102 0.27083662 -0.09498816 0.14752162
-0.0026983304 -0.026908813 -0.016612241 0.16565768 0.12264474 0.017017301 0.0014508024 0.21901858
0.09983784 -0.13260092 0.12135666 -0.12114773 0.2963248 -0.016644567 -0.13267028 -0.13081127
0.033475455 0.1711343 0.24869338 0.13948539 0.12856114 -0.2081156 0.18891858 -0.21105634
-0.06885037 0.056143135 0.0029311543 -0.06837618 0.1089848 0.03069587 0.24541835 0.17218187

fc2.weight f4 [1, 128]
00000000: 8ba4 ebbd 3cc6 5cbe b7b9 a83d 524f d93d
00000010: 579e 9dbd 8067 03be 03c4 3dbe 017b 5fbe
00000020: 5e44 413d 3002 6d3e e36e dfbd 901a 19be
00000030: d796 233e 0d48 be3d 59ad 3ebe d97b 173e
00000040: 3404 1fbd cd9e 4ebe 38ba 10be 5dc5 1c3e
00000050: 238c 313e 1966 0fbe fd49 033e db47 37be
00000060: 683d e23d fa25 5d3e 5f2f 65be 13fa 63be
00000070: c0cc 18be 929f 2ebe 85b8 b2bd 5747 133e
00000080: 0345 e43d a647 2a3e 6715 f23d 4e2e 1fbe
00000090: 46a6 cc3d ef74 1a3e dad4 babd 58a9 053d
000000a0: bb70 08be 35ba ec3d 5c7a 513d aa92 a13d
000000b0: fa2c d83d 7306 153e 6d2c 70bd b54b 1c3e
000000c0: ac94 1b3e 2191 61be eae3 413e 3b07 25be
000000d0: 41d7 13be 5659 e9bd ea4d b3bd b1c6 b7bd
000000e0: 3481 57be 7471 1b3e 1a03 01be c0bf 40be
000000f0: da21 3cbe cbe8 0dbe 1f34 29be f3cd 153e
00000100: 8c21 343e f724 af3d 8cac 0e3e aa04 2dbe
00000110: c23c 483e a57b c53d a392 49be 73ea eb3d
00000120: 8e53 5dbe e756 26be 822f 363e ce83 46be
00000130: b300 a73d 1868 8bbd 8628 f5bd 784a 4bbe
00000140: 100b 30be 3dc3 37be a771 843d a6bf c6bd
00000150: 9190 2c3e 2c30 3ebe c64c 87be b0e0 c63d
00000160: 5bd3 3d3e 1549 64be c3c6 2ebe 507c 8bbe
00000170: 62e6 1a3e b5c9 ff3d 16fa f2bd c965 163e
00000180: cfb7 69be 6c18 0b3d 414a 1a3e 006c a5bc
00000190: 726b d63d c8e4 25be 80de f63d d6a8 023e
000001a0: 2965 013e 4730 02be 6782 093d beb6 03be
000001b0: 0394 0a3e b3b7 ed3d 247e 01be cb80 3fbe
000001c0: da7c fc3d 073f 833d d799 fa3d c657 62be
000001d0: a81a 3e3e 50c7 bbbd 646b 9c3d 2a51 95bd
000001e0: 4264 3d3c 9681 c23d 9677 06be 904b 50be
000001f0: 0ba5 8cbd 01d1 1ebe 0fa5 4b3e ac28 193e
-0.115059935 -0.21559995 0.08238547 0.10610832 -0.076962166 -0.12832451 -0.18531804 -0.21824266
0.04718434 0.23145366 -0.10909822 -0.14951539 0.1597551 0.09291086 -0.18620814 0.14793338
-0.038822368 -0.20177765 -0.14133537 0.15309663 0.17338614 -0.14003791 0.12821193 -0.17898504
0.110468686 0.21596518 -0.22381352 -0.22263364 -0.14921856 -0.17053059 -0.087266006 0.14382683
0.111459754 0.16628894 0.118204884 -0.15545008 0.09992652 0.15083669 -0.091226295 0.032632202
-0.13324253 0.11558954 0.05114208 0.07889302 0.105554536 0.14553241 -0.058636118 0.15263255
0.15193433 -0.22028019 0.18934599 -0.1611604 -0.14437582 -0.113939926 -0.08755095 -0.08973444
-0.21045381 0.15179998 -0.1259884 -0.18823147 -0.18372288 -0.13858335 -0.16523789 0.14629345
0.17590922 0.08551972 0.13933009 -0.1689631 0.19554427 0.09642724 -0.19684844 0.11519327
-0.21613905 -0.16244088 0.1779156 -0.19386217 0.0815443 -0.06806964 -0.1197062 -0.19852626
-0.1719172 -0.17945571 0.0646699 -0.09704523 0.16852023 -0.18573064 -0.2642576 0.097108245
0.18537657 -0.22293504 -0.17068009 -0.2724328 0.15126947 0.124896444 -0.11864106 0.14687265
-0.22824024 0.033958837 0.15067388 -0.0201931 0.10469712 -0.16200554 0.12054157 0.12759718
0.12636246 -0.12713729 0.033571627 -0.1286268 0.13533024 0.116073035 -0.12645775 -0.18701474
0.12328501 0.06408506 0.12236374 -0.22103795 0.18564856 -0.09168875 0.07637671 -0.072908714
0.011559548 0.09497373 -0.13131556 -0.20341325 -0.06867417 -0.15509416 0.19887184 0.14956921
