runs/3_agents_50000_steps_graph/models/actor.pth (torch, 26432 bytes, 4 tensors)

fc1.weight f4 [128, 38]
000000 89 1a 81 bd 08 72 97 bc 9f cd 35 bd ec a0 92 3d
       -0.06303889 -0.018486992 -0.04438555 0.071596
000010 36 c2 ac 3d b2 23 c9 3d 65 15 e4 bd f9 dc 0d be
       0.0843548 0.098212615 -0.11136893 -0.13853826
000020 d4 11 c4 3d 82 43 bb 3d 18 96 9c bd 05 a1 3a 3d
       0.09573713 0.091437355 -0.076458156 0.045563716
000030 55 ff 86 3d ac fb 01 be 10 2f cd bd 35 e3 86 3d
       0.065916695 -0.12693661 -0.10018742 0.06586305
000040 bc b5 54 3d 95 78 1c be 10 ba 94 bc 74 9f 09 3e
       0.051931128 -0.15280373 -0.018155128 0.13439733
000050 5c 56 f3 3d a4 66 26 bd b6 c2 d3 3d 01 b5 18 3e
       0.11881706 -0.04062523 0.103398725 0.14912798
000060 02 28 be bd 0c 51 82 bd e7 c3 0d bd cc d8 ca 3d
       -0.09284975 -0.06363115 -0.034610655 0.09904632
000070 91 10 e8 bd c2 b3 b1 bd 59 b2 b2 3d 61 6b 24 3d
       -0.11331285 -0.08676864 0.08725423 0.040141467
000080 e7 55 c8 3d 1e fe da bd 6b 79 30 be 35 ca ba 3d
       0.097820096 -0.10693 -0.17233817 0.09120599
000090 f6 ee 3a bd 30 c7 76 bd c3 5e 6f bd 22 43 00 bc
       -0.045638047 -0.060248554 -0.05843998 -0.007828506
0000a0 c2 e5 14 be 88 fc ed bc ec 5a 7b 3d 84 ce 19 be
       -0.1454077 -0.02905108 0.061366007 -0.15020186
0000b0 63 02 9b bd cc 5b ab 3d f4 ab a0 bd 01 36 9c bd
       -0.075688146 0.08367118 -0.078452975 -0.07627488
0000c0 a1 95 0c 3e 49 95 35 3d 51 8c e2 bc b9 d8 8c 3d
       0.13728954 0.044331823 -0.027654799 0.06877274
0000d0 c2 52 02 be 3a 24 6a 3d 9b 53 19 3d c2 5e c2 3c
       -0.12726882 0.057163455 0.037433248 0.023726825
0000e0 d3 6e bc 3d 0e 8b 43 3d 0a 23 53 bc 43 a5 9a 3d
       0.092008255 0.047740035 -0.012886772 0.075510524
0000f0 0a 9b d9 3d 63 34 79 bd 81 60 49 3d 12 8d 76 bd
       0.106252745 -0.060840975 0.0491643 -0.06019313
000100 fc b4 9c bd 15 96 9d bd 3a 90 30 3e 7c 7b 0d bd
       -0.076517075 -0.076946415 0.17242518 -0.034541592
000110 27 a4 ec bc 41 91 12 be 71 b8 98 3d 70 4f 21 3e
       -0.028886868 -0.14313222 0.074570544 0.15752959
000120 67 19 a1 bd a5 cc 82 bd d9 c6 22 be 50 bb 80 3d
       -0.07866173 -0.06386689 -0.15896167 0.06285727
000130 8c b0 f0 bd f6 c6 9f 3d 1f 08 bc bd c4 49 98 bd
       -0.11752424 0.07801621 -0.091812365 -0.07435945
000140 57 be ab bd ad 3a ca 3d 26 35 8b 3c b4 b8 5c bd
       -0.08385914 0.09874473 0.016993117 -0.053887084
000150 9b 95 05 be 4f c2 92 3b 82 ac 9a 3d 4c 78 1f 3e
       -0.13045351 0.00447873 0.075524345 0.15573233
000160 88 1a 03 be 28 f8 e1 3c a6 36 b6 bc f7 be c9 bd
       -0.1280309 0.02758415 -0.022242855 -0.09850877
000170 66 18 bf 3c 86 2f 49 bd a9 2d 29 bd a8 e2 8e 3d
       0.023327064 -0.049117588 -0.04130331 0.06976825
000180 e8 65 b1 bd 05 75 05 be 06 00 02 bc 06 95 66 bc
       -0.08662015 -0.1303292 -0.007934576 -0.014073616
000190 cf a1 6b 3b ea 03 1e bc 25 f8 f8 bd 01 2e 2f 3e
       0.00359546 -0.009644488 -0.12156705 0.17107393
0001a0 9e ba 59 3d bf 7c 18 3b a5 50 80 3c 4f a0 b4 bb
       0.053156488 0.0023267714 0.015663454 -0.0055122743
0001b0 f8 97 15 3e 65 3c 14 be e8 ae 48 3c ac 41 c7 bd
       0.14608753 -0.14476164 0.012248732 -0.09729323
0001c0 3d 12 16 3e 42 fe b4 bd f6 67 27 3e db d9 e8 bd
       0.14655395 -0.08837558 0.16348252 -0.11369678
0001d0 aa 38 fc bd 07 d4 75 bc e4 34 5d be 53 ee 05 3e
       -0.12315495 -0.015004165 -0.21602207 0.13079195
0001e0 7c 8e ee 3d 63 6c 3c 3e 9e d6 72 bc 18 53 11 bd
       0.116482705 0.18400721 -0.014821677 -0.035479635
0001f0 ee b8 3c be 47 30 c9 bd 57 d2 91 bd 21 be 15 3a
       -0.1842992 -0.09823661 -0.07120197 0.00057122303
000200 06 45 c7 3d 1e cd cb 3d d0 e9 02 3d 3e 1b 1f be
       0.09729962 0.099512324 0.031961262 -0.15537736
000210 04 4a 96 bd 5b 0c ce 3d 95 7a 9f 3b 42 ef 59 3d
       -0.07338336 0.1006095 0.004866908 0.05320669
000220 28 ac 64 bc 3c 39 18 3e d1 8c 3e 3d ec 2f 0c be
       -0.013957061 0.14865583 0.04652101 -0.13690156
000230 c7 ee 4d bd 4b 3c 1f bd b9 98 1f be da ac 52 3c
       -0.050276544 -0.03887586 -0.15585603 0.012858594
000240 50 5d c2 3d 87 3d a9 3d 3b 6b e3 bc c4 af 8d bd
       0.09490454 0.082636885 -0.027761092 -0.0691829
000250 67 03 15 3e 00 a1 5d 3e af 53 28 3e 12 db cb bc
       0.14552079 0.21643448 0.16438173 -0.024884734
000260 d4 e6 58 3c 00 42 bd 3d a8 24 12 3d 2c bf 59 bd
       0.013238627 0.09241104 0.03567949 -0.05316083
000270 3b d4 40 3e 46 85 0c be 1a 4f a0 bd 08 d7 71 3d
       0.1883096 -0.13722715 -0.078275874 0.05904296
000280 a9 c8 5d bd 60 87 73 bb c3 91 23 be 50 2f 1d 3e
       -0.054146443 -0.0037159547 -0.15973572 0.1535008
000290 60 c6 13 bc 1e 31 9d 3d d7 1d f9 3d 75 30 1b be
       -0.009019464 0.07675384 0.121638946 -0.15155204
0002a0 1a 39 0a be b7 5a 57 3d d8 ec 81 3c d3 1c 78 3d
       -0.13498345 0.052576747 0.015860006 0.060574364
0002b0 36 87 8a bc 65 06 06 bd c6 d9 37 3d 20 f7 d1 bd
       -0.016910177 -0.032720942 0.04488542 -0.102522135
0002c0 99 97 c9 bd f7 ad f3 3d db ea 57 3d 61 f4 2c bd
       -0.09843368 0.118984155 0.05271421 -0.042225245
0002d0 b2 82 11 3e a0 53 92 3d 03 bc 35 3e 13 ee 51 3c
       0.14210013 0.071448565 0.17747502 0.012813109
0002e0 74 3e 97 bd 5c 62 3b bd e6 4e 67 be 8c 61 5c 3d
       -0.07384959 -0.0457481 -0.22588691 0.053803965
0002f0 da 63 35 be 21 0c e4 bb 6e 63 3c 3e a9 cc ad 3d
       -0.17713872 -0.0069594537 0.18397304 0.084863015
000300 2f ef ad 3d 03 5c 09 3e 05 5d 1d be f3 77 cb bc
       0.08492886 0.13414006 -0.15367515 -0.02483747
000310 c9 24 3f 3d 5a cf 1f bb 81 6a 02 bd e8 3f 02 be
       0.04666594 -0.0024385066 -0.03183985 -0.12719691
000320 96 b7 dc bd 98 58 b6 3d 76 ba 25 3d 33 42 80 3d
       -0.10777204 0.08903617 0.040461026 0.062626265
000330 6d 44 77 bd c5 a8 a0 3d 21 08 24 be fe 6b e8 bb
       -0.06036799 0.0784469 -0.16018726 -0.007092952
000340 ce f4 23 3e f2 2a 9f 3d 48 1c ca 3d b3 d3 ea 3d
       0.16011354 0.07771863 0.098686755 0.1146616
000350 94 23 e0 3d 39 de 34 3d a0 aa 7f 3d 21 9c 34 bd
       0.10944286 0.04415724 0.06241858 -0.04409421
000360 5f ed fb bd a5 8b c7 bd 47 7c 4a bd 5a fa 68 bd
       -0.12301134 -0.09743432 -0.049434926 -0.05687938
000370 c5 55 05 be ea ed fd 3d b3 63 0e be a8 27 f5 3d
       -0.13021 0.12398894 -0.1390522 0.119704545
000380 d3 30 3d bc f8 8f f8 bd cd fd 81 3d a7 dc 07 be
       -0.011547285 -0.12136835 0.06347237 -0.13267766
000390 e3 af ba 3d f4 37 14 3e fb 5a b6 bd cf 7a d1 bc
       0.09115579 0.1447447 -0.08904072 -0.025571255
0003a0 fc c7 de bd 5c 93 ff bc 06 77 fb bd 53 9e b3 bd
       -0.10877988 -0.031198196 -0.12278561 -0.08770432
0003b0 ab f0 52 3d 23 4b e5 3d 1b 12 de 3d 92 c2 06 3e
       0.05149905 0.11195972 0.10843297 0.1316016
0003c0 b9 80 34 bb d4 00 15 bd 46 7f 1e be 61 b3 d0 bd
       -0.0027542545 -0.036377743 -0.15478238 -0.10190464
0003d0 d6 26 fa bd 53 af a0 bd 17 20 03 3e 66 65 9e bd
       -0.122144386 -0.078459404 0.1280521 -0.07734184
0003e0 5a 92 03 3e 63 d7 f0 bd 8e f1 c3 3d 93 53 5d 3d
       0.12848797 -0.11759832 0.09567557 0.05403478
0003f0 ca 15 a2 3d d7 05 db bd 8e ac e2 3d ca 1a 09 3e
       0.07914312 -0.10694473 0.110680684 0.13389125

fc1.bias f4 [128]
000000 0c 5e 16 3e 96 7a fe bd 0e c5 52 bd 79 91 fc 3c
       0.14684314 -0.12425725 -0.051457457 0.030831086
000010 26 f3 cb bd 84 86 0e be 0b 42 24 3b e2 d1 9b bd
       -0.09958486 -0.13918501 0.0025063779 -0.07608391
000020 52 64 02 3e f7 02 4e bc 1b 3c d8 bd 2c e5 f2 3a
       0.12733582 -0.012573949 -0.10558339 0.0018531433
000030 a2 26 c7 bd d1 31 5a bc 20 56 dc bd 4d ae 9a 3d
       -0.097241655 -0.013317541 -0.107586145 0.075527765
000040 20 41 04 3e b1 cb da bd 50 d4 22 3e a4 68 00 3e
       0.12915468 -0.10683382 0.15901303 0.12539917
000050 5b b3 13 3e a1 f5 c6 bd e9 fe e4 bd f8 fa ef bb
       0.14423887 -0.09714819 -0.11181433 -0.007323619
000060 4f 1f 08 3d d5 3b 11 be 46 27 31 bd 07 6b b7 bc
       0.033232983 -0.1418298 -0.043250345 -0.022389902
000070 17 3e a1 bd d3 4f 65 3c d5 fa 26 3d f3 8d 1c bd
       -0.07873171 0.013996082 0.040766556 -0.03822131
000080 da e7 29 3e f8 79 29 bd ab ca 15 be 2b 56 f5 bd
       0.1659235 -0.041376084 -0.14628093 -0.11979326
000090 e1 17 24 3c 70 21 20 3d 2a 06 ab 3d 01 12 06 be
       0.010015459 0.03909439 0.08350785 -0.13092805
0000a0 9a f8 89 3d 2f ec 20 3e c3 cb cb bd e8 6e ee 3d
       0.0673687 0.15715097 -0.09950974 0.116422474
0000b0 53 1e 1a 3e 60 6b 12 be 4d be 85 bd aa 1f 30 3d
       0.1505063 -0.14298773 -0.065304376 0.042998947
0000c0 6b c5 1e bd af 63 0d bd 32 0b c6 bd 84 90 12 3e
       -0.03876249 -0.034518894 -0.09670104 0.14312941
0000d0 16 7a ce bd 59 eb fa bd 55 c3 f3 bd ce 44 33 3d
       -0.1008188 -0.1225192 -0.11902491 0.04376679
0000e0 67 2f 04 3d 75 25 4f bd 7e e7 5b 3d 73 9a 01 3c
       0.03227177 -0.05057283 0.053687565 0.007910359
0000f0 ff c3 cb bd 8a eb 24 be df 24 4b bd d8 d6 f7 3d
       -0.09949493 -0.16105476 -0.04959571 0.12101525
000100 97 8b ec bd ac f6 35 3d 3f 78 08 3e f1 19 1d be
       -0.11550062 0.044424698 0.1332712 -0.15341927
000110 c5 90 f6 3c c5 28 62 bc d4 1f 0f 3e 02 9f 90 bd
       0.030098328 -0.0138036655 0.13976985 -0.07061578
000120 21 8b aa 3d f1 e4 b5 bd 11 1d 49 3b 60 a5 ca bd
       0.08327318 -0.08881558 0.003068749 -0.09894824
000130 a6 fb a7 bd cb e9 e0 bd b5 d6 26 3e 73 09 21 3d
       -0.08202295 -0.109820925 0.16292842 0.039315652
000140 1c e2 33 3d 15 41 de bd a7 eb 1a 3e f7 4f 0a 3d
       0.043916807 -0.10852257 0.15128957 0.033767667
000150 10 00 f8 bd be 4d d4 bc 00 d1 76 3d 43 9e 67 bd
       -0.12109387 -0.025915977 0.06025791 -0.056547415
000160 cf f9 22 bb e6 9f e5 3d b9 af ec 3c f9 9f ad bd
       -0.0024868136 0.11212139 0.028892385 -0.08477778
000170 c1 42 aa bd 68 2e 5a bd 09 94 ce 3d aa 99 f2 3c
       -0.083135135 -0.053266913 0.10086829 0.029614288
000180 e8 61 aa 3d f9 93 ef 3d 00 72 d0 3c 8f e9 87 bc
       0.083194554 0.116981454 0.025444984 -0.016590862
000190 0e e7 c7 3d 9e d3 19 3e cd 02 25 3c 48 57 95 3b
       0.09760867 0.15022132 0.010071469 0.004557524
0001a0 47 6b 35 3e 77 be ca bc 86 96 16 3d 21 9b 0c 3e
       0.17716704 -0.024749024 0.036764644 0.13731052
0001b0 63 9b 6a bb 72 2b ff 3d 64 c7 0a 3e fc 1a c5 3d
       -0.0035798184 0.124594584 0.13552624 0.096242875
0001c0 32 df 16 3e 12 b5 18 be ff e0 e1 3d 6b c9 a0 3d
       0.1473358 -0.14912823 0.11029243 0.078509174
0001d0 e0 dc db bc 9f 11 59 3d f7 c0 41 3d e6 7b e9 3b
       -0.02683872 0.05299532 0.047303166 0.0071253655
0001e0 a9 6e ec 3d 16 7d b3 3d 18 08 52 3b 7f 93 94 bd
       0.11544544 0.087640926 0.0032048281 -0.07254695
0001f0 5a cd e2 bd 1d 95 fa 3d cf c0 a3 3d ab c2 30 3e
       -0.11074324 0.12235472 0.0799576 0.1726176

fc2.weight f4 [9, 128]
000000 64 3d db bd 40 79 a9 3c cc 7f b4 bc 6e e1 0c 3d
       -0.10705069 0.0206877 -0.022033595 0.034394674
000010 9f 3e 98 bd 70 7b 6c 3d 42 19 98 3c 03 fc c4 bd
       -0.07433819 0.057734907 0.018566731 -0.0961838
000020 a1 01 35 bd 11 36 79 3d e6 2a a3 bd 48 d7 07 bd
       -0.044191007 0.060842577 -0.079671666 -0.033164293
000030 2d 33 67 3d 59 9e 46 3c 5b 52 81 3c 68 3c f8 bc
       0.05644529 0.012122714 0.01578634 -0.030302241
000040 a6 91 05 3d 38 f6 8d 3d f5 8b 08 bd fa 46 4d bd
       0.032609604 0.06931728 -0.0333366 -0.050116517
000050 e8 c9 2c 3d 80 79 4c bc 64 0d 9a 3d f4 09 a9 bd
       0.04218474 -0.01248014 0.07522085 -0.082538515
000060 2a 9a b2 3d e6 89 00 3d 57 33 f1 3c 92 da 69 3d
       0.08720811 0.03138151 0.029443426 0.05709321
000070 76 a5 e2 bb af dd 8f 3d 1b 86 89 bd 83 1e e6 3d
       -0.006916697 0.07024705 -0.06715032 0.112362884
000080 a0 e1 17 be 5d 8b a1 bd cc a1 1c 3d 5c 50 42 bb
       -0.14832163 -0.078879096 0.03824024 -0.0029649949
000090 19 21 b5 3d c5 4c b8 3d 13 df a7 bd 13 49 1a 3c
       0.088442035 0.089990176 -0.08196845 0.009416836
0000a0 62 cb 87 bd f2 8a d6 3d d3 ff 83 3d dc b3 bc 3d
       -0.06630589 0.104757205 0.06445279 0.09213993
0000b0 f4 5f 15 bd c7 9a c3 bd d0 18 85 3d 29 27 0f bd
       -0.03646846 -0.09551006 0.06498873 -0.034949455
0000c0 ab 37 5b bd d4 57 87 bd cf 00 b6 3d 12 82 a2 3d
       -0.053519886 -0.06608549 0.08886873 0.07934965
0000d0 10 fe 5b 3d 9a 6e 40 3d f4 6d b7 3c ca 45 3a 3d
       0.05370909 0.046980478 0.022391297 0.045476712
0000e0 ac 94 72 3d 22 19 45 3d 5e b8 af 3d fd d4 88 3d
       0.059223816 0.04811967 0.08580087 0.06681249
0000f0 33 90 5b bb f2 6a 6a bd a7 27 a8 3d 55 28 f8 bd
       -0.0033502697 -0.057230897 0.08210688 -0.12117068
000100 71 98 b5 bd 1b 44 8d bd fc 6c 7d bd 06 a9 a8 bd
       -0.088669665 -0.06897756 -0.061871514 -0.08235364
000110 8e 52 61 bd 5b c0 a8 3c 46 92 02 bd 72 08 8e 3d
       -0.05501037 0.020599535 -0.03187778 0.069352046
000120 a5 a3 07 bd e7 41 99 bd ba c2 58 bd 18 e8 25 bc
       -0.033115048 -0.07483273 -0.05292008 -0.010126136
000130 6d b0 0f bd 2c f5 0c 3c e4 6f 92 3d db a9 35 3d
       -0.035080362 0.008603375 0.07150248 0.04435144
000140 1f 90 80 3d 1a 04 9f bd 69 44 99 3d 4c 70 8e 3d
       0.06277489 -0.07764454 0.07483751 0.06955013
000150 ac 9e 94 bc 7d a0 0b 3d e7 db 92 bb dd 2f 3c bc
       -0.018142067 0.0340886 -0.004481781 -0.011486021
000160 45 0a f9 3c b9 8e c9 3c ab d3 a7 3d 79 07 cd 3c
       0.030400405 0.024604188 0.08194669 0.025027977
000170 bd 99 fd bb c6 58 12 3d dc 60 81 bd 11 1e 84 bd
       -0.0077392743 0.035729192 -0.063173026 -0.06451047
000180 bc fc 53 bd 43 e6 28 3d 38 73 9c bd f1 ed 41 3d
       -0.0517547 0.04123522 -0.07639164 0.04734606
000190 9a 1f 00 bd c5 23 61 3d 75 f0 7b 3d 1f 5e 75 3d
       -0.031280138 0.054965753 0.061508615 0.059904214
0001a0 76 90 b1 bd 76 12 83 bd 48 e5 cd 3d 6e f8 df 3b
       -0.08670132 -0.064000055 0.100534976 0.006835035
0001b0 63 9b a0 bc a5 0f 5d 3d f5 01 d8 3d 91 9d 30 bd
       -0.019605344 0.053969998 0.10547248 -0.043119017
0001c0 4e 02 02 bb 1c f1 9c 39 54 cd a6 3d 1b 1a 25 bd
       -0.00198378 0.0002993428 0.08144632 -0.0403081
0001d0 d4 26 5b 3d 11 52 17 3d be 6c dc 3d 68 aa 93 3d
       0.053503826 0.0369435 0.107629284 0.07210237
0001e0 97 ad 67 bd 48 c8 c2 3c d5 a8 6c 3d 6f ee 4c bd
       -0.056562033 0.023777142 0.0577782 -0.050032075
0001f0 b8 f9 bd 3d 97 65 91 bc 8a 64 93 bd 2e bf 85 3c
       0.09276146 -0.017748637 -0.07196911 0.016326513
000200 71 19 0d bd fc dc bf bd 09 99 46 3d da aa dd 3d
       -0.03444809 -0.09368321 0.04848579 0.10823603
000210 12 cc ca bd fe 8e e2 bb 56 a6 b3 3d a2 24 59 3d
       -0.099022046 -0.0069140187 0.087719604 0.05301345
000220 eb f9 99 3d ad 54 e7 3b ee 6a 89 3d 04 a0 7b bd
       0.07518371 0.0070596547 0.06709848 -0.0614319
000230 a0 78 d4 3d 3d 3b e1 bc b9 2f 8a 3d ad 47 84 bb
       0.1037457 -0.027494067 0.067473836 -0.0040368647
000240 8c ae 7f 3d c0 e0 36 bd eb 2d 13 bd f6 92 86 bc
       0.06242232 -0.044647932 -0.035932463 -0.016427498
000250 50 4b 94 bb 76 0e 11 bc a6 fd 92 3d 9c 6a 5d bd
       -0.0045255795 -0.008853545 0.07177286 -0.05405675
000260 78 ca 4d 3d e6 b1 1a 3c 4d 7b 5c bc 4f 17 eb 3b
       0.050241917 0.009441828 -0.013457132 0.0071744095
000270 a4 b0 9f ba 91 11 40 bc 50 48 9e bd bc 62 2f bd
       -0.001218338 -0.011722938 -0.07728636 -0.04281877
000280 d5 7f 32 bd a4 9b 2d 3d fa 7d 0c bd be 27 87 3b
       -0.04357894 0.04238476 -0.034299828 0.0041246107
000290 59 aa b5 bd 1d a1 90 bd 49 95 af bd 66 11 22 bd
       -0.08870382 -0.0706198 -0.08573396 -0.039567374
0002a0 03 41 1a bd 6f 68 75 3d 23 9e 6a bb 80 2c a1 3d
       -0.037659656 0.05991405 -0.0035799823 0.07869816
0002b0 e8 19 de 3c f1 08 16 39 db a7 9e bb 11 d0 38 3c
       0.027111962 0.00014308446 -0.0048417873 0.011280076
0002c0 42 58 1f 3c 6e 99 82 3d ed 95 52 bd 12 5b a5 bd
       0.009725632 0.06376921 -0.05141251 -0.08074011
0002d0 42 7d dc bb 43 39 9f 3c e4 05 8b bb cb 49 41 bb
       -0.006728799 0.019436484 -0.0042426456 -0.0029493447
0002e0 37 d1 84 bd 26 3b 2b 3d ef 50 ab 3d 9b dd 35 3d
       -0.06485217 0.041804455 0.08365046 0.044400793
0002f0 a5 db 4d 3d 37 22 18 bc 7e 4f 44 3d 7a 28 9a bd
       0.050258297 -0.009285501 0.047927372 -0.075272515
000300 bf 6c 49 3d a0 b1 db 3c be 88 3b bd f1 86 09 3d
       0.049175974 0.026818097 -0.045784704 0.033575956
000310 fa cf af bd 6e 9b 9f 3d 8c 5f 3d bd cc 57 0e 3b
       -0.0858459 0.07793318 -0.0462337 0.0021719811
000320 6f dc 29 3d 0f d3 1a 3d 3b 90 aa 3d 8a 55 1e 3c
       0.041469987 0.037798937 0.08328291 0.009663949
000330 fb d5 2b bb 94 7c e9 3c d7 bc 9e bd 16 58 90 bc
       -0.0026220072 0.028501786 -0.07750862 -0.017620128
000340 d4 41 c4 3d 08 a3 0c 3d 9c bf 38 3d 54 56 87 bc
       0.09582868 0.034335166 0.045104608 -0.016520657
000350 52 99 7a bd 2b 2c 91 bd eb b6 d5 bd 7c 7b ac 3d
       -0.061181374 -0.070885025 -0.104352795 0.0842199
000360 96 43 9d bd 18 0c 86 bc a9 9a 76 bd 7c 84 cd bc
       -0.076789066 -0.016363189 -0.06020609 -0.025087588
000370 65 d2 7e bd 87 ba 92 ba 46 ce 60 bc 1b 8a 18 bd
       -0.062212367 -0.0011194505 -0.013721054 -0.037241083
000380 e2 84 03 bd b8 31 a4 bd 0f d1 52 3d 5f f2 8f 3d
       -0.03210915 -0.080172956 0.051468905 0.070286505
000390 2e be 7d 3d 93 65 00 3d 73 38 3b bc 54 f8 b6 bc
       0.061948948 0.03134687 -0.011427033 -0.022335209
0003a0 78 c2 a5 bd 97 dc 7e bd 9f 56 a6 bd eb 6c 74 3d
       -0.080937326 -0.06222209 -0.081219904 0.059674185
0003b0 ea 18 51 bd 98 fa 61 bd eb 88 da 3c f9 03 95 3d
       -0.05104915 -0.055170625 0.026676616 0.07276148
0003c0 26 99 6f 3d 0b 4c 6e bd 74 3b 1b bc f4 32 a9 bd
       0.058495663 -0.05817799 -0.009474624 -0.08261672
0003d0 79 a8 85 3c 05 05 65 3d ac 08 a3 bd e9 4f 7e bd
       0.016315686 0.05591299 -0.079606384 -0.062087927
0003e0 c4 15 3f bd ef 04 b1 bd 5c 46 10 3d fd a7 9d 3d
       -0.046651617 -0.08643519 0.03522335 0.07698057
0003f0 5f b8 4b bd 55 2d 89 3c 1f 77 8f bd 48 68 fc 3c
       -0.049736377 0.016745249 -0.070051424 0.030811444

fc2.bias f4 [9]
000000 08 5c 80 bd 1c c9 9d bd b6 0c c6 bc 6d 9a ac 3c
       -0.062675536 -0.07704374 -0.024175983 0.02106973
000010 76 cb a7 3c 57 3f 84 bb 38 85 a9 3d b6 ed 6b bd
       0.02048276 -0.004035871 0.082773626 -0.057599746
000020 44 83 29 bb
       -0.0025865594
