runs/3_agents_50000_steps_graph/models/critic.pth (torch, 19272 bytes, 3 tensors)

fc1.weight f4 [128, 32]
0	0xbc30aed8	-0.0107838735
1	0x3bea2c14	0.007146368
2	0xbdee839a	-0.11646195
3	0x3de5f9eb	0.11229309
4	0xbd2fdf36	-0.04293748
5	0x3e16ee33	0.14739303
6	0x3e2aa27e	0.16663548
7	0xbd803631	-0.06260336
8	0xbc885c85	-0.01664568
9	0x3e0681ee	0.13135502
10	0xbe46d43f	-0.19416903
11	0xbdd7596e	-0.10515104
12	0x3dc4fc87	0.09618478
13	0x3ca9b91d	0.020718152
14	0x3e9bad37	0.3040559
15	0x3dd9eda4	0.106410295
16	0xbde75417	-0.11295336
17	0x3e048c32	0.12944105
18	0xbdd1050f	-0.10206043
19	0x3e14e69f	0.145411
20	0x3cc31866	0.023815345
21	0x3e27721f	0.16352127
22	0xbdb4ebd7	-0.088340454
23	0xbd93ed84	-0.07223037
24	0xbda74d4c	-0.0816904
25	0x3e2d5f97	0.16930996
26	0x3e2d5d47	0.16930114
27	0xbe52b41e	-0.20576522
28	0xbe02cf8d	-0.12774487
29	0x3e00ac7b	0.12565796
30	0xbda5e4ce	-0.08100282
31	0xbe2a392e	-0.16623375
32	0x3e08e774	0.13369542
33	0xbddf86b9	-0.10914368
34	0x3d947394	0.07248607
35	0x3ca30766	0.019900989
36	0x3ddd29ec	0.107990116
37	0x3e029bea	0.12754789
38	0xbdccd81b	-0.10002156
39	0x3d5a4a03	0.05329324
40	0x3de376aa	0.11106618
41	0x3e1173c7	0.14204322
42	0x3d8fb482	0.07016851
43	0xbe37b8f8	-0.17941654
44	0xbe4d65c1	-0.20058347
45	0x3e4f96d4	0.2027238
46	0xbc6184bb	-0.013764556
47	0x3dd19c95	0.10234944
48	0x3e2ce8a8	0.16885626
49	0x3d487cbd	0.048947085
50	0x3cc37d6e	0.02386352
51	0xbd6593c9	-0.056049142
52	0xbd7765fd	-0.060399998
53	0x3d0a7d0a	0.033810653
54	0xbd3cb103	-0.04606725
55	0xbdcf7a2f	-0.101307265
56	0xbe0819c9	-0.13291086
57	0xbd91d192	-0.071200505
58	0xbdf6dbae	-0.12053619
59	0xbd993889	-0.07481486
60	0xbe11360f	-0.14180778
61	0xbe33369a	-0.17501298
62	0xbe1eabe4	-0.15495259
63	0xbdc10bc0	-0.09426069
64	0x3df81828	0.121139824
65	0xbc897103	-0.016777521
66	0x3dec4cc7	0.115380816
67	0xbdb6887d	-0.08912752
68	0x3e005a9a	0.12534562
69	0xbcfe2549	-0.031023638
70	0xbe495088	-0.19659626
71	0x3e5428a4	0.20718628
72	0x3c6183d4	0.01376434
73	0x3d2ad670	0.04170841
74	0xbc8880d5	-0.016662994
75	0xbda25d4e	-0.07927953
76	0x3d8d656e	0.06904112
77	0xbdfc275d	-0.123121955
78	0xbe4bd5f1	-0.19905831
79	0xbe46c01d	-0.19409223
80	0x3d08bbfa	0.033382393
81	0x3dff040e	0.12451945
82	0xbe6a62a7	-0.22889195
83	0xbdbc895e	-0.09205888
84	0xbe02a5d1	-0.12758566
85	0x3d366dd0	0.04453832
86	0x3d659e3c	0.056059107
87	0xbe0b8e18	-0.13628423
88	0xbdfb9699	-0.122845836
89	0xbd8ffa2b	-0.07030138
90	0x3e4fd30c	0.20295352
91	0x3d4715d1	0.04860479
92	0x3e2b5c91	0.1673453
93	0xbb884097	-0.0041580903
94	0x3e09a17f	0.13440512
95	0xbd1814c3	-0.037129175
96	0x3df0c48c	0.11756238
97	0x3e080d6a	0.13286367
98	0x3df20909	0.118181296
99	0x3d58aa3b	0.05289672
100	0xbd4177ca	-0.04723338
101	0x3d674b68	0.056468397
102	0x3de854b4	0.11344281
103	0x3bfb2457	0.007664244
104	0x3b635d5a	0.0034693093
105	0xbd111c08	-0.035427123
106	0xbde6bd6d	-0.11266599
107	0x3d927efb	0.07153126
108	0xbbcc0ed5	-0.006227354
109	0xbe2fe32f	-0.17176507
110	0x3e793759	0.2433752
111	0xbe0e0aa7	-0.13871251
112	0xbe0ae551	-0.1356404
113	0xbdfd9e2d	-0.12383685
114	0xbe07b666	-0.13253173
115	0x3e2b54ec	0.16731614
116	0x3dd473dd	0.10373662
117	0xbdabbfbe	-0.08386181
118	0xbda75dcc	-0.08172187
119	0x3e3e9a87	0.18613635
120	0x3d60859e	0.054814927
121	0x3decc548	0.11561066
122	0xbd7da006	-0.06192019
123	0xbe64c8e0	-0.22342253
124	0x3cf74f1d	0.030189091
125	0xbc8df5df	-0.017329155
126	0xbd426f46	-0.0474694
127	0x3d6955ed	0.05696671
128	0xbcca42f3	-0.024690127
129	0xbdc930ea	-0.09823783
130	0xbe2a6c2e	-0.1664283
131	0xbdfce5de	-0.12348531
132	0xbdcdbbf4	-0.10045615
133	0x3d9f53a7	0.07779627
134	0xbddea208	-0.10870749
135	0x3e3b9ee8	0.18322337
136	0xbe190c7e	-0.14946172
137	0x3e4fb515	0.20283921
138	0x3cb0d800	0.021587372
139	0x3d925072	0.0714425
140	0xbdb0f33e	-0.08640145
141	0xbdef980e	-0.11698924
142	0x3c64eef4	0.0139729865
143	0xbe3c326f	-0.18378614
144	0x3caa930a	0.020822067
145	0xbc9657e5	-0.018352458
146	0x3dbc6192	0.091982976
147	0xbe4f9b32	-0.20274046
148	0xbd1d410e	-0.03839212
149	0x3e0ddcdf	0.13853787
150	0xbbe88958	-0.007096451
151	0xbe4b14da	-0.19832173
152	0x3c29c354	0.010361511
153	0xbc16dcab	-0.009207885
154	0x3c6e7b7f	0.014555811
155	0x3d063016	0.032760702
156	0x3e513fd5	0.20434506
157	0x3dd55dc6	0.104182765
158	0x3db359b0	0.08757341
159	0xbdcdb56c	-0.10044369
160	0xbd91f779	-0.0712728
161	0x3e29fd28	0.16600478
162	0x3e287f43	0.16454796
163	0xbe428414	-0.18995696
164	0xbdd545cf	-0.104137056
165	0x3e06d2ff	0.13166426
166	0x3dbf155a	0.09330244
167	0x3d4bdb91	0.04976994
168	0x3b234d8a	0.0024918043
169	0xbd5729be	-0.052530043
170	0x3e1e1d29	0.15440811
171	0x3db16535	0.08661882
172	0xbdd0336e	-0.101660594
173	0xbe3863a7	-0.18006764
174	0xbe2bd74d	-0.1678135
175	0xbd8ab271	-0.06772316
176	0x3cad420b	0.021149656
177	0x3d7fc8c3	0.06244732
178	0x3e59d228	0.21271574
179	0xbcdb349a	-0.02675848
180	0xbcb83edf	-0.022490917
181	0xbd8894f1	-0.06669033
182	0x3bc22c90	0.0059257224
183	0xbe4828de	-0.1954684
184	0xbe0199f8	-0.1265639
185	0xbdce81ea	-0.10083373
186	0x3d4b9fba	0.049712874
187	0x3cd09604	0.025462158
188	0xbe200e28	-0.156304
189	0x3c8e5353	0.017373716
190	0xbc3d9dd1	-0.011573271
191	0x3d48a9bf	0.048990007
192	0x3e4a7cd2	0.19774178
193	0xbe19129a	-0.14948502
194	0xbdd819d1	-0.10551799
195	0x3dfadbb9	0.1224894
196	0x3e00cfe7	0.12579308
197	0x3e2b2a25	0.16715296
198	0xbdb43bbb	-0.08800455
199	0xbd83b2f6	-0.064306185
200	0xbd07569e	-0.03304159
201	0x3dd557e8	0.104171574
202	0xbd2e8e10	-0.04261595
203	0xbe179b79	-0.14805402
204	0xbc094bb8	-0.008379869
205	0x3c9ce6e9	0.019153075
206	0xbccf260c	-0.025286697
207	0x3d9ae9d1	0.07564128
208	0xbe11fe9c	-0.14257282
209	0x3b9d6630	0.0048034415
210	0x3c8b8a2a	0.017033655
211	0xbd8a12d9	-0.06741876
212	0x3da81c97	0.08208578
213	0xbdbd72e7	-0.092504315
214	0x3da4fb0c	0.08055696
215	0xbd324861	-0.043526057
216	0xbdabab8d	-0.0838233
217	0x3d017cf8	0.03161332
218	0xbccbafbc	-0.02486407
219	0x3e21d4fb	0.15803902
220	0x3e081206	0.13288125
221	0xbd364765	-0.04450168
222	0x3c615188	0.013752349
223	0xbddcd498	-0.107827365
224	0x3d8a1875	0.06742946
225	0x3de41642	0.11137058
226	0xbb88c64d	-0.00417403
227	0x3e3c1934	0.18368989
228	0xbcd39b1c	-0.025830798
229	0xbe5fe688	-0.21865284
230	0xbdf65e1f	-0.12029671
231	0xbd4ee893	-0.05051477
232	0xbddded90	-0.10836327
233	0x3d905177	0.07046788
234	0xbe16e8f2	-0.14737299
235	0x3df14068	0.11779863
236	0x3e494730	0.19656062
237	0xbe24c447	-0.16090499
238	0x3d8d96e1	0.069135435
239	0xbdc97144	-0.09836057
240	0x3d8977e1	0.06712318
241	0xbdf1a27f	-0.11798572
242	0x3e471d4b	0.19444768
243	0x3e42edf6	0.19036087
244	0x3e21bc3e	0.15794465
245	0x3dfe2b4f	0.12410604
246	0xbe170e0c	-0.14751452
247	0x3e10fe11	0.14159419
248	0x3d9f5177	0.0777921
249	0x3cfa4707	0.030551447
250	0x3c40ce5b	0.011767949
251	0xbd65f4fd	-0.056141842
252	0xbd24d6e7	-0.04024401
253	0xbe0c304e	-0.13690302
254	0xbe3e9f19	-0.18615378
255	0xbd6a7ec9	-0.057249818

fc1.bias f4 [128]
0	0x3be96d07	0.007123593
1	0xbcfc73ce	-0.030816939
2	0x3e5edee5	0.21764715
3	0xbdb32989	-0.087481566
4	0x3d1c2897	0.038124647
5	0xbdef34c1	-0.11679984
6	0x3df94fb0	0.12173402
7	0xbda32fa1	-0.07968069
8	0xbcc01c23	-0.023450917
9	0x3dcc0db9	0.09963555
10	0x3dd3fe02	0.103511825
11	0xbe14c419	-0.1452793
12	0x3d662009	0.056182895
13	0x3e68bb39	0.2272767
14	0x3e0e5c33	0.13902359
15	0x3e74790e	0.23874304
16	0xbd935c8c	-0.07195386
17	0xbde42d4b	-0.111414514
18	0x3c5dc766	0.01353631
19	0xbe0e8fd1	-0.13922049
20	0xbd751882	-0.059837826
21	0x3cf64082	0.030060057
22	0x3e0c80b3	0.1372097
23	0x3daad2e5	0.08341006
24	0xbc4ae72c	-0.012384217
25	0x3da83523	0.0821326
26	0x3dbd9e4a	0.09258707
27	0xbdb5fecf	-0.088864915
28	0x3b6ede2b	0.003644834
29	0x3dd6cfcd	0.104888536
30	0xbd497de1	-0.049192313
31	0xbcf96539	-0.030443775
32	0xbc867420	-0.016412795
33	0x3a22fc6a	0.0006217422
34	0x3d08b575	0.033376176
35	0x3b835e2f	0.0040090303
36	0x3d4f36e4	0.050589457
37	0x3d80e4bc	0.062936276
38	0xbd9561f8	-0.07294077
39	0x3e0e215c	0.13879913
40	0xbcdb8217	-0.02679543
41	0x3dc29138	0.095003545
42	0xbddf42f4	-0.10901442
43	0x3e25c3ea	0.16188017
44	0xbd70b600	-0.05876732
45	0x3d85553a	0.06510396
46	0xbe047553	-0.1293538
47	0xbbed5fa9	-0.0072440696
48	0x3e0c5506	0.13704309
49	0x3bb310e1	0.0054646586
50	0x3e51c987	0.20487033
51	0xbda64744	-0.081190616
52	0x3e1b6695	0.1517585
53	0x3d5898cf	0.052880105
54	0x3d90a839	0.07063336
55	0x3dff076e	0.12452589
56	0x3df333c4	0.11875108
57	0x3cc8e202	0.024521831
58	0x3c90c0e8	0.01767011
59	0x3e32a2c8	0.17444909
60	0xbd801690	-0.062543035
61	0xbc287cad	-0.010283631
62	0x3de5bfe6	0.11218242
63	0x3db1ab0a	0.08675201
64	0x3e74017b	0.2382869
65	0x3e786118	0.24255788
66	0x3e37376c	0.17892236
67	0x3e1fa4cc	0.15590209
68	0x3b0d6bdd	0.0021579184
69	0xbd94b680	-0.072613716
70	0x3d32f00b	0.043685954
71	0x3dddede7	0.10836392
72	0x3d88f124	0.06686619
73	0xbe0ec668	-0.13942873
74	0xbe019798	-0.12655485
75	0x3e1b7347	0.15180694
76	0x3db1ec29	0.08687622
77	0x3d0224b5	0.031773288
78	0x3d27899d	0.040902723
79	0xbce67a33	-0.028134441
80	0x3d82488c	0.063614935
81	0xbda0ee76	-0.07857983
82	0x3d2983c3	0.041385423
83	0xbd8cf0b0	-0.06881845
84	0x3d947c28	0.072502434
85	0x3e0737b8	0.13204849
86	0x3e00a251	0.12561919
87	0x3e0545cb	0.13014905
88	0x3e4a3e23	0.19750266
89	0x3de9e328	0.1142028
90	0xbb7be2c2	-0.0038434719
91	0xbd80694a	-0.06270082
92	0xbda4d7c7	-0.08048969
93	0xbd92a592	-0.07160486
94	0x3e74bd8d	0.23900433
95	0xbde40566	-0.11133842
96	0x3e190dd1	0.14946677
97	0xbbf5da1f	-0.0075028087
98	0xbe294a9b	-0.16532366
99	0x3e195ef6	0.14977631
100	0x3e34744d	0.1762249
101	0x3e54d29d	0.20783468
102	0x3daabfc9	0.08337361
103	0xbcd5e694	-0.026110925
104	0x3e082f31	0.13299252
105	0xbd509818	-0.050926298
106	0x3db5fef1	0.08886517
107	0xbc147097	-0.009060047
108	0x3e07577b	0.13216965
109	0x3e2f267b	0.17104523
110	0x3e0dd7c4	0.1385184
111	0x3e1883e7	0.14894067
112	0x3dbd05a3	0.09229591
113	0xbe05158f	-0.12996505
114	0xbd9db1cd	-0.076999284
115	0xbe20d1a3	-0.1570497
116	0x3cbffabc	0.02343499
117	0xbcf9ed70	-0.030508727
118	0x3e05911e	0.13043639
119	0x3d7d0cda	0.061779834
120	0xbd9fcb56	-0.07802455
121	0x3e01d7e8	0.12680018
122	0xbd99625e	-0.07489465
123	0x3c267a54	0.010161001
124	0xbce162f0	-0.027512997
125	0x3e15865a	0.14602032
126	0x3da8c466	0.08240585
127	0x3da5e9f3	0.08101263

fc2.weight f4 [1, 128]
0	0x3e0cd75a	0.13754025
1	0xbdb211fd	-0.08694837
2	0xbe0e7bc5	-0.13914402
3	0x3e28b76d	0.16476221
4	0xbd86fada	-0.06590815
5	0x3dd184af	0.102303855
6	0xbd7b5e45	-0.0613692
7	0x3e2a6ceb	0.16643111
8	0xbd6370cf	-0.055527505
9	0x3d83f65c	0.06443474
10	0xbc6d1f72	-0.014472829
11	0x3de63f0e	0.112424955
12	0x3c9f3349	0.019433634
13	0xbe16ac5b	-0.14714186
14	0x3de98a45	0.11403326
15	0xbe27ce0f	-0.16387199
16	0x3d9e7f78	0.077391565
17	0x3d98cc2f	0.0746082
18	0xbdeba919	-0.11506862
19	0x3e28b238	0.16474235
20	0xbe01310a	-0.12616363
21	0xbcd7a7e4	-0.026325174
22	0xbdd8e59d	-0.1059067
23	0x3dbc03de	0.09180425
24	0xbe194791	-0.14968707
25	0xbd968821	-0.07350183
26	0xbda45e06	-0.08025746
27	0xbd24178e	-0.040061526
28	0x3d88dba0	0.06682515
29	0xbd1100d1	-0.03540117
30	0x3dc98ea7	0.09841662
31	0x3a49d383	0.0007699059
32	0xbdd525f5	-0.1040763
33	0x3deaa075	0.11456386
34	0x3e025e57	0.127313
35	0xbd8749c5	-0.06605867
36	0xbd8ca0f5	-0.068666376
37	0xbdfaaf8d	-0.12240515
38	0xbd176fed	-0.036971975
39	0x3e075f0b	0.1321985
40	0xbdf7abfd	-0.12093351
41	0xbdd4385f	-0.103623144
42	0x3db33dda	0.087520316
43	0xbe21337d	-0.15742297
44	0x3de4d734	0.11173859
45	0xbdb0f7da	-0.08641024
46	0xbd909d22	-0.07061221
47	0xbe1e89ae	-0.15482208
48	0xbd4bdc24	-0.04977049
49	0xbe205c78	-0.15660274
50	0xbd94ec5d	-0.07271645
51	0xbd89cccd	-0.06728516
52	0x3e0a9bba	0.13535967
53	0xbe1f84e5	-0.15578039
54	0x3d939231	0.07205618
55	0xbe0b3ac3	-0.13596635
56	0xbdd863a6	-0.105658814
57	0x3d3020be	0.042999975
58	0x3ddc6436	0.10761301
59	0xbe2e1d04	-0.17003256
60	0x3de07d5b	0.1096141
61	0xbdd29656	-0.102825806
62	0xbcfde0ac	-0.030990921
63	0xbd9ff020	-0.07809472
64	0xbd6f8b38	-0.05848238
65	0xbdeea2f4	-0.116521746
66	0xbdf28132	-0.11841048
67	0xbe2649fc	-0.1623916
68	0xbe07a5f1	-0.13246895
69	0xbddcf10a	-0.10788162
70	0xbd9b8fc2	-0.07595779
71	0xbdc104ca	-0.094247416
72	0x3d5002cf	0.05078393
73	0xbe1c5922	-0.15268376
74	0xbdeb1fc7	-0.114806704
75	0xbd6a4153	-0.057191204
76	0x3d945bda	0.07244082
77	0xbdf92df2	-0.121669665
78	0x3dcdf60c	0.10056695
79	0xbd937dcb	-0.072017275
80	0xbdd3c533	-0.10340347
81	0xbdc56fd3	-0.096404694
82	0x3da604ee	0.08106409
83	0x3d97649d	0.07392237
84	0xbdfd4ade	-0.123677954
85	0x3d6ed0a7	0.058304455
86	0xbca009e2	-0.019535962
87	0x3dec23bc	0.11530253
88	0xbe2ecee5	-0.17071112
89	0xbe1ea091	-0.15490939
90	0xbd7502b5	-0.059817035
91	0x3d831ca1	0.06401945
92	0xbdab4ca1	-0.08364225
93	0x3de7e388	0.11322695
94	0xbdc291e2	-0.09500481
95	0xbdbb2f20	-0.09139848
96	0xbddfe683	-0.109326385
97	0x3defa682	0.11701681
98	0x3e19d319	0.15021934
99	0x3e1cbb15	0.15305741
100	0x3d95f755	0.073225655
101	0xbe012e60	-0.12615347
102	0xbd3f8610	-0.04675871
103	0xbdefbdaa	-0.117060974
104	0x3d1ae362	0.037814505
105	0xbcb8a2ad	-0.022538507
106	0xbd8ac602	-0.06776048
107	0x3dba41fd	0.090946175
108	0xbe194984	-0.1496945
109	0xbdcd5539	-0.100260206
110	0xbd2979df	-0.04137599
111	0xbdb7a98a	-0.08967884
112	0x3e02b402	0.1276398
113	0xbdd9cab9	-0.106343694
114	0x3df44f84	0.11929229
115	0x3e15856a	0.14601675
116	0x3d875d00	0.06609535
117	0xbe2a9acb	-0.16660611
118	0x3dda1efb	0.1065044
119	0xbd502cb1	-0.05082387
120	0xbde56d39	-0.11202473
121	0x3dc0e7d9	0.094192214
122	0x3d7ba0dc	0.061432704
123	0x3dad0661	0.08448482
124	0x3db80692	0.08985628
125	0xbd9ad4cc	-0.07560119
126	0xbdd41037	-0.10354655
127	0x3e073e2e	0.13207313
