runs/3_agents_50000_steps_graph/models/critic_gnn.pth (torch, 9186 bytes, 10 tensors)

layer.w1.weight f4 [32, 9]
0	0x3deb5db6	0.11492483
1	0xbea9848a	-0.33108932
2	0xbe969dc1	-0.29417232
3	0xbea3491e	-0.3189172
4	0x3da77be0	0.08177924
5	0xbe8423dd	-0.25808612
6	0x3e5a44ab	0.21315257
7	0x3e81e4f3	0.25369987
8	0xbdcb0f00	-0.099149704
9	0x3e15214b	0.14563482
10	0xbe9bfa3b	-0.30464348
11	0xbe423f1d	-0.18969388
12	0x3e22ccb3	0.15898399
13	0xbe39d8e3	-0.18149142
14	0x3dd8e43e	0.10590409
15	0xbdd4f663	-0.10398557
16	0x3e4f4ea6	0.20244846
17	0x3e985d98	0.29758906
18	0xbea7acc3	-0.32748994
19	0x3e5449e3	0.2073131
20	0xbea9dbc1	-0.3317547
21	0x3d46d75d	0.04854523
22	0x3e64f8c6	0.22360525
23	0x3e3a8d49	0.18217959
24	0x3e1a1e46	0.15050611
25	0xbd118bf6	-0.035533868
26	0x3e85422b	0.26027045
27	0x3e6e5ace	0.23276827
28	0xbe971ae0	-0.29512691
29	0xbe69a225	-0.2281576
30	0x3e4779e0	0.19480085
31	0x3caa4209	0.020783441
32	0x3e7753c9	0.24153055
33	0xbd337b85	-0.04381897
34	0x3e0bbca8	0.13646185
35	0xbc5f9956	-0.013647398
36	0xbd98ebb6	-0.07466833
37	0x3e9b823e	0.30372804
38	0xbd322923	-0.043496262
39	0xbe975471	-0.2955661
40	0xbd1e2add	-0.038615096
41	0xbe58c2aa	-0.21168008
42	0x3e923bea	0.28561336
43	0x3dd32086	0.10308938
44	0x3e8b45de	0.27201742
45	0xbe16d6ce	-0.14730379
46	0x3e80308c	0.25037038
47	0xbea19dd8	-0.31565738
48	0xbdd86653	-0.10566392
49	0x3e93688b	0.28790697
50	0x3e9b0c3f	0.3028278
51	0x3e87f7bb	0.2655619
52	0x3e45bad6	0.19309554
53	0x3e99fe56	0.30076855
54	0x3e80d2b3	0.2516075
55	0x3e0492c0	0.12946606
56	0xbc03b862	-0.008039566
57	0xbe9952ed	-0.2994608
58	0xbd33c460	-0.04388845
59	0x3d3d0ba1	0.04615367
60	0xbe9a8591	-0.30180028
61	0xbe781138	-0.24225318
62	0x3bbb2300	0.0057109594
63	0xbd455a60	-0.04818189
64	0x3e8c83fc	0.27444446
65	0xbea1a5cf	-0.31571814
66	0xbe8f95ed	-0.28044072
67	0x3d6c40d4	0.057679012
68	0xbea1bd35	-0.31589666
69	0xbc62e3c0	-0.013848245
70	0xbc459380	-0.0120590925
71	0xbe3be620	-0.18349504
72	0xbe32d450	-0.17463803
73	0xbdfdbcd6	-0.12389533
74	0x3d6cdf06	0.05782988
75	0x3e8cb0e9	0.27478722
76	0x3e584bc7	0.21122657
77	0xbe772bac	-0.24137753
78	0x3e75df7f	0.24011038
79	0x3e5168d6	0.20450148
80	0xbe46d763	-0.19418101
81	0x3e8686fc	0.2627486
82	0x3ca8ec00	0.020620346
83	0x3e8a2f7d	0.26989356
84	0x3e001672	0.12508562
85	0xbd9d4fb6	-0.07681219
86	0x3e322343	0.17396264
87	0xbe3254ed	-0.17415209
88	0xbeaa5b2b	-0.3327268
89	0x3d4e2740	0.0503304
90	0x3e4aeef6	0.19817719
91	0x3dc5cd40	0.09658289
92	0x3dc873b1	0.097876914
93	0x3e0b80b6	0.13623318
94	0xbea4fa17	-0.32222053
95	0x3e80594b	0.25068125
96	0x3e0a1cb4	0.13487512
97	0x3e758ebb	0.23980229
98	0x3e931653	0.2872797
99	0x3e65f56e	0.22456905
100	0x3e539a80	0.20664406
101	0x3e765692	0.24056461
102	0xbe824792	-0.2544523
103	0x3d630853	0.05542786
104	0xbe878487	-0.26468298
105	0xbe555e96	-0.20836863
106	0xbe362d13	-0.17790632
107	0xbde8df36	-0.11370699
108	0xbe9787cb	-0.2959579
109	0xbdf6bf60	-0.12048221
110	0xbdfeec42	-0.12447406
111	0x3dafbce5	0.08580951
112	0x3d885c80	0.06658268
113	0xbd422fcb	-0.04740886
114	0xbe8cde20	-0.27513218
115	0x3da3aacb	0.079915605
116	0x3dc85b40	0.097830296
117	0xbe1e5796	-0.15463099
118	0x3e8b3fcb	0.27197108
119	0x3e6741fa	0.22583762
120	0x3e8ad939	0.27118853
121	0x3e83e67e	0.2576179
122	0xbe5cfac9	-0.21580042
123	0x3ded921f	0.11600136
124	0xbe7f2323	-0.24915747
125	0x3d501d6b	0.050809305
126	0xbdc434a6	-0.095803544
127	0x3e12f768	0.1435219
128	0x3e4c21f6	0.1993483
129	0xbde4fbce	-0.111808404
130	0x3e28514a	0.1643726
131	0x3e7976b0	0.24361682
132	0x3d64f9f4	0.055902436
133	0xbe1c0cdb	-0.15239279
134	0xbddca14b	-0.10772952
135	0xbde357fb	-0.11100765
136	0x3d94dfb6	0.07269232
137	0xbe2ed003	-0.17071538
138	0x3d7b65db	0.061376434
139	0x3e5db15b	0.21649687
140	0xbde045b6	-0.10950796
141	0x3eac478a	0.3364833
142	0x3ea2cc37	0.3179643
143	0xbe5cc3ae	-0.21559021
144	0x3e6ef8fe	0.2333717
145	0x3e663aeb	0.22483413
146	0xbe0c315e	-0.13690707
147	0xbe17b6f9	-0.14815892
148	0xbe04e631	-0.12978436
149	0xbe8cd60d	-0.27507058
150	0x3e38c165	0.18042524
151	0x3d32bf2b	0.043639343
152	0xbe836968	-0.25666356
153	0xbe2fe81b	-0.17178385
154	0xbd0ddc20	-0.034633756
155	0xbbc4391b	-0.005988253
156	0xbdeb2d11	-0.11483205
157	0xbecdf4d1	-0.40225843
158	0x3df72cac	0.12069067
159	0xbade3011	-0.0016951581
160	0x3daf7690	0.08567536
161	0xbea906a4	-0.3301288
162	0xbd6d608b	-0.0579534
163	0xbe2ca6a8	-0.1686045
164	0x3e871417	0.26382515
165	0x3e17f87b	0.14840882
166	0x3ea16116	0.31519383
167	0xbd65cb00	-0.0561018
168	0x3b90381b	0.0044012195
169	0x3d849466	0.06473617
170	0x3e845c4a	0.2585166
171	0xbd0b9f96	-0.03408774
172	0x3e904bf0	0.28182936
173	0x3e094972	0.13406923
174	0xbdd14037	-0.10217326
175	0x3edc665a	0.43046838
176	0x3e433591	0.19063403
177	0xbe3ec992	-0.1863158
178	0xbb0ac8ab	-0.0021176736
179	0x3ea39ef4	0.3195721
180	0x3dfe0eb6	0.1240515
181	0x3e0b51b8	0.13605392
182	0xbea83a60	-0.32857037
183	0xbe85ea4a	-0.2615531
184	0x3c962e71	0.018332692
185	0x3eabd14a	0.33558112
186	0x3ea4c5e6	0.32182235
187	0xbc9320ab	-0.017959913
188	0xbe02048b	-0.12697046
189	0x3e6e93fe	0.23298642
190	0x3d7c9ae0	0.061671138
191	0x3d6fbbad	0.05852859
192	0x3e49ddf5	0.19713576
193	0x3e8b6578	0.27225852
194	0xbe2b1e18	-0.16710699
195	0xbda9df91	-0.08294595
196	0x3df6f9f6	0.12059395
197	0xbe985f2b	-0.29760107
198	0x3de4f636	0.111797735
199	0xbe309176	-0.17242989
200	0x3d43ce3b	0.0478041
201	0xbc52fe5b	-0.012878026
202	0x3ecd000e	0.40039104
203	0x3e246133	0.16052704
204	0xbcc6d987	-0.024273647
205	0xbd4c490b	-0.049874347
206	0x3dd6288b	0.10456952
207	0xbe15e913	-0.14639692
208	0xbe8dfb67	-0.27730867
209	0x3e9e50f2	0.3092113
210	0xbd97407d	-0.07385347
211	0x3c7fc14b	0.0156100495
212	0x3d12ffb4	0.03588839
213	0x3eaee1c0	0.3415661
214	0x3e089943	0.13339715
215	0x3ea89f1b	0.32933888
216	0x3e85b1a3	0.2611209
217	0x3d4a6100	0.049408913
218	0x3e9221ea	0.285415
219	0x3de792d0	0.11307299
220	0x3d17a968	0.037026793
221	0x3d4a5cf8	0.04940507
222	0xbb02efb6	-0.0019979305
223	0xbe149ab6	-0.14512143
224	0xbe170438	-0.14747703
225	0xbe12ca80	-0.1433506
226	0x3e9e0b57	0.30868027
227	0xbd922700	-0.07136345
228	0xbe917eee	-0.28417152
229	0xbe6e60e1	-0.23279144
230	0x3db2029f	0.08691906
231	0x3cddf646	0.027094971
232	0xbde1a4b0	-0.1101774
233	0xbe1ba358	-0.1519903
234	0xbe2ea3a3	-0.1705461
235	0xbe89401f	-0.26806733
236	0x3e9ff7b0	0.31243658
237	0xbe890743	-0.26763353
238	0xbe9d675f	-0.30742928
239	0x3ec6e31c	0.38845146
240	0x3b93ed50	0.004514374
241	0x3e27023b	0.16309445
242	0x3e5f03eb	0.21778838
243	0xbd69510b	-0.056962054
244	0xbe2869b8	-0.16446579
245	0x3e578757	0.21047722
246	0xbc375fc8	-0.01119227
247	0x3e146880	0.14492989
248	0xbd6a44de	-0.057194583
249	0x3e83197f	0.2560539
250	0xbd8a2210	-0.06744778
251	0xbe4c58ae	-0.19955704
252	0xbd18660b	-0.03720669
253	0xbea81874	-0.32831156
254	0xbe1c35ce	-0.152549
255	0xbdb8cab5	-0.09023038

layer.w1.bias f4 [32]
0	0xbe1911f6	-0.14948258
1	0xbe0c34d4	-0.13692027
2	0x3e4677a2	0.19381574
3	0x3eaacaad	0.33357754
4	0xbeacb16f	-0.3372912
5	0xbe9c4da5	-0.30527988
6	0xbd39c307	-0.04535201
7	0xbe1d41c3	-0.15357117
8	0x3c332287	0.010933525
9	0xbdf53ef1	-0.11974896
10	0xbda1fc89	-0.079094954
11	0x3bb3695c	0.0054752063
12	0xbb20c21e	-0.0024529765
13	0xbe8af10d	-0.27137032
14	0xbd95a303	-0.07306483
15	0x3e0a5aaf	0.13511156
16	0x3e861c5a	0.26193506
17	0x3e2c33a5	0.16816576
18	0xbd8f6f5c	-0.07003662
19	0x3e48b23f	0.19599245
20	0x3e0c5823	0.13705496
21	0xbe984210	-0.29737902
22	0x3e475c8b	0.19468896
23	0x3d420ce4	0.047375575
24	0x3e9a639d	0.30154124
25	0xbc9bd97b	-0.019024601
26	0x3e83760c	0.25676
27	0xbe7e3090	-0.24823213
28	0x3d9b33ee	0.07578264
29	0x3e869514	0.26285613
30	0xbc83da5e	-0.016095337
31	0xbe12def5	-0.14342864

layer.w2.weight f4 [32, 9]
0	0x3e0fc035	0.14038165
1	0x3e694b8a	0.22782722
2	0x3d46be38	0.04852125
3	0xbd31df22	-0.043425687
4	0x3cef3ceb	0.029203853
5	0xbd5dcd43	-0.05415083
6	0x3e264f64	0.16241223
7	0xbe900dca	-0.2813552
8	0xbe2890af	-0.16461442
9	0x3d105738	0.03523943
10	0x3c406e17	0.011744997
11	0xbd7978f8	-0.06090638
12	0xbea9c0e3	-0.33154973
13	0xbe17cc31	-0.14823987
14	0x3b631d8f	0.003465507
15	0xbe0f3f0e	-0.13988897
16	0xbe8742af	-0.26418063
17	0xbd8869ee	-0.066608295
18	0xbe623ffb	-0.22094719
19	0xbd63ac28	-0.055584103
20	0x3e5e861c	0.21730846
21	0xbc3b3d39	-0.011428171
22	0xbda97ed2	-0.08276142
23	0x3d4d67c1	0.050147776
24	0x3dce9786	0.100874946
25	0x3e8d71e3	0.2762595
26	0x3eaadfab	0.3337377
27	0x3ea80fa1	0.32824424
28	0x3e055ddf	0.1302409
29	0xbe0af6da	-0.13570729
30	0x3e6db46f	0.23213361
31	0xbe30d088	-0.17267048
32	0xbc0bb6ab	-0.008527438
33	0x3c022a01	0.007944585
34	0x3dff839e	0.12476276
35	0xbe5d9233	-0.21637802
36	0x3db493c9	0.0881725
37	0xbe8b2b24	-0.2718135
38	0x3e9f2a1f	0.31086823
39	0x3dbb60ca	0.091493204
40	0x3e863985	0.2621576
41	0xbe472db2	-0.19451025
42	0x3e8b8d68	0.27256322
43	0x3d0b39d3	0.033990692
44	0x3e8503a2	0.25979334
45	0x3e949312	0.29018456
46	0x3e9980d3	0.29981098
47	0xbe3bc2ee	-0.18336079
48	0xbe115a76	-0.14194664
49	0x3d8a5894	0.06755176
50	0x3eae85e8	0.34086537
51	0x3ab449e7	0.0013754935
52	0x3df6491c	0.12025663
53	0xbe9b4415	-0.3032538
54	0x3da5de98	0.08099097
55	0x3c285fcd	0.010276747
56	0xbe8f4392	-0.2798124
57	0xbe1d612e	-0.15369102
58	0xbe8a1544	-0.2696935
59	0x3eac9b0b	0.33712038
60	0xbe5bda68	-0.21470034
61	0xbe0f35e4	-0.13985401
62	0xbeb212d0	-0.34779978
63	0x3dc91d3c	0.09820029
64	0x3dd5f6a2	0.10447432
65	0x3e394d5f	0.18095921
66	0xbeac7158	-0.33680224
67	0xbe410a4b	-0.18851583
68	0xbea8e214	-0.32984984
69	0xbe820807	-0.2539675
70	0xbe72eb01	-0.2372246
71	0xba4b39ac	-0.0007752429
72	0xbe139ee2	-0.14416078
73	0xbe909027	-0.2823498
74	0x3e7f5c7f	0.24937628
75	0xbd6620e8	-0.056183726
76	0xbea28f9f	-0.317502
77	0xbd794278	-0.060854405
78	0xbdbee792	-0.09321512
79	0xbe5aa984	-0.21353728
80	0x3e838503	0.25687417
81	0xbec49fbb	-0.38403115
82	0x3db3e065	0.08783034
83	0x3d365135	0.04451104
84	0x3dce74b6	0.100808546
85	0xbe81183c	-0.25213802
86	0x3e80f197	0.25184318
87	0xbe9fcb78	-0.31209922
88	0xba16f064	-0.0005757867
89	0x3e80a292	0.2512403
90	0xbec44834	-0.38336337
91	0xbbce9c14	-0.006305227
92	0xbe8a9bf9	-0.27072123
93	0xbe926b68	-0.2859757
94	0xbdc16632	-0.0944332
95	0x3eb1d07e	0.3472938
96	0x3e2e8c13	0.17045622
97	0xbd98e04a	-0.07464655
98	0x3ea31626	0.31852835
99	0x3e986cf2	0.2977062
100	0xbe0e50a2	-0.13897946
101	0x3e75b966	0.23996505
102	0x3e299031	0.16558911
103	0x3e73c6c8	0.23806298
104	0x3c90a22c	0.017655455
105	0x3e4cd119	0.2000164
106	0xbe2a560e	-0.1663439
107	0xbdedc6af	-0.116101615
108	0xbc83e5fb	-0.016100874
109	0xbe82461c	-0.25444114
110	0x3e6760a5	0.2259546
111	0xbdc210ec	-0.09475884
112	0x3df9706a	0.121796444
113	0xbe4d52ca	-0.20051113
114	0xbd0f6c67	-0.03501549
115	0xbd7ca492	-0.061680384
116	0xbe2ff6c7	-0.17183982
117	0xbda62787	-0.08113008
118	0xbe228190	-0.15869737
119	0xbdfaa48e	-0.122384176
120	0xbe7f7c10	-0.2494967
121	0x3e0c5069	0.13702549
122	0x3e28f4b6	0.164996
123	0xbeaabad4	-0.33345664
124	0xbe3dc6d0	-0.18532872
125	0xbe95d382	-0.2926293
126	0x3e0386f0	0.12844443
127	0x3da5f61b	0.081035815
128	0x3e964f91	0.2935758
129	0x3e15a58b	0.14613931
130	0x3ccb4907	0.024815096
131	0xbcb1675d	-0.021655733
132	0x3e8f12b5	0.2794396
133	0xbccaf50b	-0.024775049
134	0x3e6597a4	0.22421128
135	0x3d988c06	0.07448582
136	0xbdf80d2a	-0.12111886
137	0x3de762fb	0.11298176
138	0xbcfb3e41	-0.030669333
139	0x3e8272fe	0.25478357
140	0xbe86366d	-0.262134
141	0x3e683ef6	0.22680268
142	0x3e96d273	0.29457435
143	0xbdd99dc3	-0.10625794
144	0x3e571896	0.21005473
145	0xbe9c35d6	-0.30509824
146	0xbcfcdfda	-0.03086846
147	0xbe095d1d	-0.13414426
148	0xbe990161	-0.29883865
149	0x3df739af	0.12071549
150	0x3e673f6b	0.22582786
151	0xbc7de63a	-0.015496785
152	0x3ea4e03e	0.32202333
153	0xbe58a077	-0.21154962
154	0x3eb13732	0.34612423
155	0xbe3bc5ee	-0.18337223
156	0xbdafb639	-0.08579678
157	0x3dd6802d	0.10473666
158	0xbd402789	-0.046912704
159	0xbe18bacc	-0.14915007
160	0x3cf11274	0.029427744
161	0x3e518978	0.20462596
162	0x3e6b1999	0.22958983
163	0xbe165d42	-0.14684013
164	0x3e9fedf1	0.31236222
165	0xbe99c837	-0.30035564
166	0xbe8a533f	-0.27016637
167	0xbdcda652	-0.10041489
168	0x3e1f0dc9	0.15532602
169	0xbe32dec1	-0.17467786
170	0x3e96b741	0.29436687
171	0x3e4fe337	0.2030152
172	0xbd8cdea7	-0.06878405
173	0xbe358ed5	-0.17730267
174	0xbd8a6150	-0.06756842
175	0xbe6d21a3	-0.23157363
176	0xbe8fe31d	-0.2810296
177	0x3e0d9bf1	0.13829018
178	0xbe36fc8f	-0.17869781
179	0x3cc207cf	0.023685364
180	0x3e3799e6	0.17929801
181	0x3e1ef1bf	0.15521906
182	0x3c2644fd	0.010148284
183	0xbe2a1365	-0.16608961
184	0xbdd4625b	-0.10370322
185	0x3d68f6a5	0.056875844
186	0xbdf8fb03	-0.12157252
187	0x3e841e63	0.25804433
188	0xbe2a390a	-0.16623321
189	0x3e73543c	0.23762602
190	0x3c1b1019	0.009464287
191	0xbe693c00	-0.22776794
192	0xbe310bdc	-0.1728968
193	0xbdfe26c6	-0.12409739
194	0x3ea40ce6	0.3204109
195	0xbe263e35	-0.16234668
196	0x3d70d5f5	0.058797795
197	0x3df0a8c2	0.11750938
198	0xbe64f5ca	-0.22359386
199	0xbe366fa2	-0.17816022
200	0xbe6b281b	-0.22964518
201	0x3e5c4776	0.21511635
202	0x3e46e272	0.1942232
203	0xbe531852	-0.20614746
204	0x3db8dcc4	0.09026483
205	0x3ea9f9c8	0.3319838
206	0xbe4b4aa4	-0.19852692
207	0x3df4c420	0.119514704
208	0x3db4a278	0.08820051
209	0x3e8e2834	0.27765048
210	0x3c89df23	0.016830033
211	0x3e81ff0b	0.25389895
212	0x3e2942f6	0.1652945
213	0x3df752e2	0.120763555
214	0xbea1bd9e	-0.3158998
215	0xbe8bae40	-0.2728138
216	0xbdceea61	-0.10103298
217	0x3d83d805	0.06437687
218	0xbc169771	-0.00919138
219	0xbda7a988	-0.081866324
220	0x3e956e97	0.29185936
221	0x3e2960fb	0.16540901
222	0xbe8afeee	-0.2714762
223	0x3d56ca0f	0.05243879
224	0x3e9afb75	0.3026997
225	0xbc68a64f	-0.014199807
226	0x3c9b5888	0.018963113
227	0xbda6cf83	-0.081450485
228	0xbe5c03f9	-0.2148589
229	0xbe577ed6	-0.21044478
230	0x3e13b329	0.14423813
231	0x3e7d74c7	0.24751578
232	0xbd495bf7	-0.04915997
233	0x3d719d30	0.058987796
234	0x3b397cec	0.002830322
235	0x3e9d39fa	0.30708295
236	0xbbe90535	-0.0071112164
237	0x3dd1571a	0.102216914
238	0x3e07a5a5	0.13246782
239	0xbcd84dbd	-0.026404256
240	0x3cef363b	0.029200664
241	0xbea00cb5	-0.31259695
242	0x3e430a7b	0.19046967
243	0x3e1681a5	0.14697893
244	0xbe04457b	-0.1291713
245	0xbd80d6ec	-0.06290993
246	0xbe0d2c1e	-0.1378636
247	0x3e94ba8f	0.29048583
248	0xbe449a64	-0.1919952
249	0xbe90dc1e	-0.28292936
250	0xbc2c9b19	-0.010535025
251	0xbdce00c7	-0.10058742
252	0xbe834244	-0.25636494
253	0xbe1b6c59	-0.1517805
254	0x3c8dbbf0	0.01730153
255	0x3e05f0e4	0.13080174

layer.w2.bias f4 [32]
0	0xbe197171	-0.1498468
1	0x3e98b91c	0.29828727
2	0xbe4bae79	-0.19890775
3	0x3e8ed563	0.27897176
4	0x3e84fe08	0.2597506
5	0x3e1da812	0.15396145
6	0xbdeac1a4	-0.11462715
7	0xbcde17f4	-0.027111031
8	0xbe217850	-0.15768552
9	0x3d9e419c	0.07727358
10	0x3e888f23	0.26671705
11	0x3e3484b4	0.17628747
12	0x3e4ead74	0.20183355
13	0xbe5c74dc	-0.21528953
14	0xbe35df37	-0.17760931
15	0xbe2a94b6	-0.16658291
16	0x3da74fcb	0.08169516
17	0xbe452bc0	-0.1925497
18	0x3b82268c	0.0039718803
19	0xbde45b2e	-0.11150204
20	0xbe28be3b	-0.16478817
21	0xbd3587cd	-0.044318963
22	0x3c9422e3	0.018083042
23	0x3eab663c	0.33476436
24	0xbd898acf	-0.06715929
25	0x3d685232	0.056719013
26	0x3ea288f8	0.31745124
27	0x3e5328b9	0.20621003
28	0x3e47e6c9	0.19521631
29	0x3dbe9b62	0.09306981
30	0xbc48951b	-0.012242581
31	0xbd040836	-0.032234393

layer.w3.weight f4 [32, 9]
0	0xbea4f0cb	-0.3221496
1	0xbea04a3b	-0.31306633
2	0x3e964f5e	0.29357427
3	0xbe477739	-0.19479074
4	0xbd6635b0	-0.056203544
5	0xbe5ee83d	-0.2176828
6	0x3e4968a7	0.19668828
7	0xbe1224c0	-0.14271832
8	0x3e969ba3	0.29415616
9	0xbe8eb5d7	-0.27873108
10	0x3ea69854	0.32538092
11	0x3e48de65	0.19616087
12	0xbe693ba3	-0.22776656
13	0xbe36e254	-0.17859775
14	0xbb41a7b4	-0.0029549422
15	0xbe84b44f	-0.25918815
16	0x3d973690	0.07383454
17	0xbd564580	-0.052312374
18	0xbe3e7e76	-0.18602929
19	0xbe06d146	-0.13165769
20	0x3eaf2aa5	0.34212223
21	0xbdea1f11	-0.11431707
22	0x3da8bcdf	0.08239149
23	0xbc30446e	-0.010758502
24	0xbcfe27a3	-0.03102476
25	0x3d63956b	0.055562418
26	0x3dbea180	0.093081474
27	0xbc698000	-0.014251709
28	0xbc525b56	-0.012839159
29	0xbe527bdc	-0.20555061
30	0xbc20f16f	-0.009823187
31	0x3e9e99ca	0.30976707
32	0xbe70d6e2	-0.23519471
33	0x3e6c8b59	0.23100032
34	0x3e489dd8	0.19591463
35	0xbdcf0b2b	-0.10109552
36	0xbda75156	-0.081698105
37	0xbe09ea9b	-0.13468401
38	0xbe7c4fdc	-0.24639839
39	0xbe8bd027	-0.27307245
40	0x3e654a9a	0.2239174
41	0xbcf956b0	-0.030436844
42	0x3e33b21d	0.17548414
43	0x3e7d5c8b	0.24742334
44	0xbdba93c0	-0.09110212
45	0x3e1015ee	0.14070866
46	0x3e92793f	0.28608128
47	0xbeb1d293	-0.34730968
48	0xbe93a52b	-0.2883695
49	0xbe024f2f	-0.12725519
50	0x3cd20a95	0.025639812
51	0xbe09d5ee	-0.13460514
52	0xbe99abfa	-0.3001402
53	0x3e8e2037	0.27758953
54	0xbe8953ef	-0.2682185
55	0x3c502c00	0.012705803
56	0x3e7096f9	0.23495091
57	0xbd10869a	-0.035284616
58	0xbd8b09cd	-0.06788979
59	0x3e335d21	0.17515995
60	0x3e626212	0.22107723
61	0xbe8b8e32	-0.27256924
62	0x3e1e1180	0.15436363
63	0x3de51396	0.11185376
64	0xbe3677db	-0.17819159
65	0x3e2d5b11	0.1692927
66	0xbd75d999	-0.06002197
67	0x3d096d5c	0.03355156
68	0xbe9fe060	-0.31225872
69	0x3eadaa25	0.33918872
70	0xbda3588b	-0.079758726
71	0xbd9bb886	-0.076035544
72	0xbe947236	-0.28993386
73	0x3e16c9b8	0.14725387
74	0x3d8f7ff4	0.07006827
75	0xbd77e7d9	-0.06052384
76	0xbdaf2102	-0.085512176
77	0xbe0237da	-0.12716618
78	0xbea06bcf	-0.3133225
79	0x3cf02600	0.029314995
80	0xbe171b23	-0.14756446
81	0x3c092bd6	0.008372268
82	0x3e31ae16	0.17351565
83	0x3dfb4e0a	0.12270744
84	0xbe8d7137	-0.2762544
85	0x3da6203f	0.08111619
86	0x3e84ae51	0.25914243
87	0xbdc04dc4	-0.093898326
88	0x3e841167	0.25794527
89	0x3e84b086	0.25915927
90	0xbc041fd6	-0.008064231
91	0x3c8189ab	0.015812716
92	0xbde8d36e	-0.11368452
93	0x3d21586e	0.039390974
94	0x3c918f04	0.01776839
95	0x3e7fa11d	0.24963804
96	0x3d0accf8	0.03388688
97	0xbea4fcaa	-0.32224017
98	0x3e8d34cb	0.2757934
99	0xbe8f9047	-0.28039762
100	0xbe377d50	-0.17918897
101	0x3e3d9a09	0.18515791
102	0xbd2c988a	-0.04213766
103	0x3e429efc	0.1900596
104	0x3d9e82d3	0.077397965
105	0x3e514f3b	0.2044038
106	0xbe56c420	-0.20973253
107	0xbdd50da0	-0.104029894
108	0xbbcfff00	-0.006347537
109	0x3e673123	0.22577338
110	0x3da65b07	0.08122831
111	0x3d24566e	0.04012149
112	0x3dad9aa1	0.08476759
113	0xbcb65b85	-0.022260437
114	0xbe2b623b	-0.1673669
115	0xbc9e79ab	-0.019345125
116	0x3cd80cab	0.026373228
117	0x3e485356	0.1956304
118	0xbd79bfeb	-0.060974043
119	0xbd41e062	-0.04733313
120	0xbe3b659e	-0.18300483
121	0xbdacd07d	-0.084382035
122	0x3e2093d2	0.15681389
123	0xbe8ab132	-0.27088314
124	0xbde67c16	-0.11254136
125	0x3e1278de	0.1430392
126	0xbce7d440	-0.02829945
127	0xbe7cfe36	-0.24706349
128	0x3e2a95bb	0.1665868
129	0x3df060a5	0.117371835
130	0xbd787173	-0.06065507
131	0xbce70f69	-0.02820559
132	0xbe77a103	-0.24182515
133	0x3e8a3aee	0.26998085
134	0x3d8224e0	0.063546896
135	0xbe64e943	-0.22354607
136	0xbe025a98	-0.12729871
137	0x3dda8026	0.106689736
138	0x3d2317a3	0.039817464
139	0x3e7424fd	0.23842235
140	0xbd63e8cc	-0.055641934
141	0xbdef7036	-0.116913244
142	0xbe089ecb	-0.13341825
143	0xbe0384a0	-0.12843561
144	0x3e1a349b	0.1505913
145	0x3df214b0	0.11820352
146	0xbe4f3e2b	-0.20238559
147	0xbde35d51	-0.11101783
148	0xbba43848	-0.005011592
149	0xbc3be15e	-0.011467306
150	0x3e8b84a4	0.27249634
151	0xbe08ab00	-0.13346481
152	0xbe9385bc	-0.2881297
153	0xbc155480	-0.009114385
154	0x3ddc8186	0.10766892
155	0x3e8bac1f	0.27279755
156	0x3e44bfef	0.19213842
157	0x3ea92bd4	0.3304125
158	0xbe9d1aac	-0.30684412
159	0xbe8d9eb2	-0.27660137
160	0x3e714d10	0.23564553
161	0xbe80d874	-0.2516514
162	0xbe28a143	-0.16467766
163	0x3ea160f3	0.3151928
164	0xbd86d9d0	-0.06584513
165	0x3dc0afcf	0.09408533
166	0xbdeb8da5	-0.11501626
167	0x3e6bf2be	0.23041818
168	0xbcb31dfb	-0.021864882
169	0xbda9a336	-0.08283083
170	0xbe36575e	-0.17806765
171	0xbd41a00b	-0.04727177
172	0x3c995d56	0.018721264
173	0x3e2568c8	0.16153252
174	0xbdb0b685	-0.08628563
175	0x3e34412c	0.17602986
176	0xbea171be	-0.3153209
177	0x3e5bfc40	0.21482944
178	0xbe688546	-0.2270709
179	0x3ea19257	0.3155696
180	0x3e3b1720	0.1827054
181	0x3e710086	0.23535356
182	0x3e85b5fc	0.26115406
183	0xbe18b187	-0.14911471
184	0xbe850e4c	-0.2598747
185	0xbe94cef4	-0.29064143
186	0xbc0391d0	-0.00803037
187	0xbea72310	-0.32643938
188	0x3e0cf1d8	0.13764131
189	0xbe0e8330	-0.13917232
190	0x3d029e20	0.03188908
191	0xbe3523b4	-0.17689401
192	0xbe8f2953	-0.27961215
193	0x3e8cdab7	0.27510616
194	0x3e7e3548	0.24825013
195	0x3e0f12bf	0.13971995
196	0x3ded9286	0.11600213
197	0x3ea2538e	0.31704372
198	0x3e69e73b	0.22842114
199	0x3e36cd90	0.17851853
200	0xbe41d97b	-0.18930618
201	0xbe518b0d	-0.204632
202	0xbea21412	-0.31655937
203	0x3e0e57ea	0.13900724
204	0xbd8e1a95	-0.06938664
205	0xbd8ca9c0	-0.06868315
206	0x3d9eac2b	0.07747682
207	0xbe5936b3	-0.21212272
208	0xbdf97440	-0.12180376
209	0x3e91c8af	0.28473422
210	0xbe9b67ca	-0.30352622
211	0x3d3701f0	0.044679582
212	0xbe179a50	-0.1480496
213	0x3c6886ce	0.014192296
214	0x3d9513e0	0.072791815
215	0xbe83e550	-0.2576089
216	0x3b7f1756	0.0038923821
217	0xbea44d38	-0.32090163
218	0xbe8a8ae9	-0.27059105
219	0xbe5377c5	-0.20651157
220	0x3eaaa853	0.33331546
221	0x3e48b2e2	0.19599488
222	0x3e6399f2	0.22226694
223	0xbe456f1b	-0.19280665
224	0x3e8f5b17	0.27999184
225	0x3ddc3810	0.107528806
226	0x3e927182	0.28602225
227	0x3e50b496	0.20381388
228	0xbe854198	-0.26026607
229	0x3e957603	0.29191598
230	0xbd4fd53c	-0.050740466
231	0x3cf007cb	0.029300591
232	0xbe5e6336	-0.21717533
233	0x3e8fc714	0.28081572
234	0xbe737d10	-0.23778176
235	0xbe661960	-0.22470617
236	0xbe9ef677	-0.31047413
237	0x3dca045c	0.09864113
238	0x3c9e2db2	0.019308899
239	0x3e00dded	0.12584658
240	0xbe89b8b3	-0.26898727
241	0xbdd13026	-0.10214262
242	0xbddf6260	-0.109074354
243	0x3dfd65e6	0.12372951
244	0xbe887507	-0.26651785
245	0xbe9def8e	-0.30846828
246	0x3eaa45e2	0.3325644
247	0x3dc6decc	0.09710464
248	0xbcfbdb85	-0.030744324
249	0xbe4d0e8b	-0.20025079
250	0x3ea7b5d3	0.32755908
251	0xbddcae50	-0.10775435
252	0x3dd8a950	0.10579169
253	0x3e50fc43	0.2040873
254	0xbe4bb086	-0.19891557
255	0x3e6b47b8	0.22976577

layer.w3.bias f4 [32]
0	0x3c994484	0.018709429
1	0x3d2708c8	0.04077986
2	0x3e160af3	0.14652614
3	0x3dea5167	0.114413075
4	0x3d47826f	0.048708376
5	0xbe7674c1	-0.24067976
6	0xbe97ec9e	-0.29672712
7	0xbe82045d	-0.25393954
8	0x3e93ad2f	0.28843066
9	0x3e9c5b1e	0.30538267
10	0xbe5fb9a0	-0.21848154
11	0xbe8c874b	-0.2744697
12	0x3d95eb3d	0.07320259
13	0x3e897fe0	0.26855373
14	0xbcbbd066	-0.02292652
15	0xbe8fd06e	-0.28088707
16	0x3e851697	0.25993797
17	0xbd1acf8c	-0.03779559
18	0x3cf8cc9a	0.030371
19	0xbea2049e	-0.31644148
20	0x3e437f6f	0.19091581
21	0xbcb44f67	-0.022010518
22	0x3e882a20	0.2659464
23	0x3e04ecae	0.12980911
24	0x3e312c9c	0.17302173
25	0xbda77f7c	-0.081786126
26	0xbe99d107	-0.30042288
27	0xb9baf110	-0.0003565629
28	0xbbb6c1da	-0.005577308
29	0xbe9204df	-0.2851934
30	0x3da35f36	0.079771444
31	0x3d4b3b7c	0.049617276

layer.w4.weight f4 [32, 9]
0	0xbe09eef6	-0.13470063
1	0x3e1ee226	0.15515956
2	0x3e027148	0.12738526
3	0x3e17fb1b	0.14841883
4	0xbe956eb2	-0.29186016
5	0xbbd2511a	-0.0064183595
6	0x3dfd441b	0.12366506
7	0xbe2d2477	-0.16908441
8	0xbde45bdd	-0.11150334
9	0x3e9a3109	0.30115536
10	0xbe11fcd5	-0.14256604
11	0x3e55f2f3	0.20893459
12	0xbde14c25	-0.110008515
13	0xbe127f91	-0.14306475
14	0x3e9e1114	0.30872405
15	0x3d4c07b3	0.04981203
16	0xbeba180f	-0.3634648
17	0xbdcdaa21	-0.10042215
18	0x3e0cf4a3	0.13765197
19	0x3e8875e2	0.26652437
20	0xbe3e073c	-0.18557447
21	0xbe55f74b	-0.20895116
22	0x3e87d851	0.26532224
23	0x3afd19c7	0.001931005
24	0x3ea77b56	0.32711285
25	0xbe89b7e8	-0.26898122
26	0xbe8a10d9	-0.2696598
27	0x3e8ad58a	0.27116042
28	0x3e175355	0.14777882
29	0xbe909564	-0.28238976
30	0x3e4ecc05	0.20195015
31	0x3dabcfad	0.083892204
32	0xbe655ef6	-0.22399506
33	0xbe7a7f19	-0.24462546
34	0x3e6f09cf	0.23343585
35	0xbe8aec7e	-0.27133554
36	0xbe9b6afd	-0.30355063
37	0x3dba339d	0.09091876
38	0x3ac6294c	0.0015118509
39	0xbe246645	-0.16054638
40	0xbc0a4b19	-0.008440756
41	0x3c42912c	0.011875432
42	0x3c38af67	0.011272288
43	0xbe60ba96	-0.21946177
44	0x3cdc1398	0.026864812
45	0xbe5c6a44	-0.21524912
46	0x3e0cd0ad	0.13751478
47	0x3d443fcc	0.047912404
48	0x3ea060f8	0.3132398
49	0x3d700f97	0.058608618
50	0x3df48278	0.119389474
51	0x3eaa6447	0.3327963
52	0xbe5d8471	-0.21632554
53	0x3e7b2d95	0.24529107
54	0xbe9a469c	-0.30131996
55	0x3eb24560	0.34818554
56	0xbe2eb3cb	-0.17060773
57	0x3e45c92d	0.19315024
58	0x3d907528	0.07053596
59	0x3e751b49	0.2393619
60	0xbddaa972	-0.106768504
61	0x3d018f87	0.03163102
62	0xbe87898c	-0.26472127
63	0x3dd4f945	0.10399107
64	0x3e0cdb8f	0.1375563
65	0xbc89047a	-0.016725767
66	0xbe82660b	-0.25468478
67	0x3de58896	0.11207692
68	0x3d09a524	0.033604756
69	0x3d9e6f31	0.07736052
70	0x3d7bf3d3	0.061511826
71	0xbcd5cc35	-0.02609835
72	0x3de60a1b	0.11232396
73	0x3e042874	0.12906057
74	0xbd2d5e6c	-0.042326376
75	0x3d45feb9	0.048338626
76	0x3d4870a3	0.048935544
77	0x3e802687	0.25029394
78	0xbd92a187	-0.07159715
79	0xbe1fe30e	-0.15613958
80	0x3e2f34c8	0.17109978
81	0x3ead7fdd	0.33886614
82	0x3da168f1	0.07881344
83	0xbcfc6a59	-0.03081243
84	0xbe9b9263	-0.30385122
85	0xbe45998f	-0.19296859
86	0xbe49545e	-0.1966109
87	0x3e5e9aa1	0.21738674
88	0xbea61b28	-0.32442594
89	0x3d8b9762	0.06815983
90	0xbe80a398	-0.25124812
91	0x3e733f7e	0.23754689
92	0x3e8dd89a	0.27704316
93	0x3d9b0e6e	0.075711116
94	0x3cf01d6c	0.029310904
95	0x3d9acf80	0.07559109
96	0x3e15ae6c	0.14617318
97	0x3e421d19	0.18956412
98	0x3e0b3853	0.13595705
99	0xbe03c945	-0.12869747
100	0xbea5adeb	-0.3235925
101	0xbdf07842	-0.11741687
102	0xbe81dcd6	-0.25363797
103	0xbe9f797b	-0.3114737
104	0x3e995b24	0.29952347
105	0x3c9c1067	0.01905079
106	0xbe0ac287	-0.13550769
107	0xbe2f9f62	-0.17150643
108	0xbdda27c3	-0.10652115
109	0xbc049ae5	-0.00809357
110	0xbdfc0dd7	-0.12307327
111	0x3e2fb31b	0.17158167
112	0x3e504465	0.2033859
113	0xbd8e37c5	-0.06944231
114	0xbe57c5e8	-0.21071589
115	0x3ec6ad06	0.3880388
116	0xbeb15c21	-0.346406
117	0xbe193e50	-0.14965177
118	0x3e8fb9ea	0.2807153
119	0x3e9992de	0.29994863
120	0xbda16031	-0.07879675
121	0x3d97cb93	0.074118756
122	0xbe552ecd	-0.20818634
123	0x3d04a1af	0.032380756
124	0x3dd36dcf	0.10323679
125	0xbe4c822b	-0.1997153
126	0x3e097d1d	0.13426633
127	0x3d83e14a	0.06439455
128	0x3e8d9b0d	0.27657357
129	0x3e70de6d	0.23522349
130	0xbd0630b3	-0.032761287
131	0xbe9308b3	-0.28717574
132	0xbb8e2944	-0.0043384153
133	0x3e655441	0.22395422
134	0xbcc9e109	-0.024643438
135	0xbe0458ab	-0.12924449
136	0xbe9af1a0	-0.3026247
137	0xbe239968	-0.15976489
138	0xbdae175f	-0.085005514
139	0xbe8accbf	-0.27109334
140	0xbe067735	-0.13131411
141	0x3e4d2962	0.20035318
142	0x3d69923f	0.057024237
143	0xbec92fba	-0.39294225
144	0x3e96184d	0.29315415
145	0xbdc12d18	-0.09432429
146	0xbd3661d4	-0.04452689
147	0x3e334b2f	0.17509149
148	0xbcaa9041	-0.020820739
149	0xbd169d58	-0.03677115
150	0x3eace036	0.3376481
151	0xbdf673d2	-0.1203381
152	0x3d69318c	0.056932017
153	0xbdca3517	-0.09873407
154	0xbdb237e5	-0.08702067
155	0x3db67fda	0.089111045
156	0xbe050979	-0.12991895
157	0x3e9ff34e	0.31240314
158	0xbe2b52a0	-0.16730738
159	0x3e414bea	0.18876615
160	0x3e5325fd	0.2061996
161	0xbe59f334	-0.21284181
162	0x3e73ccf0	0.23808646
163	0x3e91049c	0.2832383
164	0x3d5e7341	0.054309133
165	0x3e4403db	0.19142096
166	0x3ca80b94	0.020513333
167	0x3eaed0a7	0.34143564
168	0x3da1afbf	0.07894849
169	0xbe2a7822	-0.1664739
170	0xbe3bbf98	-0.18334806
171	0xbe5264b9	-0.20546235
172	0xbe16ae46	-0.14714918
173	0xbe785daa	-0.2425448
174	0xbe0bb931	-0.13644864
175	0xbe916b3d	-0.2840213
176	0xbe810f75	-0.25207105
177	0x3dc3cb9b	0.09560319
178	0x3c426fc4	0.011867467
179	0x3e277c0a	0.16355911
180	0x3e5fe3c3	0.21864228
181	0xbe8c19c4	-0.27363408
182	0xbd00598a	-0.03133539
183	0x3e869b0a	0.2629016
184	0xbe837601	-0.25675967
185	0xbea538bf	-0.32269856
186	0xbe92cc8c	-0.28671682
187	0x3dd876b1	0.105695136
188	0xbe8898a4	-0.26678956
189	0xbc14cbdc	-0.009081807
190	0xbd6665a4	-0.056249276
191	0xbdcac68e	-0.099011526
192	0xbde02906	-0.109453246
193	0xbe50fec1	-0.20409681
194	0x3e775cb4	0.24156457
195	0x3eab91dc	0.3350972
196	0xbe28a25b	-0.16468184
197	0x3ec2058a	0.3789485
198	0xbe231629	-0.15926422
199	0xbe248ab6	-0.16068539
200	0x3d793a4d	0.060846616
201	0xbe0a838c	-0.13526744
202	0xbe018762	-0.126493
203	0x3da1e6f0	0.07905376
204	0xbba19a31	-0.004931711
205	0xbde272d8	-0.11057061
206	0xbdd79166	-0.105257794
207	0xbe79f7ed	-0.24410982
208	0xbdf208ca	-0.11818083
209	0x3e320faa	0.17388788
210	0xbe90c1d3	-0.28272876
211	0xbe227171	-0.15863587
212	0x3e6918e8	0.22763407
213	0xbc7dd4b4	-0.015492607
214	0x3c5cf1ca	0.013485381
215	0xbe2f5ca3	-0.17125182
216	0x3e986745	0.29766288
217	0xbe916e6d	-0.2840456
218	0x3eac2597	0.3362243
219	0xbe406110	-0.18787026
220	0x3e9178e2	0.2841254
221	0xbc46fa27	-0.012144602
222	0xbc8a3217	-0.016869588
223	0xbe10d93c	-0.14145368
224	0xbe757c59	-0.23973216
225	0xbe903c39	-0.28170946
226	0x3e4310b5	0.19049342
227	0xbe5c93ae	-0.2154071
228	0xbe1e85fb	-0.15480797
229	0xbe5078d0	-0.20358586
230	0xbdc11ee5	-0.09429721
231	0xbea1a655	-0.31572214
232	0xbe86f06a	-0.26355296
233	0xbda933db	-0.08261844
234	0x3e280587	0.16408359
235	0xbe2b61ef	-0.16736577
236	0xbe20ba15	-0.15695985
237	0xbe9c1dbc	-0.30491436
238	0xbdcaa768	-0.098952115
239	0xbdfed2ce	-0.124425516
240	0xbe60cb46	-0.21952543
241	0x3e8d2470	0.27566862
242	0x3c09b098	0.00840392
243	0xbe383076	-0.17987236
244	0x3e005430	0.12532115
245	0x3e7624b8	0.24037445
246	0xbdd5d43e	-0.104408726
247	0xbe4194e8	-0.1890446
248	0x3d27fd98	0.04101333
249	0xbcc63a6c	-0.02419778
250	0x3df06509	0.11738021
251	0xbd3ba338	-0.045809954
252	0xbe3318e9	-0.17489971
253	0xbe0f0cd0	-0.13969731
254	0xbe95f23a	-0.29286367
255	0x3c9817cc	0.018566035

layer.w4.bias f4 [32]
0	0x3ea3d357	0.31997177
1	0xbe900fdf	-0.2813711
2	0x3e2d47a2	0.16921857
3	0xbd988f77	-0.07449239
4	0xbdc3ca62	-0.09560086
5	0x3e858b20	0.26082706
6	0xbe4fe1aa	-0.20300928
7	0xbea4990c	-0.32148015
8	0xbe9f24ce	-0.31082767
9	0xbd93701e	-0.07199119
10	0x3e9a280a	0.30108672
11	0x3e8d4fd4	0.27599967
12	0xbea6d221	-0.3258219
13	0x3d41f500	0.04735279
14	0xbe759e41	-0.2398615
15	0x3dc97175	0.09836093
16	0xbe166603	-0.14687352
17	0xbe633d03	-0.22191243
18	0xbd97222e	-0.07379566
19	0xbd712a5e	-0.058878295
20	0xbe588baa	-0.21147028
21	0xbe4bb799	-0.19894256
22	0x3dbf793b	0.09349295
23	0xbe645f34	-0.22301942
24	0xbe082a71	-0.1329744
25	0xbdf887d2	-0.12135281
26	0x3e94900c	0.2901615
27	0x3e10c535	0.14137729
28	0x3e8a2f8f	0.2698941
29	0xbdd7e3c6	-0.10541491
30	0x3e97e081	0.2966347
31	0xbe3a12b2	-0.18171194

layer.w5.weight f4 [32, 1]
0	0x3f292373	0.66069716
1	0x3f39cb73	0.72576064
2	0xbf55f954	-0.8358357
3	0x3e89f8a8	0.26947522
4	0xbe3b48d8	-0.18289506
5	0x3f446a33	0.7672455
6	0xbf822e4b	-1.0170377
7	0x3df8cc58	0.121483505
8	0xbcc14f27	-0.023597313
9	0x3f73d8ee	0.95252883
10	0x3f4444af	0.766673
11	0xbf2cb353	-0.6746113
12	0xbf5ec37c	-0.87017035
13	0xbf0a4fa4	-0.5402777
14	0x3f21b12e	0.6316098
15	0x3ecbe06a	0.39819652
16	0xbf3c68d3	-0.7359745
17	0x3f32148c	0.695626
18	0x3e0ef97f	0.13962363
19	0xbd91df2f	-0.07122647
20	0xbe00d64b	-0.12581746
21	0x3f7973de	0.97442424
22	0x3e92ab89	0.28646496
23	0x3c305832	0.010763215
24	0x3f132296	0.5747465
25	0xbe6078a9	-0.21921028
26	0xbe974978	-0.2954824
27	0x3ecaeaa1	0.39632133
28	0xbed4e531	-0.4158111
29	0x3b6d8b81	0.003624648
30	0xbe8641fd	-0.2622222
31	0xbe2f580d	-0.17123432

layer.w5.bias f4 [32]
0	0x3e3e07fb	0.18557732
1	0xbf7c5931	-0.98573595
2	0xbf0c28fb	-0.5475003
3	0xbf0ed54e	-0.5579423
4	0xbea1a77d	-0.31573096
5	0xbf3a1def	-0.72701925
6	0x3f53fc57	0.82806915
7	0x3f08ad15	0.533891
8	0x3ecc5fb2	0.3991676
9	0xbf5d6ff0	-0.8649893
10	0xbe8c2d28	-0.273782
11	0x3ed84fd5	0.42248407
12	0xbf5bec7e	-0.85907733
13	0x3f574f59	0.8410545
14	0x3ef99e87	0.4875376
15	0x3f67c4be	0.9053458
16	0x3f2f8af6	0.6857141
17	0xbf3265bd	-0.6968649
18	0xbec93d7f	-0.3930473
19	0xbf59ed37	-0.85127586
20	0xbf0abe1c	-0.54196334
21	0xbf77fafe	-0.9686736
22	0x3f08df48	0.534657
23	0xbee7b768	-0.45257115
24	0x3f722599	0.9458862
25	0xbf715530	-0.9427061
26	0x3f1084f7	0.5645289
27	0xbf118514	-0.56843686
28	0x3bb3c16c	0.005485704
29	0xbf280e2e	-0.65646636
30	0xbf3519bd	-0.707424
31	0xbf29ac6e	-0.6627873
