runs/3_agents_50000_steps_mlp/models/actor_mlp.pth (torch, 25312 bytes, 4 tensors)

layers.0.weight f4 [128, 6]
0	0x3ecd861e	0.40141386
1	0xbe2872a8	-0.16449988
2	0xbe566c6d	-0.20939799
3	0x3dacbb56	0.08434169
4	0xbdd79147	-0.10525756
5	0x3ee692ce	0.45033878
6	0x3e965684	0.2936288
7	0xbce0e338	-0.027452096
8	0xbe7a795c	-0.24460357
9	0xbdf22f2a	-0.11825402
10	0x3e8b83e4	0.27249062
11	0x3ed76d39	0.42075518
12	0x3e8533f9	0.26016214
13	0xbcce7744	-0.025203355
14	0x3e6e9723	0.23299842
15	0xbd71ad87	-0.05900338
16	0xbe91ba20	-0.28462315
17	0xbedd7c74	-0.43259013
18	0xbe56241b	-0.2091221
19	0x3e9646aa	0.29350787
20	0xbe7196c9	-0.23592676
21	0x3eb2b2df	0.34902093
22	0x3eef8ff7	0.46789524
23	0xbe56d7d3	-0.20980768
24	0x3e722c6e	0.23649761
25	0xbe3b9452	-0.18318298
26	0x3e2cacd1	0.16862799
27	0xbd9567b6	-0.07295172
28	0xbe892ba6	-0.26791114
29	0xbef8c13e	-0.48584932
30	0x3e6b82ba	0.22999087
31	0xbc1b14cb	-0.009465407
32	0xbbf1682b	-0.007367154
33	0xbea11ee6	-0.31468886
34	0x3e98ad59	0.29819754
35	0x3edf8b36	0.43660897
36	0x3b5186c0	0.0031971186
37	0x3eb3fc86	0.35153598
38	0xbee4c059	-0.44678
39	0x3d4b3579	0.049611542
40	0x3ea9e4e6	0.33182448
41	0x3cfbc31c	0.030732684
42	0x3e883d15	0.26609102
43	0xbe93b52a	-0.28849155
44	0xbdf8779c	-0.12132189
45	0x3e1ae70a	0.15127197
46	0xbd63cf1a	-0.05561743
47	0xbe61323b	-0.21991818
48	0x3e14cba6	0.1453081
49	0xbcfc443a	-0.030794252
50	0xbebae950	-0.36506128
51	0x3ebb5667	0.36589357
52	0xbe718f60	-0.2358985
53	0xbef1d5a3	-0.47233304
54	0xbe28a007	-0.16467296
55	0x3c31f0ac	0.010860603
56	0xbd7c94ae	-0.06166523
57	0x3ec09cac	0.3761953
58	0xbe9c24d2	-0.30496842
59	0x3e256a7c	0.16153902
60	0xbd107935	-0.035271842
61	0xbe518bbf	-0.20463465
62	0x3e5e8db1	0.21733738
63	0x3e8a2df7	0.26988193
64	0xbd2f95f4	-0.042867616
65	0xbcee2806	-0.029071819
66	0x3e046dc1	0.12932493
67	0xbc8ae735	-0.016955951
68	0xbe0cd16a	-0.1375176
69	0x3e9cc1f9	0.3061674
70	0xbdd3b43c	-0.10337111
71	0xbf095e3a	-0.53659403
72	0xbebc78d3	-0.36810932
73	0x3e35a62e	0.17739174
74	0xbe22e096	-0.15905985
75	0xbd48618a	-0.048921145
76	0xbce8c554	-0.028414406
77	0x3ea9a827	0.33136103
78	0xbd77f9ad	-0.060540844
79	0x3ebfc005	0.37451187
80	0x3b354ea9	0.0027665293
81	0x3db57023	0.08859279
82	0x3e6984ac	0.22804517
83	0x3ef5e685	0.48027435
84	0xbdd32dac	-0.103114456
85	0x3e31afe3	0.17352252
86	0xbca6573b	-0.020305267
87	0x3eb76be6	0.35824507
88	0x3eb3c345	0.35109916
89	0x3e93387c	0.28754032
90	0xbdd7d385	-0.10538391
91	0xbebcbd6a	-0.3686326
92	0xbe4cf03f	-0.20013522
93	0xbe1f9fd1	-0.15588309
94	0xbe677bd4	-0.2260583
95	0x3e99ac02	0.30014044
96	0x3df05ba8	0.11736232
97	0x3e147ca4	0.14500672
98	0xbe6d8fab	-0.23199336
99	0xbe8b222a	-0.27174503
100	0x3dc0ad50	0.09408057
101	0xbe549429	-0.20759644
102	0x3e34087f	0.17581366
103	0xbe513549	-0.20430483
104	0xbe006de6	-0.12541923
105	0xbe456dd2	-0.19280174
106	0xbdf0a1aa	-0.11749585
107	0x3eb2f52b	0.34952673
108	0x3e746881	0.2386799
109	0x3e6fdde3	0.23424487
110	0xbe8aa809	-0.27081326
111	0x3d0ff65e	0.035147063
112	0xbd1f68d8	-0.038918346
113	0xbedd7f4e	-0.43261188
114	0xbe20763c	-0.15670103
115	0xbec0be9e	-0.3764543
116	0xbe5b76e1	-0.21432067
117	0x3c4d01e6	0.01251266
118	0x3e92c10e	0.28662914
119	0xbe66b504	-0.2252999
120	0x3dfa6b1d	0.122274615
121	0xbca227e4	-0.019794412
122	0x3ccecef8	0.025245175
123	0x3dcc2710	0.09968388
124	0x3ea83af3	0.32857475
125	0x3e4dff59	0.20116939
126	0xbe9679c3	-0.29389772
127	0xbe7a342d	-0.24433966
128	0xbe95b79a	-0.2924164
129	0x3de570a6	0.112031266
130	0xbea177cb	-0.31536707
131	0x3dc13b00	0.094350815
132	0x3e8e2874	0.27765238
133	0x3ebd0b19	0.3692253
134	0x3e58abf9	0.21159352
135	0xbe9b8aa1	-0.30379203
136	0x3eaf9e16	0.34300297
137	0x3e993539	0.29923418
138	0xbdb22ff6	-0.08700554
139	0x3e15227a	0.14563933
140	0x3e98b716	0.29827183
141	0x3ec7b25f	0.39003274
142	0xbea2ae84	-0.3177377
143	0xbed95ba3	-0.42452726
144	0xbe815676	-0.25261277
145	0xbd39c5d2	-0.04535467
146	0x3e7f13a5	0.24909838
147	0x3c2cd927	0.01054982
148	0xbec387f4	-0.38189662
149	0x3d89204b	0.066956125
150	0x3e7ff922	0.2499738
151	0xbe0999c8	-0.13437569
152	0x3e1fc703	0.1560326
153	0x3d9e6ea0	0.07735944
154	0xbea6af56	-0.32555646
155	0x3ed1d922	0.40985972
156	0xbd101f87	-0.035186317
157	0xbecf1f06	-0.40453357
158	0x3eb990a6	0.3624317
159	0x3d54a972	0.05191941
160	0x3ebaa661	0.36455062
161	0x3e7947cb	0.24343793
162	0xbe8cec2c	-0.27523935
163	0xbeb37d13	-0.35056362
164	0xbe85ba11	-0.2611852
165	0x3cb36d95	0.021902839
166	0xbe0ef8ba	-0.13962069
167	0xbdb83552	-0.08994545
168	0x3e8f596d	0.27997914
169	0x3c00d08c	0.007862221
170	0xbcad5062	-0.021156494
171	0xbe607a77	-0.21921717
172	0x3e9821a1	0.29713157
173	0xbed3f3c2	-0.4139691
174	0x3e2e69c1	0.1703253
175	0xbe82800b	-0.25488314
176	0xbc375106	-0.011188751
177	0x3ed74ebf	0.42052266
178	0x3e6f9f79	0.23400678
179	0x3d4f0242	0.050539263
180	0x3dae3179	0.0850553
181	0xbe75f5df	-0.24019574
182	0x3e18b0bd	0.1491117
183	0xbdc3ca0d	-0.095600225
184	0xbe6bea1a	-0.23038521
185	0x3e3965aa	0.18105188
186	0xbddf30db	-0.1089799
187	0x3d2b0d12	0.04176051
188	0xbdd0dfca	-0.101989344
189	0x3e5fda6f	0.2186067
190	0x3ebe446d	0.3716158
191	0x3df30c76	0.11867611
192	0xbe4cf8e2	-0.20016816
193	0xbecd8720	-0.40142155
194	0x3ec06b8c	0.37582052
195	0x3e8783bc	0.26467693
196	0xbe61645c	-0.2201094
197	0xbdbe2ad8	-0.092855155
198	0x3e93bee8	0.28856587
199	0xbe60658b	-0.21913736
200	0x3bddc968	0.0067683943
201	0xbe43ad33	-0.19109039
202	0xbebd2650	-0.36943293
203	0xbeacf6d5	-0.33782068
204	0xbe54cb95	-0.20780785
205	0x3ea4ae3a	0.32164174
206	0x3ea90df9	0.33018473
207	0xbe9a794c	-0.30170667
208	0x3e0b4f91	0.13604571
209	0xbea5e3f0	-0.32400465
210	0x3e0a3bb0	0.13499331
211	0x3e9678be	0.29388994
212	0xbebd905c	-0.370242
213	0xbedb579b	-0.42840275
214	0x3df03b87	0.11730104
215	0x3e3e7a1a	0.18601266
216	0x3df88e40	0.12136507
217	0x3e9abd0e	0.30222362
218	0x3ed376fb	0.41301712
219	0x3ea05f4e	0.31322712
220	0xbe2f5a47	-0.17124282
221	0xbef883d0	-0.48538065
222	0xbeb82045	-0.3596212
223	0x3ec40e5f	0.38292214
224	0x3ddc94b3	0.107705496
225	0xbeb26335	-0.34841314
226	0xbd46025b	-0.04834209
227	0x3cf4e9e8	0.029896691
228	0xbea9214e	-0.33033222
229	0x3e679aff	0.2261772
230	0x3e9461fa	0.28981
231	0x3dbcf925	0.09227208
232	0x3e99d1a7	0.30042765
233	0x3edef8c3	0.43549165
234	0x3e614a68	0.2200104
235	0xbea46a6b	-0.3211244
236	0xbcf9798e	-0.03045347
237	0x3e2def13	0.16985731
238	0x3ddd17ac	0.10795531
239	0xbde69fea	-0.1126097
240	0xbd9ef6c3	-0.0776191
241	0x3ea698e0	0.3253851
242	0xbe8ce9cb	-0.2752212
243	0xbea642de	-0.3247289
244	0xbc970270	-0.01843378
245	0x3ee39b20	0.44454288
246	0x3e1b83af	0.15186952
247	0x3ead9bae	0.33907837
248	0xbea67639	-0.32512072
249	0x3df80c35	0.12111703
250	0xbdd2457c	-0.10267159
251	0x3e4b10a0	0.1983056
252	0x3def55a3	0.11686256
253	0x3ed17598	0.4091003
254	0x3ea42f4e	0.3206734
255	0x3cab9dcb	0.020949265

layers.0.bias f4 [128]
0	0x3c68a8c2	0.014200391
1	0xbe2e4f53	-0.17022447
2	0x3e81940b	0.2530826
3	0x3d9ea5c7	0.07746463
4	0xbd159d15	-0.03652676
5	0x3ecf76de	0.40520376
6	0xbabe3700	-0.0014512241
7	0xbdbb52c2	-0.09146644
8	0x3d6f726e	0.058458738
9	0x3ea65cc7	0.32492658
10	0x3cbb2bc9	0.022848027
11	0xbe87ff4a	-0.26561958
12	0xbea48b1c	-0.32137382
13	0xbbae624b	-0.005321776
14	0xbe8f93e2	-0.28042513
15	0xbe09aa8d	-0.13443966
16	0x3e37df1d	0.17956205
17	0xbeb1ede7	-0.34751818
18	0x3cd0cafc	0.025487415
19	0x3dba4058	0.09094304
20	0x3e76656c	0.24062127
21	0xbecc30a1	-0.3988085
22	0xbd383fd2	-0.04498274
23	0x3e700f66	0.23443374
24	0xbe00ecac	-0.12590283
25	0x3e2ab2b9	0.1666974
26	0xbeb1fd85	-0.34763733
27	0x3e327d78	0.17430675
28	0xbeaec9e6	-0.3413841
29	0x3ea8bdd7	0.32957336
30	0x3edb0510	0.427773
31	0x3ea14cf2	0.31504017
32	0xbe2a0984	-0.16605192
33	0x3e9cf115	0.3065268
34	0x3edeb2c1	0.43495753
35	0xbda0438d	-0.07825384
36	0x3e090108	0.133793
37	0xbea24cf0	-0.31699324
38	0xbd936c2b	-0.07198366
39	0x3e6cecd7	0.23137222
40	0xbc4c8b38	-0.012484364
41	0xbdb2d7f7	-0.08732598
42	0x3e8ac644	0.2710439
43	0x3ecc4e3b	0.39903435
44	0xbea2d409	-0.31802395
45	0xbe2956e2	-0.1653705
46	0xbe9eaf32	-0.30993038
47	0x3d1d1e2b	0.03835885
48	0x3ec6bce0	0.38815975
49	0xbddf3ab3	-0.10899868
50	0xbe3a46bb	-0.18191044
51	0x3e6f1b79	0.23350324
52	0x3e3364f5	0.17518981
53	0x39ecf10b	0.0004519302
54	0xbe846bde	-0.25863546
55	0x3e270195	0.16309197
56	0x3e5b9322	0.21442845
57	0xbecbb6dc	-0.39787948
58	0x3e2fd719	0.17171897
59	0xbe33fcf5	-0.17576964
60	0x3d2ea41d	0.04263698
61	0xbdd703cd	-0.10498772
62	0x3d717fb1	0.058959667
63	0xbe50d394	-0.2039321
64	0x3dcbada7	0.09945231
65	0x3d448c76	0.047985516
66	0xbeacfd77	-0.33787128
67	0x3eddb976	0.43305558
68	0x3e12b3b0	0.14326358
69	0x3e4119c6	0.18857488
70	0xbe55d167	-0.20880662
71	0x3c8fa1e5	0.017533252
72	0x3e0e00ff	0.13867567
73	0x3dea1c5b	0.114311896
74	0x3ecb32fd	0.39687338
75	0x3e3110bd	0.17291541
76	0x3e16b1dd	0.14716287
77	0xbe3cf3bc	-0.18452352
78	0x3ec5a1e4	0.38600075
79	0xbe875c15	-0.2643744
80	0xbe7d4b98	-0.24735868
81	0xbddbf07c	-0.10739228
82	0x3ec7b65d	0.3900632
83	0x3e1c0db3	0.15239601
84	0x3e997590	0.29972506
85	0x3e134ce5	0.14384802
86	0xbebf3ccd	-0.37351075
87	0xbeadc4ae	-0.33939117
88	0xbdfc288d	-0.12312422
89	0xbdd3f6bb	-0.103497945
90	0x3e71a6dd	0.2359881
91	0x3e6f6ea2	0.23382047
92	0xbe295041	-0.1653452
93	0xbdbfb977	-0.093615465
94	0x3c57835a	0.013153875
95	0x3d085743	0.033286344
96	0xbdd8c457	-0.10584324
97	0xbe3e2c55	-0.18571599
98	0xbd3dfb6f	-0.046382364
99	0x3e46b58d	0.19405194
100	0x3e9860fa	0.29761487
101	0xbe488586	-0.19582185
102	0xbe7d22bc	-0.24720281
103	0x3e846828	0.25860715
104	0x3e973643	0.29533586
105	0xbe948767	-0.29009554
106	0x3ec1419d	0.3774537
107	0xbd1ae35d	-0.037814487
108	0x3dfe8de2	0.12429406
109	0xbd30b9c0	-0.043145895
110	0xbe6b7567	-0.22994004
111	0x3ee23132	0.44178158
112	0xbe82a5d5	-0.25517145
113	0xbe3ba09e	-0.1832299
114	0xbded8968	-0.11598474
115	0xbeadf76c	-0.3397783
116	0x3eeede3e	0.46653932
117	0x3a822aa6	0.0009930923
118	0xbdb52cac	-0.08846411
119	0x3ec85ab9	0.39131716
120	0x3db44791	0.08802713
121	0xbdf6d023	-0.12051418
122	0xbe8aceda	-0.2711094
123	0x3ea4f9b3	0.32221755
124	0xbe7fd389	-0.24983038
125	0xbeb36af4	-0.35042536
126	0x3d890128	0.06689674
127	0x3e125bcd	0.14292832

layers.2.weight f4 [38, 128]
0	0xbd573c65	-0.05254783
1	0x3df2145d	0.1182029
2	0xbdc9daa4	-0.098561555
3	0xbd0d2294	-0.034456804
4	0xbda5169d	-0.08060954
5	0xbcd9f8e0	-0.02660793
6	0x3dd9b2ea	0.10629828
7	0x3d9de61b	0.07709905
8	0xbdc145bc	-0.09437129
9	0x3d474fa3	0.048659932
10	0xbd1d2bec	-0.038371965
11	0xbe05e476	-0.13075432
12	0xbd8ca07f	-0.0686655
13	0x3da79fdd	0.081847884
14	0xbbf3ef0b	-0.0074442676
15	0x3db1af04	0.0867596
16	0xbccec07c	-0.025238268
17	0x3cd83d0b	0.026396295
18	0xbd1e8c91	-0.038708273
19	0xbbcd9fec	-0.0062751677
20	0x3d72a900	0.059243202
21	0x3db3c090	0.08776963
22	0xbc83b501	-0.01607752
23	0xbd3e2c8a	-0.046429195
24	0x3b04f02b	0.0020284753
25	0xbd806e13	-0.06270995
26	0x3db70b64	0.089377195
27	0xbd320976	-0.043466054
28	0xbd675324	-0.056475773
29	0x3dd3b940	0.10338068
30	0x3daf39b1	0.08555926
31	0x3df679b9	0.120349355
32	0x3d11211d	0.03543197
33	0xbd2648ae	-0.040596657
34	0xbd604759	-0.054755542
35	0x3da40b31	0.08009947
36	0xbda41e06	-0.08013539
37	0xbc84d83b	-0.016216388
38	0xbcad4fd1	-0.021156223
39	0x3c3c6fcb	0.011501263
40	0xbd0f5c67	-0.03500023
41	0x3cce42c3	0.025178319
42	0x3d6e5367	0.058185007
43	0xbcc32214	-0.02381996
44	0xbd4e2053	-0.050323796
45	0x3da8558f	0.08219444
46	0xbda6009f	-0.08105587
47	0xbdb27277	-0.08713239
48	0x3dca339c	0.09873125
49	0xbc86b1a3	-0.016442126
50	0xbdc5bdd2	-0.09655346
51	0x3d772fdb	0.060348373
52	0x3dac50f6	0.084138796
53	0x3db05b36	0.08611147
54	0x3d400e06	0.046888374
55	0x3d484108	0.048890144
56	0x3d19b3df	0.037525054
57	0x3d8d2800	0.06892395
58	0xbd533925	-0.05156817
59	0x3d5c0e09	0.053724322
60	0x3d5caf62	0.053878196
61	0xbd37a87f	-0.044838425
62	0xbda3dc8a	-0.08001049
63	0xbd49bde9	-0.049253378
64	0xbae346ea	-0.001733986
65	0xbc9a963f	-0.018870471
66	0xbb679ccb	-0.0035341259
67	0x3c3650d6	0.011127671
68	0xbd289f0c	-0.041167304
69	0x3cd52092	0.026016507
70	0xbdb42919	-0.08796901
71	0x3d2a7b66	0.04162159
72	0x3b81c7fd	0.003960608
73	0x3d4d0e55	0.050062496
74	0xbc1761bd	-0.009239611
75	0xbd0c2553	-0.034215283
76	0xbc468ffa	-0.012119288
77	0x3d51c6e9	0.051215086
78	0xbd739c7f	-0.05947542
79	0xbd917204	-0.07101825
80	0xbba23dd1	-0.0049512167
81	0xbbf73d4b	-0.0075451485
82	0xbd9bf258	-0.07614583
83	0xbcd1a0fd	-0.02558946
84	0xbd90c807	-0.07069402
85	0x3d205f24	0.039153233
86	0x3c53125c	0.012882795
87	0xbd88bc5d	-0.066765524
88	0xbd21a1ad	-0.039460827
89	0x3daa3adc	0.08312008
90	0x3cd5b5fb	0.026087752
91	0xbd667a4a	-0.056268968
92	0x3cbe7675	0.023249844
93	0xbcef6629	-0.029223518
94	0xbd9e0723	-0.07716205
95	0x3d8bf9c9	0.06834752
96	0x3d293c0b	0.041317027
97	0x3d8f7d5a	0.07006331
98	0xbd96fa47	-0.07371955
99	0xbd9d7b57	-0.07689541
100	0xbd9199b1	-0.071093924
101	0x3bb9dc1b	0.0056719906
102	0xbb9d72f1	-0.004804962
103	0x3cc694b8	0.024240837
104	0x3dc46927	0.09590369
105	0xbd021f76	-0.031768285
106	0xbcbff6a6	-0.02343304
107	0xbc3843bc	-0.011246618
108	0x3d630fb3	0.055434894
109	0xbca66812	-0.020313296
110	0x3dab897e	0.08375834
111	0x3c8e67f5	0.017383555
112	0x3da5d090	0.08096421
113	0x3c032a7e	0.008005736
114	0x3d8c9ea2	0.06866194
115	0xbdc64014	-0.09680191
116	0x3cceede8	0.025259927
117	0xbd14f968	-0.036370665
118	0x3dd0694e	0.10176335
119	0x3d767772	0.060172506
120	0xbd8fbdd4	-0.07018629
121	0xbce96edb	-0.028495243
122	0xbc5dc103	-0.013534787
123	0xbd785343	-0.06062628
124	0xbd64a3b5	-0.055820186
125	0xbdb0c8d4	-0.08632055
126	0x3d887646	0.06663184
127	0xbdacbb07	-0.0843411
128	0xbd00e88d	-0.031471778
129	0xbda6eed0	-0.081510186
130	0x3c8d5b1a	0.017255355
131	0xbe0a29d9	-0.13492526
132	0x3c8fb413	0.01754192
133	0x3cd00cf7	0.025396807
134	0xbdc8ea95	-0.09810368
135	0xbd6a780d	-0.057243396
136	0xbda01b82	-0.07817747
137	0x3a2f3f49	0.00066851504
138	0xbd63f17d	-0.055650223
139	0xbdbc99af	-0.09209
140	0xbd0669e4	-0.03281583
141	0x3ccaf7ed	0.024776423
142	0xbbca49b7	-0.0061733383
143	0x3d8f190d	0.069872
144	0x3bd80834	0.0065927748
145	0x3d30acf7	0.043133702
146	0xbdba514e	-0.09097539
147	0x3a541cd6	0.0008091455
148	0xbc2124f8	-0.009835474
149	0x3cd3fa89	0.0258763
150	0xbd63d709	-0.055624995
151	0x3d0aa7b4	0.03385134
152	0x3c6e4a4a	0.014544079
153	0x3d67631b	0.056491
154	0xbd56b448	-0.052418023
155	0xbbf34251	-0.007423677
156	0xbcf141da	-0.029450346
157	0xbc368ac0	-0.011141479
158	0x3da3fc51	0.0800711
159	0xbcf472f5	-0.029839972
160	0x3c8c45ff	0.01712322
161	0xbd2ddf8e	-0.042449526
162	0xbd187836	-0.037224017
163	0x3d581ec6	0.052763723
164	0x3d508756	0.050910316
165	0xbc319ddb	-0.010840858
166	0x3c96889f	0.018375693
167	0xbdef2225	-0.116764344
168	0x3ca81bb2	0.020521019
169	0x3d60bfb1	0.05487031
170	0xbddf986d	-0.10917745
171	0xbd99a43a	-0.07502027
172	0xbca4c37a	-0.020112742
173	0x3c5db23c	0.013531264
174	0xbd853f70	-0.0650624
175	0x3da33385	0.07968811
176	0x3db315a6	0.087443635
177	0xbca2dc0d	-0.019880319
178	0x3db4876a	0.08814891
179	0xbda2ff5e	-0.07958864
180	0xbceca28b	-0.0288861
181	0xbd2e3e42	-0.042539842
182	0x3deb6ddf	0.114955656
183	0xbd971c16	-0.07378404
184	0xbda462a9	-0.080266304
185	0x3d777f27	0.060423996
186	0xbd689f34	-0.056792453
187	0x3d17eb22	0.037089474
188	0xbd8814fb	-0.06644627
189	0xbd6affcf	-0.057372864
190	0xbb6f18e4	-0.0036483342
191	0x3d242729	0.04007641
192	0xbdd9972c	-0.10624537
193	0xbb80670b	-0.0039185337
194	0x3c4b73ac	0.012417715
195	0x3d42da7e	0.04757165
196	0xbd8f8430	-0.07007635
197	0x3cf59bab	0.029981455
198	0x3d048103	0.032349598
199	0x3cfedb35	0.031110385
200	0x3d65aad5	0.05607112
201	0xbc8de28c	-0.01731994
202	0xbd191bc7	-0.037380006
203	0xbda3782f	-0.079819076
204	0xbd599a8d	-0.053125907
205	0xbdd97794	-0.10618511
206	0xbc4d6bdb	-0.012537922
207	0x3d355fb9	0.04428074
208	0x3db19b05	0.08672146
209	0xbd84bb1d	-0.064810015
210	0xbb7f6d09	-0.0038974902
211	0xbd214064	-0.03936805
212	0xbd66cf9a	-0.056350328
213	0xbd629f03	-0.055327427
214	0x3d909e3d	0.070614316
215	0xbd09eb8b	-0.033671897
216	0x3d906b87	0.07051759
217	0xbde30d8e	-0.1108657
218	0x3d279e8b	0.040922683
219	0xbd19523a	-0.037431933
220	0x3dc18fea	0.094512776
221	0x3d36ea36	0.044656955
222	0x3ca0dff4	0.01963804
223	0xbe06c571	-0.13161255
224	0xbd8983e9	-0.06714613
225	0xbd4e3fe6	-0.050353907
226	0x3c74194b	0.014898608
227	0xbd87a275	-0.06622783
228	0x3d2a7408	0.041614562
229	0xbda89a23	-0.08232524
230	0xbd17eb7e	-0.037089817
231	0xbdc652cd	-0.09683762
232	0x3d96f95f	0.073717825
233	0xbd929af4	-0.07158461
234	0xbe075d0a	-0.13219085
235	0x3de93f29	0.11389
236	0x3d54e20d	0.05197339
237	0xbcb49f08	-0.022048488
238	0x3c77efb8	0.015132837
239	0xbd17b86e	-0.03704112
240	0xbd7d71c4	-0.061876073
241	0x3c301def	0.010749324
242	0xbd14263f	-0.036169287
243	0x3e1ad1fe	0.15119168
244	0x3c96ad31	0.018393131
245	0xbc9f644b	-0.019457003
246	0xbdc0f8d8	-0.09422463
247	0xbdc74a60	-0.09730983
248	0xbca01f4e	-0.019546177
249	0xbc03ee70	-0.008052453
250	0x3c8e243a	0.017351259
251	0xbdabebfe	-0.08394621
252	0xbdb56642	-0.08857395
253	0xbcbd10af	-0.023079244
254	0x3bb1ae63	0.0054224
255	0x3d6ca09e	0.057770364

layers.2.bias f4 [38]
0	0x3d5154df	0.05110633
1	0x3d1a0683	0.037603866
2	0x3d17dba9	0.03707472
3	0xbda9a994	-0.082842976
4	0x3d840a95	0.06447331
5	0xbde1481c	-0.11000082
6	0xbda03458	-0.07822484
7	0xbc746444	-0.014916483
8	0x3d07f5f8	0.03319356
9	0x3c4a15d2	0.012334304
10	0x3dd09243	0.10184147
11	0xbddc763a	-0.107647374
12	0x3d11fc97	0.03564128
13	0xbcdcb944	-0.02694381
14	0x3c3ce58a	0.011529336
15	0xbd881c30	-0.06646001
16	0xbdfe0918	-0.12404078
17	0x3d918b7b	0.07106682
18	0x3d9b540b	0.07584389
19	0x3d02f001	0.031967167
20	0xbc06943d	-0.008214054
21	0x3da0b8e4	0.07847765
22	0xbd196fd9	-0.03746018
23	0x3d705f0d	0.058684397
24	0x3d7b31d2	0.06132681
25	0xbd7e907f	-0.06214952
26	0x3d8133dd	0.0630872
27	0x3ce22289	0.027604358
28	0x3d79d0e7	0.06099024
29	0xbce6b767	-0.028163625
30	0x3d0aa16c	0.03384535
31	0xbd518c51	-0.051159207
32	0x3da31fd3	0.07965054
33	0x3ac9515d	0.0015359331
34	0x3c24c4ce	0.0100566875
35	0x3cdf3e31	0.027251335
36	0x3d90a5e5	0.07062892
37	0xbdd43844	-0.10362294
