runs/3_agents_50000_steps_mlp/models/actor.pth (torch, 26432 bytes, 4 tensors)

fc1.weight f4 [128, 38]
00000000: a1e5 b5bd be00 c9bd c81b c7bd 1f88 e23d
00000010: b14a d2bd 4b3a 2dbe ed5e eeba 11c9 093e
00000020: bd0c 0abe dca1 333e f509 1f3e f5ac 983d
00000030: f8b7 0bbe 28a4 843d ce65 97bd 761a f63d
00000040: 71b5 0fbd ff3d 38bd c008 443d f977 8abd
00000050: e32a 693d 5a5a 0c3e 5515 cebd 7f06 fc3d
00000060: 7805 30be c268 aabc 365b 19be a23f 38be
00000070: 5ad0 253e 5bbb 9d3d cca2 d0bd 5bae 843d
00000080: 4bf7 cabb 751d 963d 07fc afbd 9512 a53d
00000090: 9692 de3d 6b8f 7c3d eeb6 42be 6242 ea3d
000000a0: d54f dcbd f8f9 aebd 9bf1 29bd 46a1 213d
000000b0: 9c8f 3c3e 95a0 ee3c 3f38 f83d b6fd d0bd
000000c0: d0eb 6f3d 7a40 a2bd d7e1 593d c352 4cbd
000000d0: 5c8d 163d 60f9 d43d 4746 0f3e f488 253e
000000e0: 94a9 63be 9c56 b3bd 43b9 d7bc d133 8ebb
000000f0: 875f 88bd 2379 bb3d 61e8 1f3d fa2f 0dbe
00000100: 789f 0e3c 6393 5a3e 3573 a63d cc45 f03d
00000110: 3026 353d 35fd e53b aae9 14be 6662 14be
00000120: 0691 903d 1e97 ed3c b2a1 0f3e 1003 29bc
00000130: 1b19 57bd 2ea2 c93d abf9 1a3e 3b67 d33d
00000140: a2b3 b9bd ad39 ac3d 9a5a 143e 579b 413e
00000150: e546 f33d 3ffe a63d 4982 efbc 47e6 82bd
00000160: 0e9d 83bc dee4 e0bd f5ea cabc b25f 9d3d
00000170: fbd5 1abe abc7 0c3e 8ad8 0bbe 9f44 b03d
00000180: 0830 33be 10ee 1ebd 8781 d6bc 61c6 cdbb
00000190: 11e8 a03d 6892 1bbe c156 f4bc 361a f3bc
000001a0: fa47 acbd a29f 5a3d 8b73 b4bd 4a6c 023c
000001b0: 40c7 16be 32e4 aabd d985 273e 74e9 983c
000001c0: 2dbf 02bd 5fd1 123e 6873 9f3d a44f 14be
000001d0: ccb2 aa3c eac5 9ebd c448 edbd 4582 423d
000001e0: c955 273c b9df 0e3e 9e3c 24be 31ac 743d
000001f0: c734 313d 8073 8fbd d4ec 2e3e b72b a73d
00000200: e834 fb3c d705 dd3d 71f8 143d 82c7 d03d
00000210: 4575 ba3d 02db 93bd 35fe 42bd c3c1 88bd
00000220: 03d9 28be 7421 1dbe f53d 38bd 67bf 0a3e
00000230: fccb 92bc a932 423e 7aca 20bd 153c a13d
00000240: ed8a f9bd 2fe5 a1bd d94b 253e c411 69be
00000250: 6f4d e33c 296b 5d3d aaae 863d 6614 81bd
00000260: 15b4 37bd e184 103e 46ea 98ba 7cf6 0cbe
00000270: 3312 21bb 8678 54bd d94f 623e 1d2a 9b3d
00000280: a478 993d cb61 f83d dbda f2bd 21d8 8f3d
00000290: 1ffd 103e e0f5 d03c 5c1f 10be b0d3 4d3e
000002a0: 560a 0f3e 0c43 8d3d f1a7 31bc d0e2 44bd
000002b0: 68fb a03d 3430 3f3e 7ade ec3b f403 3f3e
000002c0: 15ca c1bd e3da 1a3e c4b2 153e b431 16bc
000002d0: 0368 463d bb4d 88bc 5447 b23d 16d6 61be
000002e0: 06f0 923d 6dbc 1fbe 7018 1c3e 0f52 283e
000002f0: e657 5abd 60e6 af3d 0b8f 84bd 389f 2b3e
00000300: f98c cbbd 6ba8 efbc c12b b4bd c356 f43c
00000310: 59d0 debc ed23 debd 64b6 6e3d 72c2 8f3c
00000320: 59cc 3c3e c1aa 05be 8794 753d 7356 2f3e
00000330: d02c c43d 863c a23d 993a 0abd e7e2 763d
00000340: c305 14bd 48cf 883d 1fc0 e4bd 7ac7 1d3e
00000350: a723 20be 57e6 eebd 95c8 f9bc 1ea7 1a3e
00000360: 108d 10be 113d d43d b599 c9bd 3adb 36be
00000370: 0d20 983d 73ab 223e 4062 013e 5e37 383e
00000380: 100d 1ebe 07f9 97bd 5681 fa3d 27d5 67bd
00000390: 2397 ae3d 8468 183e 6de0 ff3d ecbf 863d
000003a0: 7660 2d3a 4e14 46bd 3ea4 b03d dc8f 0f3d
000003b0: 0624 7c3d 23a2 0f3d 6b51 1ebd 0a19 d5bc
000003c0: 84f3 67be bcbf bc3d a073 5c3c 2722 07be
000003d0: 1fc2 a93d a828 693d df77 8a3b 7f3a c53d
000003e0: af43 8b3d 1165 c93c 15d7 20be e6e6 743c
000003f0: a296 15be a0c6 02bd a5cf 8c3c 501a 5ebe
-0.08881689 -0.09814595 -0.09722096 0.11061119 -0.102681525 -0.16916768 -0.0018186249 0.13455607
-0.13481422 0.17542213 0.15531142 0.07454864 -0.13644397 0.06476623 -0.073924646 0.12016766
-0.035085145 -0.044981 0.047859907 -0.06761164 0.056925666 0.13706341 -0.100626625 0.123059265
-0.17189586 -0.020801906 -0.149762 -0.17993024 0.16192761 0.07701751 -0.10187301 0.06478568
-0.0061940304 0.07329837 -0.08592992 0.08060185 0.10867803 0.06166021 -0.19015095 0.11438443
-0.10757414 -0.085437715 -0.04149018 0.039460443 0.18414158 0.029129306 0.12120103 -0.102046415
0.058574498 -0.07922454 0.053193893 -0.049883615 0.036755905 0.10399127 0.13991652 0.16165525
-0.22232658 -0.08756754 -0.026333457 -0.004339673 -0.066588454 0.09153964 0.039039973 -0.13787833
0.0087050125 0.21345286 0.08127443 0.11732063 0.04422587 0.00701871 -0.14542261 -0.14490661
0.07058911 0.029002722 0.14026526 -0.010315672 -0.052514177 0.098453864 0.15134303 0.10322424
-0.09067465 0.08409438 0.14487687 0.18906914 0.118787564 0.08153962 -0.02923693 -0.06391578
-0.0160661 -0.10981153 -0.02477024 0.07684268 -0.1512069 0.13748042 -0.13656822 0.086068384
-0.17498791 -0.038801253 -0.02618481 -0.006279752 0.07856763 -0.15192568 -0.029826524 -0.029675584
-0.08412166 0.053374894 -0.088111006 0.007960388 -0.14724445 -0.08344306 0.16359653 0.018666007
-0.0319206 0.14337681 0.07785684 -0.14483505 0.02083721 -0.07752593 -0.115861446 0.047487516
0.010213324 0.13952531 -0.16038749 0.059734527 0.043263223 -0.07004452 0.1708253 0.08162635
0.030664876 0.107921295 0.036369745 0.10194303 0.09104399 -0.07219507 -0.047605712 -0.06677582
-0.16489033 -0.15344793 -0.04498096 0.13549577 -0.017919533 0.18964638 -0.039255597 0.07872788
-0.12184701 -0.079050414 0.16142215 -0.22760683 0.027746884 0.054057274 0.06576283 -0.06302719
-0.044849474 0.1411319 -0.0011666499 -0.13765901 -0.0024577498 -0.051872753 0.22100772 0.07576392
0.074937135 0.121280275 -0.118581496 0.07023645 0.14159058 0.025507867 -0.14074463 0.20100284
0.13968787 0.06897554 -0.010843263 -0.048067868 0.07860452 0.18670732 0.0072286697 0.18653852
-0.09462372 0.15122561 0.14618975 -0.009167124 0.048439037 -0.016638627 0.08705011 -0.22054324
0.07174687 -0.15599222 0.15243697 0.16437553 -0.053306483 0.085888624 -0.06472596 0.16759956
-0.09938998 -0.029255113 -0.08797408 0.029826527 -0.027198957 -0.10846696 0.05827941 0.017548773
0.18437327 -0.13053419 0.0599561 0.17122822 0.0957886 0.079217 -0.03374729 0.060274985
-0.036138307 0.06680161 -0.11169457 0.15408126 -0.156386 -0.116650276 -0.030491153 0.15102813
-0.14116311 0.1036321 -0.098437704 -0.17857066 0.07427988 0.15885715 0.12635136 0.17989871
-0.1543467 -0.07420545 0.122317 -0.056599762 0.08524921 0.1488362 0.12493978 0.06579575
0.00066138 -0.048359208 0.08625077 0.035049304 0.061557792 0.035066735 -0.038651865 -0.026012916
-0.22651488 0.09216258 0.0134553015 -0.13196622 0.08288979 0.05692354 0.0042257155 0.09630298
0.06800019 0.024584325 -0.15707047 0.014947629 -0.14608243 -0.031927705 0.017188856 -0.21689725

fc1.bias f4 [128]
00000000: c83d d03d 5404 233e 80a4 0c3e 716a 2abc
00000010: 545f b83b b456 783d 55ad 023e dfc5 87bd
00000020: bef5 d63d c770 08be 3297 1a3d 9425 073e
00000030: 7643 063b 7955 4d3c 90f4 163e 82b3 84bd
00000040: 2fb5 023d d7bf 073e 459c 073e 5d91 5c3e
00000050: 5340 d1bd 51d9 8b3d 436f 873c 64f5 163e
00000060: 5437 353e 8580 2cbd e7b7 2c3d 9b01 fbbd
00000070: 8552 a13d 339d 80bd 4ea8 43bd 9f81 31bd
00000080: c20c 963d 5120 adbd d96a 16bd 41fc 913d
00000090: 5e72 cc3d d5ba f0bd e70b fdbd 438d 7bbd
000000a0: 3d9d 0fbe 9c6a 563d 06d0 c9bd 340e f03d
000000b0: 25e1 d03d ef83 f8bd 070e 83bd 8848 373e
000000c0: fced 13bd 6227 d53c 9f27 f4bd 4227 fc3c
000000d0: ed4c 8ebc 1735 8e3d 74fe 073e 2ac4 483c
000000e0: cecf ff3d ec91 c53d 2f31 3c3d f1cb 873d
000000f0: e776 e9bc f4b9 fdbd a7fe 133e c1ce 013e
00000100: 9c37 e33d bb29 ccbd 8286 d33d fbbb 083e
00000110: b79f 703d 4eed 1fbe 9eab 17be 8dcc f9bc
00000120: bd3b ba3d 2bb4 cabb d488 283e a88f e8bd
00000130: d04b 103e 57f5 113e 1a2f 3c3e ea6a cf3d
00000140: 0bf8 e3bd e41b 57bc c400 003e eec3 083e
00000150: 44de be3d f2f6 53bb b6ee 04bc 5a4e fc3d
00000160: 5a18 ffbd a8c7 d2bd 32db de3d 3753 38bd
00000170: 8ea0 ce3d dc86 08bd 1de3 18be d1ac 2abc
00000180: 1a6a 36bd d31d dc3d b28c 2f3e 2839 203e
00000190: 06a5 75bd a87a af3c 1d5f b4bd 1df0 62bd
000001a0: 235d 63bc 6533 113e 11d7 19be c34c 9fbd
000001b0: f2d8 df3d c9bc 863d 3f34 2bbc c3fc 09be
000001c0: 94a6 393e 5a6b cb3d d791 463e bae5 ccbd
000001d0: 921f e53d ae5b 423e 3639 e73d b5bf 1a3e
000001e0: d9d1 cd3d 0366 afbd c24a 1f3e 7f5d bc3c
000001f0: 4c17 033e 0cb8 fbbd 05c2 f2bc c921 a93d
0.10168034 0.1591962 0.13734627 -0.010401354 0.0056265984 0.06062956 0.12761433 -0.06629538
0.1049609 -0.13324271 0.037741847 0.13197929 0.0020486987 0.012532585 0.1474173 -0.06479551
0.03191107 0.13256775 0.13243206 0.21539827 -0.10217347 0.06828559 0.016532546 0.14742047
0.17696887 -0.042114753 0.04216757 -0.122561656 0.078770675 -0.06279983 -0.04776793 -0.043336507
0.07326652 -0.084534295 -0.03672299 0.07128192 0.09982751 -0.117543854 -0.12355786 -0.061414015
-0.14024825 0.052347764 -0.098541304 0.11721459 0.10199193 -0.12134539 -0.0639916 0.17898762
-0.03611563 0.026019756 -0.119216196 0.030780438 -0.017370665 0.0694372 0.1328066 0.0122538
0.124908075 0.09646973 0.045945343 0.066306956 -0.02849908 -0.12388983 0.14452611 0.12676527
0.11094591 -0.09968897 0.1032839 0.13352959 0.058746066 -0.15617868 -0.1481156 -0.030493045
0.090934254 -0.0061860285 0.16458446 -0.11355525 0.1409142 0.14253746 0.18377343 0.10127814
-0.11131295 -0.013129208 0.12500292 0.13355991 0.093197376 -0.0032343236 -0.008113554 0.12319632
-0.124558166 -0.10291988 0.10881652 -0.045001235 0.10089217 -0.033331737 -0.14930387 -0.010417179
-0.04453478 0.10747876 0.17143515 0.15646803 -0.05997183 0.021420792 -0.08807204 -0.05540477
-0.013877186 0.14179762 -0.15023448 -0.07778313 0.10930051 0.06578977 -0.010449468 -0.13475327
0.18129951 0.09932585 0.19391571 -0.10004754 0.11187662 0.18980286 0.11290209 0.15112193
0.10049791 -0.08564379 0.15555862 0.022993801 0.12801856 -0.122909635 -0.029633531 0.08258397

fc2.weight f4 [9, 128]
00000000: b2e1 35bd 877b a53d 312b 6d3d b688 b7bc
00000010: a850 dd3d 44f8 893c d4f7 60bd 1992 4f3d
00000020: 1632 663d ec0f 7e3b eec0 703d 2578 e43c
00000030: 8fe4 c0bd 8614 8dbd 7125 033e b5d8 bdbd
00000040: 42be 853d 664f 413d ee19 4dbd 8739 d1bd
00000050: c208 d53c 54fe bdbc ece5 11bc 1776 57bd
00000060: edcd 8cbd f1f5 03bd cacc a33a 3739 cd3d
00000070: 393f 563d 38e0 293c 6011 a0bc 7e6c 353d
00000080: 9dbe 0bbd f5a0 953d 1a65 0bbb e72d a53d
00000090: 39f7 17be bc14 e3bd 54fb 8d3d 633e d33c
000000a0: f28f a0bb e7a2 80bd 68c9 543b dbf0 fa3b
000000b0: f55a 3ebe fc36 10bd 94c2 ecbd a31c 20be
000000c0: e6a3 43bd 1f4f 813d e481 bfbc 9793 3ebd
000000d0: d404 f2bd 7bc6 843c abd9 053d 45e2 503d
000000e0: 5187 c23c 77a5 953d 4950 533d ef54 fcbc
000000f0: d8e7 b2bd 455e a0bd 3148 d3bc 039c ccbd
00000100: c640 2abe b16c 023d 2b3f f4bb 64ab 9c3d
00000110: 7324 32be 45f0 813d b094 94bd 8232 d03c
00000120: 84a5 ab3d 3283 6abd 1316 e4bd e6a7 a0bc
00000130: 94d1 b33d 1d76 6fbc 2c1a 2fbd 3551 16bd
00000140: bdf5 9fbd c6e3 c63d caad 163e 8639 c7ba
00000150: 66ab df3c 8619 69bc 3b0e 1ebd f18d bf3d
00000160: 24a3 53bc 2864 b6bc 37cc 6a3d 76d4 973c
00000170: 4e50 263a 2560 9abc 99d5 f13d c738 e4bb
00000180: 1366 a73c 9952 4c3d f51c a7bd 9e41 103e
00000190: f216 32be f54f 9f3d 7397 a13d b552 b13d
000001a0: 6a8a a4bd c909 43bc b92b 8b3d 96bd abbd
000001b0: 9b1d e73d 6027 95bd 4dbc fc3d d7ae 97bd
000001c0: 6e5a d0ba 07ef fbbd 8b1b 8abd 4c80 1dbc
000001d0: 5476 b53d 4216 aabd feb7 0a3e 9816 e8bd
000001e0: 2750 cbbd ee15 8abd dc4c 563d 99aa 7cbd
000001f0: f365 70bc 4c9a 283d 34a4 2ebe f5c5 f5bc
00000200: 9795 4c3d e8fd 803d e325 a23d d184 22bd
00000210: e7bf c4ba bb76 50bd 0933 693d 223a 9f3d
00000220: 9a42 a33c 6476 8abd a437 c7bd 09c6 eabb
00000230: 8642 cfbc 572a 843c e6cc 493d 25a9 a23b
00000240: b952 6fbb a092 41bd b922 17be 4a6d 15bc
00000250: 79c3 073c f9ab 053d 2f61 a13c a0bb c4bd
00000260: 7811 58bd 56a9 5b3c c521 a53d 8827 913d
00000270: 8390 1bbd a62d 263d 0f11 bdbd 6ef4 53bd
00000280: 885b cbbd 51dc 8c3d 1f97 acbd f4dd ddbd
00000290: b162 813c 4526 843c 8707 15bd 24f1 ae3b
000002a0: be9b 8abc aff6 f9bb d0a8 bfbc 5512 d13a
000002b0: 6ee5 cfbd be16 45bd f24b 113d d201 213d
000002c0: 38c9 bbbc 73eb b3bd 008c d73a 3a92 05bd
000002d0: 4510 02bd 7c34 eabc 0f89 313d 4c07 b6bd
000002e0: 0dd2 463d ebbf babd 812f e93c 8e96 db3c
000002f0: 2d98 9f3c 08f1 d3bd e8e7 b0bd 3764 e2bd
00000300: 5975 14be 5d74 9c3c 2fe2 8a3d 9636 413d
00000310: a003 89bd 3c26 a93d 02e7 a3bd f705 9cbd
00000320: 11a0 d33c 58b0 f7bd 6c88 4a3d 3c8e b1bd
00000330: 41fb 01be da88 bbbd 5ccc 6ebd dc80 aebd
00000340: d4ee b1bd dd77 bf3c f9af 21bd c2e4 40bd
00000350: 9007 90bd 8ceb 8fbd 69ac 1a3d a537 acbb
00000360: edc0 afbd f962 03be f769 44bd e9dc edbd
00000370: b9fb 4a3d 10aa bd3c 9fe8 393c 199f 6c3c
00000380: 3aa5 a23d aa42 053d 85fc c93c b8ae 263d
00000390: 0f3c 1bbd 9411 5b3c 1ec7 2e3d fc3a bc3c
000003a0: 18e4 74bd 544c 19bc 371a 98bd 2c57 6d3d
000003b0: 0c48 c23c 6387 9a3d 6811 44bd 447e 8d3b
000003c0: d79c b8bc 36ff 56bd e448 dabc 3728 e2bd
000003d0: c6b6 473d c727 533d d2d8 3f3d e171 29bd
000003e0: d39d 4dbc e311 a8bc dc85 adbd aa7d 6a3d
000003f0: 2d0d 8c3d b6ea b5bc 3adc 9cbc 5cb6 9b3c
-0.044404693 0.080802016 0.05790252 -0.022404056 0.108063996 0.016842015 -0.054923847 0.05067644
0.05620011 0.0038766814 0.058777742 0.02788932 -0.09418594 -0.0688868 0.12807252 -0.09269849
0.065304294 0.04719486 -0.050073557 -0.102160506 0.026005153 -0.023192562 -0.008904915 -0.052602854
-0.06875215 -0.03221697 0.0012496945 0.100206785 0.052306388 0.010368399 -0.019539535 0.04429292
-0.03411733 0.07306091 -0.0021269978 0.08065396 -0.14840402 -0.11087939 0.06932703 0.025786584
-0.004899972 -0.06281071 0.003246868 0.0076581067 -0.18589385 -0.035208687 -0.1156055 -0.15635924
-0.047763728 0.06313919 -0.023377366 -0.04652747 -0.11817327 0.016207924 0.032678287 0.050997037
0.023746165 0.073069505 0.051590238 -0.030802218 -0.08735627 -0.078304805 -0.02579126 -0.099906944
-0.16626272 0.031841937 -0.0074538193 0.07649878 -0.17396717 0.06344656 -0.072549224 0.025414709
0.08381179 -0.057254024 -0.11137023 -0.01961131 0.08780208 -0.014615563 -0.04274957 -0.03669854
-0.07810543 0.09711413 0.14714733 -0.0015199638 0.027303409 -0.014227277 -0.03858779 0.09353245
-0.012917314 -0.022264555 0.05732366 0.018533926 0.0006344364 -0.018844673 0.11808319 -0.006964776
0.020434415 0.04988346 -0.0815982 0.14087531 -0.17391565 0.077789225 0.07890215 0.08658353
-0.08034213 -0.011904188 0.06795449 -0.0838577 0.11284944 -0.07282901 0.12340603 -0.07406395
-0.0015896091 -0.1230145 -0.06743535 -0.009613108 0.0886046 -0.083050266 0.1354675 -0.113324344
-0.09927397 -0.06742464 0.052319393 -0.061686132 -0.014672744 0.041162774 -0.17054826 -0.03000162
0.049947347 0.06298429 0.079173826 -0.039677445 -0.0015010805 -0.05089448 0.056933437 0.0777476
0.019929219 -0.067608625 -0.097274095 -0.007164721 -0.025300276 0.01613347 0.049267672 0.0049640113
-0.0036517812 -0.047258973 -0.1475934 -0.009120295 0.00828635 0.03263471 0.019699661 -0.09606099
-0.052751034 0.013407072 0.08063082 0.07087618 -0.037979614 0.040570877 -0.09231769 -0.05174678
-0.099295676 0.068779595 -0.084272616 -0.1083335 0.01579413 0.01613153 -0.03638413 0.005338805
-0.016919967 -0.007628284 -0.023395926 0.0015950898 -0.10151182 -0.04811739 0.035472818 0.039308377
-0.022923097 -0.08785143 0.0016444921 -0.032610156 -0.031753797 -0.02858948 0.0433436 -0.088881105
0.048540164 -0.09118637 0.028465034 0.026805189 0.019481743 -0.103487074 -0.086379826 -0.11054271
-0.1449789 0.019098455 0.06781422 0.047171198 -0.066901445 0.08259246 -0.080030456 -0.07618325
0.025833162 -0.12094182 0.04944651 -0.08669707 -0.12693502 -0.09156962 -0.05830036 -0.08520672
-0.08688131 0.023372585 -0.03947446 -0.04709316 -0.070326924 -0.07027349 0.03776208 -0.005255657
-0.085817195 -0.12830724 -0.04795262 -0.11614401 0.049556468 0.023152381 0.011346965 0.014442229
0.07941671 0.03253428 0.024656544 0.04069397 -0.037899073 0.01337089 0.04267036 0.022977345
-0.05978784 -0.009356577 -0.07426875 0.05794446 0.023715995 0.07545354 -0.047868162 0.0043180306
-0.022535725 -0.052489482 -0.026646085 -0.110428266 0.04875829 0.051551607 0.046837635 -0.04136837
-0.012549835 -0.020516342 -0.08472797 0.05724875 0.068384506 -0.022206645 -0.019147981 0.019007854

fc2.bias f4 [9]
00000000: bc91 8abd d41d 4b3d 5721 babd 822e c0bd
00000010: ab91 fcbc 5c39 dc3a c827 b63d 3bb5 c8bd
00000020: e549 b7bd
-0.06766078 0.049588993 -0.0908839 -0.09383871 -0.030831179 0.0016801762 0.088943064 -0.09800192
-0.08949641
