runs/3_agents_50000_steps_mlp/models/critic_mlp.pth (torch, 23784 bytes, 4 tensors)

layers.0.weight f4 [128, 9]
000000 0a 69 1a 3e be 88 33 bd 68 f0 7e 3e 77 69 00 be
       0.15079132 -0.04383158 0.24896395 -0.12540232
000010 a1 69 f4 3d 9e ca 85 be 54 b8 9d 3d c4 ec a0 3a
       0.119342096 -0.26131147 0.077011734 0.0012277593
000020 eb a5 1a 3e e8 e0 c5 bd 85 2b 40 3e f2 d2 ca 3e
       0.15102355 -0.09662038 0.18766601 0.39614064
000030 40 8a f8 3d bf 82 07 3a 18 1c 08 3e d8 d3 c3 bd
       0.12135744 0.0005169324 0.13291967 -0.0956189
000040 ec 6f 80 3e fe fc fe 3d 96 a5 ab be da fc 50 3e
       0.2508539 0.12450598 -0.3352477 0.20408955
000050 fa 2a df bd 97 a4 84 be b3 3e 4d 3e 33 52 99 3d
       -0.10896869 -0.25906822 0.20043449 0.074863814
000060 9d 08 40 bd 56 1c 49 3b a3 f0 f9 3c 8e ae 05 3e
       -0.046883214 0.0030687056 0.030510252 0.13054869
000070 73 d4 59 3e 07 b8 1d 3e 8d 84 33 3e c5 9c 5a be
       0.21272449 0.15402232 0.17531033 -0.21348865
000080 0c 65 ae be 79 44 50 bd 23 00 17 bd 75 b8 4d 3e
       -0.34061468 -0.05084655 -0.036865365 0.20089896
000090 93 18 05 3e d3 68 44 be 9f 50 ef 3d 53 96 bc 3e
       0.12997656 -0.19180612 0.11685299 0.36833438
0000a0 97 7d 2a be 48 d9 4f bc cb 13 f3 bc 0c c5 be bd
       -0.16649471 -0.012686081 -0.029672524 -0.093149275
0000b0 ae be 32 be 9d 93 c6 be 6c b9 82 bd 0c b5 a3 bd
       -0.17455551 -0.38784495 -0.06383023 -0.07993516
0000c0 32 f5 89 3e 15 82 84 bc 92 ed 91 3e 6a a1 7c 3e
       0.26944882 -0.01617531 0.28501564 0.2467095
0000d0 01 b5 6b be 98 31 53 3e a3 f1 a6 3e d6 1d 7f be
       -0.23018266 0.20624387 0.3260623 -0.24913725
0000e0 96 14 df 3d e5 ae 1b 3d 1d 7d 4c be c5 f8 6c be
       0.10892598 0.03800859 -0.19969602 -0.23141773
0000f0 ee b1 c7 3e 67 6e 8e 3e ce 67 bd 3e 0f 1f 3a 3c
       0.39002937 0.27818605 0.3699326 0.011359944
000100 77 c0 09 3e 10 07 b1 3b 01 e1 03 3e a2 8e 50 3e
       0.13452326 0.0054024532 0.12878801 0.2036691
000110 8f e6 98 be 2c 2b 18 3d 7a d0 23 3e 80 b2 2e ba
       -0.29863402 0.037150547 0.15997496 -0.0006664172
000120 9b a9 9f 3e 2a 25 d9 3d 2d ba 45 3e bb 6f 3b 3d
       0.31184086 0.106027916 0.19309302 0.04576085
000130 5b 9e e6 3d 96 43 63 3e 85 5e 49 be 63 c9 1f 3e
       0.11260673 0.2219375 -0.19664963 0.15604167
000140 ee 98 e3 bd 54 e2 87 3d 41 92 37 3e b1 3f b2 be
       -0.111131534 0.066349655 0.17926885 -0.34814218
000150 0b 30 8e be dd e2 a4 3e f1 47 14 be 7b e6 89 3e
       -0.2777103 0.32204333 -0.14480568 0.26933655
000160 7a e5 01 3e 5d 24 10 3e 17 f7 ab 3e d7 fe 8c 3e
       0.12685195 0.14076371 0.33586952 0.27538177
000170 52 4e 9b 3e 68 3d 21 be d5 1c 84 3d b9 4f 9d 3d
       0.3033319 -0.15746081 0.06450812 0.076812215
000180 8c de 11 3e e9 1e 28 be 61 ed e7 3c c9 03 17 be
       0.14245051 -0.16418041 0.028311433 -0.14747538
000190 b3 7a d8 3d 3f 3d 78 be 28 dd 69 3e a0 80 b0 3e
       0.10570278 -0.24242114 0.2283827 0.34473133
0001a0 e6 4a 61 3d b9 fb 83 3e ae 4b 73 3e 4b 78 8e bc
       0.05500307 0.25777987 0.23759338 -0.017391345
0001b0 e9 45 b0 be 5f 9f 89 3e a3 13 5d 3e a1 0b c7 3e
       -0.34428337 0.26879403 0.21589522 0.3887606
0001c0 55 fd c1 bc 54 57 8e 3e 5d 3e 50 bd be be 99 3e
       -0.023680368 0.27801 -0.050840724 0.30028337
0001d0 d7 41 08 be 4a cd 5d 3e ec 4e 7c bd c3 06 c2 bd
       -0.13306366 0.21660343 -0.061598703 -0.09473946
0001e0 f7 c0 0c bd 19 b6 93 bd ca 75 6c be 50 61 53 bd
       -0.034363713 -0.07212467 -0.23091808 -0.051606476
0001f0 18 12 b9 bd f0 a3 48 3c 47 cd 0b 3e f8 45 d9 bc
       -0.09036654 0.012246117 0.13652526 -0.026522622
000200 3e cc 83 3e f6 d4 96 3d 8b 39 10 be 93 e8 b6 3d
       0.25741762 0.07364838 -0.14084451 0.08931079
000210 50 cb 48 bd bf 33 a8 3e 3d 9d d6 3e ae db 89 3c
       -0.04902202 0.3285198 0.41916838 0.016828384
000220 70 fc 49 3d 7f 1b 3e be 8e b8 d2 bb 2f a7 b9 3d
       0.04931301 -0.18565176 -0.006430692 0.09065091
000230 e8 87 8a 3e 70 25 95 bd f1 ca 2c 3e ba 79 9c 3e
       0.27056813 -0.07282531 0.16874291 0.3056162
000240 77 a4 85 3b 99 97 e9 3c 63 a0 96 3e b1 2a ab 3e
       0.0040784436 0.02851467 0.2941924 0.33431008
000250 e9 94 2e be c6 36 86 be 49 a4 74 3d 8a 61 8c 3e
       -0.17048992 -0.26213664 0.059726987 0.27418166
000260 68 9c f6 bd b7 b7 89 be d1 0f df 3d b3 41 ca 3e
       -0.12041551 -0.26897976 0.108916886 0.3950325
000270 9c cf 14 3e f2 95 7f 3d 76 12 af 3b 91 ae b4 3e
       0.14532322 0.06239886 0.005342777 0.35289434
000280 61 b7 8b bc 1c 1e 38 3e 11 a0 12 be d8 9c 42 3e
       -0.017055215 0.17980236 -0.14318873 0.19005144
000290 24 fe 70 be 3d 8a 97 bd 11 a1 b3 be 18 19 8d 3e
       -0.23534447 -0.07399414 -0.3508382 0.27558208
0002a0 84 09 57 be c9 96 c8 bd 2f 0c 96 be d0 97 9b 3e
       -0.20999724 -0.09794385 -0.2930617 0.3038926
0002b0 38 df 9d 3e 2d c1 85 3e 80 0f 87 bc 51 24 5d bd
       0.30834365 0.26123944 -0.016486883 -0.053989712
0002c0 b8 67 5d 3e 1c c0 84 3e b6 9d 48 3d 64 80 9a be
       0.21621597 0.25927818 0.04897853 -0.3017608
0002d0 39 c5 50 3e 7c 91 76 3e 02 22 33 3e 07 58 80 3b
       0.20387734 0.24078935 0.17493442 0.0039167437
0002e0 84 d4 b0 3e 52 f8 cc 3e 38 55 a4 bd ac d7 32 be
       0.34537137 0.40033203 -0.08024067 -0.17465085
0002f0 17 84 53 3e 2b 61 72 be fd c7 80 3d 02 81 f9 3d
       0.20655857 -0.23669879 0.06288145 0.121828094
000300 c5 ae 5f 3e 99 a2 89 be da 04 c1 3d 28 4d 3b be
       0.21844013 -0.26881865 0.094247535 -0.18291152
000310 20 ed 0f 3e 1b 8b f0 3d 91 85 6e be 13 d0 32 3e
       0.140553 0.11745282 -0.23293139 0.17462187
000320 b0 6d a5 3d f2 3a 0a 3e 12 36 b3 3e a6 29 24 3d
       0.08077562 0.13499048 0.3500219 0.04007878
000330 a7 e4 54 be 74 34 22 be 07 5f 81 3c 7a ed bd be
       -0.20790349 -0.15840322 0.015792383 -0.37095243
000340 1a ad 29 3e 15 a3 43 be 6c 9e 59 be d5 6c 98 be
       0.1656994 -0.1910518 -0.2125184 -0.29770532
000350 64 7f ac 3d e5 c9 99 3e 28 15 0d be 86 86 6b be
       0.08422735 0.30036846 -0.13777602 -0.23000535
000360 57 6b 89 be 62 72 bd bd 2d 4f 80 be d9 3a 96 bd
       -0.26839706 -0.092503324 -0.25060406 -0.07335443
000370 1b 9c 5e be 36 ef 8f 3e 58 84 c9 3d 13 e7 b3 3d
       -0.21739237 0.2811219 0.09839696 0.08784308
000380 5f c7 1f 3e 39 3a 93 3e f6 86 8c 3e 80 ac a4 3c
       0.15603398 0.28755358 0.27446717 0.020101786
000390 ae 06 40 3e eb e8 c6 bd c1 b7 b0 3e d1 09 0e bb
       0.18752548 -0.09712394 0.34515193 -0.0021673332
0003a0 96 38 95 3e 5e df cd 3e 2d 55 4e be 4c 3b 62 bd
       0.29144734 0.40209478 -0.2014968 -0.05523233
0003b0 a9 73 ee 3c 00 81 84 be 60 4c f6 bd a1 26 ba 3e
       0.029107885 -0.2587967 -0.12026286 0.36357597
0003c0 f9 93 96 3e a2 48 1a be 52 ae 16 3d be 0a 9a be
       0.2940977 -0.1506677 0.03678734 -0.3008632
0003d0 e0 c0 0a be 28 70 33 3e 23 49 9c 3e e6 69 69 3e
       -0.13550138 0.17523253 0.3052455 0.22794303
0003e0 2c 05 10 3e 44 03 38 be 78 da 89 3e 15 f2 96 3e
       0.14064473 -0.17969996 0.2692449 0.2948157
0003f0 01 e0 6b be e6 a3 59 bb f6 63 16 3d 89 16 1c bd
       -0.2303467 -0.0033209263 0.036716424 -0.03810743

layers.0.bias f4 [128]
000000 84 39 62 be 3a d7 1f 3e 68 c3 62 bd ab 33 80 3e
       -0.22092253 0.15609446 -0.055362135 0.2503942
000010 a8 ba cc 3e e5 ac 51 be b2 f2 a2 3e ea 05 89 3e
       0.39986157 -0.2047611 0.31825787 0.26762325
000020 31 70 88 be f9 84 38 3e b8 ec 43 3e e5 2c ca 3d
       -0.26648095 0.18019475 0.1913327 0.09871844
000030 5e 51 bd 3e 53 38 07 bb 14 9d b0 3d 28 5e 44 bd
       0.3697614 -0.0020632937 0.0862371 -0.047941357
000040 05 10 a4 3d 8c 5f 0a be b9 81 15 bb ec ff 8f be
       0.08010868 -0.1351301 -0.0022812916 -0.2812494
000050 eb 16 6e bd 08 ef 61 3e 89 ae 57 be e5 49 94 3e
       -0.058127325 0.2206384 -0.21062674 0.28962627
000060 c0 c3 58 3d 72 8c 1f be 46 20 1a 3e d6 01 ae bd
       0.052921057 -0.1558092 0.15051374 -0.08496444
000070 00 c1 b3 3d e4 a3 83 be 06 72 6f 3e 17 16 f8 bd
       0.08777046 -0.25710976 0.2338334 -0.12113588
000080 f1 94 fd bc 9c 92 ba 3e d0 ec 78 bc f8 49 11 3e
       -0.03095481 0.3643998 -0.015193179 0.14188373
000090 52 fe 05 3d 39 ad 6c 3e 80 60 2a 3e cd 6d 84 3e
       0.032713242 0.23112954 0.16638374 0.2586502
0000a0 3b 60 68 3e 0e 4f 0f 3d 3e c6 55 bd 39 41 1d 3e
       0.22692959 0.0349875 -0.05219101 0.15356912
0000b0 28 71 a3 be f3 26 fa 3d 63 b7 2d be 49 5b 52 be
       -0.3192227 0.1221446 -0.16964488 -0.20542635
0000c0 cd 12 2a be a6 e1 6f be 16 a5 bd 3d 8c 5f cd 3c
       -0.16608734 -0.23425922 0.09260003 0.025069974
0000d0 3d d1 32 3e 01 19 69 bd fa 02 0b 3e 6b 34 a2 3d
       0.1746263 -0.05690861 0.13575354 0.07920154
0000e0 eb be 24 be 05 d3 00 be 0f 40 c5 3e 2f 18 63 be
       -0.16088454 -0.12580498 0.38525435 -0.22177194
0000f0 00 bf 27 bd a8 7f fc 3d 71 14 87 be 46 c3 bf 3e
       -0.040953636 0.12329036 -0.26382783 0.3745367
000100 1f 2c a6 3b b1 46 05 3e a4 60 e3 3d 22 9b c0 3e
       0.0050711776 0.13015248 0.11102417 0.37618357
000110 25 c3 fe bd 24 f6 31 3e f5 87 14 be 04 bd 4f be
       -0.124395646 0.17379051 -0.14504988 -0.20286947
000120 78 4c 2d 3e 7e 20 83 3e 7e f5 23 3e cf dd cf 3e
       0.16923702 0.25610727 0.16011617 0.40598914
000130 62 a0 62 bd 2e d7 b2 3d 20 82 31 3e 3c 13 5f 3e
       -0.055328734 0.087324485 0.17334795 0.21784681
000140 d4 b4 64 be 77 47 9f be 1c 31 85 be 86 33 d2 bd
       -0.22334605 -0.3110921 -0.2601403 -0.102637336
000150 ee df 9c 3e a2 81 5b be 92 b1 75 3d f1 b6 1d bd
       0.30639595 -0.2143617 0.059983797 -0.038504545
000160 46 77 59 bd 3b 8b 03 3e 47 56 ec 3c 7d f7 1c 3e
       -0.053092264 0.12846081 0.028849734 0.15328784
000170 c1 ba a8 3e 9e 3a 45 be 76 22 7d be 69 52 8f 3e
       0.32954982 -0.19260642 -0.24720177 0.2799256
000180 f6 07 8a bd 8e c4 6c be 72 c2 3a 3e 1a 16 b3 3d
       -0.067398 -0.23121855 0.18238238 0.0874445
000190 9b 2c fd 3d 63 3d 6b 3c 7d e1 44 be f9 9b 37 be
       0.123620234 0.014357897 -0.19226642 -0.17930593
0001a0 80 74 c4 3d bf 2f c7 bd dc f8 3a be 79 9c 4a be
       0.09592533 -0.09725904 -0.18258995 -0.19786252
0001b0 ce 0e 3b 3e 34 e8 82 be 4d 86 8b 3e af db a0 be
       0.18267366 -0.25567782 0.272509 -0.31417605
0001c0 3e e5 89 be 07 9e af 3e 66 60 a7 3e 38 5b ae 3e
       -0.2693271 0.34300253 0.32690734 0.3405397
0001d0 14 7c 0c be 61 1d 65 be 18 93 c5 3e 23 25 c7 3e
       -0.13719207 -0.22374488 0.38588786 0.3889552
0001e0 c6 c9 3c 3c 05 6d 78 3c d4 f3 94 be 59 0e 95 bd
       0.011522716 0.015162711 -0.29092276 -0.07278127
0001f0 27 b6 5f bd a8 8c 07 3d 82 3f 67 be 5d 8c e3 bc
       -0.054617073 0.033093125 -0.2258282 -0.027776891

layers.2.weight f4 [32, 128]
000000 91 1a 19 bd 58 34 10 bd a8 0f a9 3d 2d 3c 1a 3c
       -0.03737885 -0.03520617 0.08254939 0.009413761
000010 9b ed 97 bd 9b 45 a2 3d cc 00 01 3d 21 60 88 bd
       -0.074183665 0.079234324 0.0314949 -0.0665896
000020 f4 7c 04 3c ba 56 20 3b 5d b8 67 3d 39 d6 74 3d
       0.008086432 0.0024465756 0.056572307 0.05977461
000030 60 51 c8 bb f1 2e 93 bc a0 b9 33 3d 73 7c 1d bd
       -0.0061132163 -0.01796672 0.043878198 -0.038448762
000040 45 d4 ec 3c 19 70 90 3d 94 72 c2 3b ff 2a 82 3d
       0.028909812 0.07052631 0.005934069 0.06355857
000050 8e 7c 56 3c d7 7a c2 3d b9 78 ab b8 0c be c6 3c
       0.01309122 0.09496086 -8.176402e-05 0.024260543
000060 c5 48 85 3c 3b 62 fe 3d d1 e3 90 bd 05 9f 0e 3d
       0.01627005 0.1242108 -0.070747025 0.03481962
000070 aa 78 70 3c c2 38 c2 3c 6c 81 2d 3d ce 25 15 bc
       0.014677206 0.023708705 0.042359754 -0.009103252
000080 90 1d 94 3d 6f 86 82 bd f6 1a 32 bd f9 37 b3 3b
       0.07232201 -0.063732974 -0.043482743 0.005469319
000090 a9 f2 0f bd 91 e1 4e 3d e1 f2 82 bd 74 5e ad 3d
       -0.035143528 0.050508086 -0.06393982 0.08465281
0000a0 40 fc 2e 3d 51 33 ef 3d 9e 79 14 bd 71 5e a1 3d
       0.042721033 0.1167971 -0.036248796 0.078793414
0000b0 52 23 8f bd c8 b6 d7 bd f9 e7 7b 3d fe 24 e8 bc
       -0.06989159 -0.1053291 0.061500523 -0.028337952
0000c0 f7 06 46 3d 66 d1 26 3d db bc 1f bd 2d ef 85 bc
       0.048346486 0.04072704 -0.038998466 -0.0163494
0000d0 ab 02 df 3c 26 8c 86 bb 39 5f 4e 3d c8 9c 8f 3d
       0.027222952 -0.0041060625 0.05038378 0.070123255
0000e0 c7 01 09 3d ae 76 ab 3d 0e e4 43 bc 9d 6e 58 3d
       0.03344896 0.08372246 -0.011956228 0.052839864
0000f0 c0 b9 03 3e fb 9a 21 3a 3e 38 8c bd 2a a8 c8 bd
       0.12863827 0.00061647565 -0.06846665 -0.097977
000100 74 db 5a bc a7 1e 9a ba 0b 5d df 3d b8 65 ec 3d
       -0.013357986 -0.0011758403 0.109064184 0.11542839
000110 23 d3 8f 3c ab d5 9f 3c c1 8a 95 bd 55 fc f1 3c
       0.017556733 0.019511065 -0.07301856 0.029539267
000120 f1 2c f1 3b 25 59 07 3e 44 f4 b0 bc 3d e0 e4 3d
       0.0073600938 0.132176 -0.02160085 0.111755826
000130 ab 59 81 3d 8c 97 e4 bc 1a dc a5 3a 2a 1c c1 3d
       0.06315931 -0.027904294 0.0012654096 0.094292
000140 eb 4b d3 3d 94 91 a1 3d 4f 55 56 3d 85 53 f1 3d
       0.103172146 0.07889095 0.05232745 0.11783508
000150 e2 9d ad 3d 09 88 92 bd ea c5 2a 3d 51 e8 df 3b
       0.084773794 -0.07154853 0.04169265 0.006833114
000160 ae a9 4e bd 1d 12 bd 3d ac fa 09 3c d0 1e 85 bd
       -0.050454788 0.092319705 0.008421581 -0.06500018
000170 c7 25 e8 3c 61 db 85 3c 6f 6f 18 3d 0b ca 59 3d
       0.028338326 0.01633996 0.037215646 0.0531712
000180 d3 1d 9a bd b9 34 9d 3d cf 8e b5 bd 1a b1 2c bd
       -0.0752522 0.07676072 -0.08865129 -0.042161085
000190 a9 40 44 3d 87 08 24 3d 94 a9 32 bb 56 de 8b bc
       0.047913227 0.040047195 -0.002726172 -0.017073791
0001a0 78 7c 8e bd 72 ea 4b bd b0 1f 05 3e b2 f0 46 3d
       -0.06957334 -0.04978413 0.13000369 0.04856939
0001b0 36 c1 02 3e 96 f1 a1 3d ca c0 d3 3c fc 78 1c 3d
       0.12769017 0.07907407 0.025848765 0.038201317
0001c0 66 b1 ca bc c0 03 f5 3d a1 14 46 bd 96 41 90 3d
       -0.024742793 0.11963606 -0.048359517 0.070437595
0001d0 19 35 44 bd 99 de 01 3c 03 d0 ca 3d 26 0a 4f 3c
       -0.0479022 0.007926607 0.09902956 0.012636697
0001e0 5e a5 58 3c 13 71 3b 3d 16 d6 d4 bc b7 e5 e6 3d
       0.01322302 0.045762133 -0.02598099 0.112742834
0001f0 d1 6f 5e 3d d1 31 a5 bc 41 f0 9d bc 6f 34 1c 3d
       0.054305855 -0.020165356 -0.019279601 0.038135942
000200 c8 7f bf bd a1 49 b2 bd db a9 7d bd 8c 74 db bd
       -0.09350544 -0.0870545 -0.061929565 -0.10715589
000210 f7 8b 0f bd b3 82 72 bc c5 8a aa bd 50 bc 7d bd
       -0.03504559 -0.014801669 -0.083272494 -0.061947167
000220 5d 6c 5a bd 59 2b 52 3d 52 ef 7e 3d a3 8a 8c 3d
       -0.053326 0.05131087 0.062239952 0.0686238
000230 77 2b b7 3c 89 e1 b2 3a f6 16 28 bd 9a 39 ba 3c
       0.022359593 0.0013647537 -0.041037522 0.022732545
000240 84 a4 c5 bd e7 8b 20 bd b0 94 7b 3d 1c dc f1 3c
       -0.096505195 -0.03919592 0.061421096 0.029523902
000250 91 47 9b bd cd f3 90 bd ad 1a 09 3d f9 81 da bb
       -0.075820096 -0.07077751 0.033472706 -0.006668326
000260 00 ba 83 bd f7 a0 85 bd af 90 c7 bd bc 55 15 be
       -0.06431961 -0.06524842 -0.09744393 -0.14583486
000270 61 8a af 3c 84 51 28 3d 7f 20 31 bd c1 a3 30 3d
       0.021428289 0.041093364 -0.04324388 0.043124918
000280 98 21 90 3d d2 c6 21 be f0 1e 83 bd 29 68 85 bd
       0.070376575 -0.157985 -0.06402385 -0.065140076
000290 02 e3 9f bd f7 1e 66 3d 19 31 b2 bd 1e ed 29 bc
       -0.0780697 0.056181874 -0.08700771 -0.010371475
0002a0 e3 3d 9f bd e6 4f 10 3c 5d ec 54 3d 17 e1 91 3d
       -0.07775476 0.008808112 0.051983226 0.071230106
0002b0 20 44 ce bd 81 f4 a1 bd d7 5f 55 bb be 68 8b 3d
       -0.100715876 -0.079079635 -0.0032558346 0.06807087
0002c0 8b 84 a4 3d 9d 77 34 bd 36 0b cf bd ba 15 43 bd
       0.08033093 -0.044059385 -0.1010956 -0.047628142
0002d0 2d 4b d9 bd 0f 39 2b bd 64 43 67 bd 56 3d 26 3c
       -0.10610042 -0.041802462 -0.056460753 0.01014646
0002e0 8c ee 59 bd e7 85 08 bd c2 43 14 3c d2 00 8c 3c
       -0.05320601 -0.033330824 0.009049358 0.017090235
0002f0 ad cd 3b bd 4a 29 60 bd b4 0c b8 bd 4e f6 91 bd
       -0.045850445 -0.054726876 -0.08986798 -0.07127057
000300 ce 54 5b 3d 42 99 68 bd 86 68 d3 3d ed 64 58 3d
       0.053547673 -0.056786783 0.10322671 0.052830625
000310 4a ad 60 3c 15 50 f7 bc 4c 47 73 bd f9 9d ab bd
       0.01371319 -0.030189553 -0.059394166 -0.0837974
000320 59 6d 10 3c 0f 19 12 bd ee 71 0b 3c 33 62 cd 3c
       0.008815133 -0.03566843 0.00851105 0.02507124
000330 4a 89 c3 bc b8 0b c6 bd ef cb 00 3d d6 14 1b bd
       -0.023869175 -0.09670204 0.031444486 -0.037861668
000340 53 7c 8d bb 74 65 3f 3d cf 1c d8 bc d3 2d e7 3c
       -0.004317799 0.046727613 -0.026380925 0.028220093
000350 07 5d 64 bd ed 64 97 3c 23 11 88 bd b8 2f 86 3d
       -0.05575278 0.018480742 -0.066438936 0.065520704
000360 4c 20 0f 3d f8 82 8a bd bd 10 b8 bd eb d7 f5 bd
       0.03494291 -0.067632616 -0.089875676 -0.12004074
000370 d0 54 e4 bc 1e a8 4a bd a3 84 e8 bd da 9a 66 bd
       -0.027872473 -0.049476735 -0.113534234 -0.05630002
000380 63 85 d9 bb 37 08 e4 3c a6 0b 6d 3d 36 2d 34 bd
       -0.0066382154 0.027835948 0.057872437 -0.04398843
000390 34 fe aa b9 36 e5 32 bc f4 66 e9 3b bb a8 03 39
       -0.00032614323 -0.010918906 0.0071228687 0.0001255599
0003a0 e2 59 ac 3b 13 65 4d 3d fb 62 1a 3d 87 59 7d b9
       0.0052597383 0.05014522 0.03769205 -0.00024161312
0003b0 c3 4b 6c bc 84 e8 a8 bd 3b 6e 5f 3d 4f 92 91 3d
       -0.01442236 -0.08247474 0.054548483 0.07107984
0003c0 16 49 88 3d 8e 7f c4 3c c6 c1 b4 bb 2f fb c8 bd
       0.06654565 0.023986604 -0.0055162637 -0.098135345
0003d0 8a fc 50 3d 95 e1 ad bd 66 92 35 3c b1 81 c6 bd
       0.05102209 -0.08490292 0.011082267 -0.096927054
0003e0 cb b3 77 3d 5a b5 11 be a8 79 9b 3d ce c8 84 3d
       0.0604742 -0.14229336 0.075915635 0.06483613
0003f0 f2 e1 56 bc 41 24 27 3d 52 52 43 bb 08 95 47 3c
       -0.013115393 0.04080606 -0.0029803705 0.012181528

layers.2.bias f4 [32]
000000 a4 66 f8 3c e6 69 86 bd a1 3e cd 38 71 5d 80 bc
       0.03032238 -0.06563167 9.786827e-05 -0.015669556
000010 1e 9d ae bd 9b 06 27 bc aa 49 dc bc d4 7c 17 3e
       -0.085260615 -0.010194446 -0.026890595 0.14793712
000020 f9 c3 a8 bd ca 57 ea 3d ff 1c 94 bd 8c 12 c9 bd
       -0.08240504 0.11442526 -0.07232093 -0.09817991
000030 23 b8 a0 3d 2f cc 7a bc 4e 05 a7 3c dc ea 04 3e
       0.07847621 -0.01530747 0.020388272 0.12980217
000040 8b 01 15 3d 8d bd e5 bd 71 5a 23 3c 7b 12 eb bc
       0.036378425 -0.112177946 0.009970293 -0.028695336
000050 f4 1c c6 3d cd cc 1e be d9 c8 02 3e cc ef 15 3e
       0.09673491 -0.15507813 0.1277193 0.14642256
000060 8a 59 ca 3d f1 56 c7 3b b6 9a 8c 3c ec 6e 2b bd
       0.098803595 0.0060833623 0.017163616 -0.04185383
000070 63 1d 00 3e 74 b3 cf 3d 7b df 1c bd fe ee c6 3d
       0.1251121 0.1014165 -0.038299065 0.09713553
