runs/3_agents_50000_steps_mlp/models/critic.pth (torch, 19272 bytes, 3 tensors)

fc1.weight f4 [128, 32]
0.081476375 -0.05174689 -0.073161274 -0.17430632 -0.12309068 -0.038277913 -0.06487279 0.15792483
-0.17025295 0.029844226 0.071977444 -0.08492032 0.08335868 -0.10125683 0.03441775 0.056965016
-0.0028792708 -0.04266289 -0.05794773 -0.03797327 0.11927741 0.041496143 0.0029188225 0.11746918
0.16822955 -0.049627453 0.1294034 -0.039997388 0.16268201 0.03075501 -0.097635955 0.00047501342
0.08287798 -0.16904473 0.029171126 -0.1943483 0.07493591 -0.1390688 -0.036771294 -0.08920868
-0.0671061 0.13004822 0.18610072 -0.18272169 -0.1194022 -0.13638677 -0.03857159 0.0905963
0.12823981 0.0027520743 -0.08013926 -0.020189134 0.17434031 0.11982518 -0.06790201 -0.051021308
0.13985233 0.06393208 -0.0048600384 0.0148312915 -0.08377926 -0.113576695 -0.0014861617 0.13121241
0.05497571 -0.15794258 -0.11154353 0.15071855 0.11188511 0.004566615 0.06693218 0.17554441
0.09497996 0.1804358 -0.06301942 0.15265507 0.14585625 0.06317185 -0.05612119 -0.14132038
-0.06950276 0.031096889 -0.0932646 -0.12236756 -0.007124886 0.05662354 0.19391407 0.07849652
0.17331173 -0.0065013096 -0.069628134 0.14549768 -0.026305405 0.08070171 0.02759581 0.15065327
-0.0025376352 -0.14654107 -0.05708098 -0.18122387 0.050010856 -0.14706184 0.08125358 0.1460566
-0.09333305 -0.12545496 -0.029379297 -0.050823428 -0.15247397 0.05975688 0.07616849 -0.12181845
0.021646556 -0.12306014 -0.06920236 0.102200985 0.018091401 -0.13084805 -0.11730298 0.10738123
-0.03209147 0.06471698 0.11140969 0.042674914 0.14739665 -0.11341718 0.07532898 0.06918397
0.0346436 0.030030563 -0.10159018 -0.16095795 0.048731055 -0.10715149 -0.10173874 -0.0810687
0.14913775 0.03740754 0.1713192 -0.021050978 0.067045845 -0.08239515 0.12149782 -0.015515158
0.04156172 0.10562995 0.11955663 -0.077449284 0.154491 0.016213374 0.14762697 0.10060612
0.21242423 0.15640402 0.08196943 -0.11911434 -0.00060563965 -0.060590286 -0.03984249 -0.096018806
-0.0034563118 -0.15451628 0.091008596 0.11848819 -0.11857298 -0.011056393 0.09964581 -0.14829637
-0.2052958 0.083435066 0.21994996 -0.10897138 -0.014088401 -0.17608567 0.019374406 -0.06755246
0.012025552 0.11656526 -0.03282372 0.14335151 -0.0015149787 -0.1307174 0.14276266 -0.0029390142
-0.019120062 -0.08433569 0.078227155 -0.09164641 0.12831923 -0.00048775194 -0.032271005 -0.037424684
0.007853793 -0.092578106 -0.011052993 -0.14104235 0.030162511 -0.08721164 -0.15361254 0.081165016
-0.14237452 0.06790252 0.04485685 0.10297894 0.19416371 -0.17683995 0.09731241 0.21116076
-0.105357 0.17619188 0.019287119 -0.048773374 -0.11120634 0.043984614 -0.14428617 0.057959385
0.0059749857 -0.15159646 -0.19640441 0.17695053 0.1752008 -0.016451465 0.021606948 -0.07145065
0.06251141 -0.10435996 -0.16539806 -0.088333175 0.042957876 0.021760678 -0.11058775 0.15296192
0.07805171 -0.12806655 -0.12971152 0.06528772 0.030386288 -0.09410376 0.12872912 -0.06549915
-0.0129212765 -0.0063975407 -0.16211934 0.13068008 0.19106781 0.12426532 0.0151262395 0.07395158
-0.08523609 -0.13300218 -0.031926636 -0.17008092 0.092656 -0.03764327 -0.079746164 0.1776958
00000000: 16dd a63d 8cf4 53bd 94d5 95bd 5b7d 32be
00000010: f716 fcbd 4dc9 1cbd 06dc 84bd 0cb7 213e
00000020: ca56 2ebe e17b f43c e968 933d b4ea adbd
00000030: f5b7 aa3d be5f cfbd a0f9 0c3d 2654 693d
00000040: 26b2 3cbb 48bf 2ebd 995a 6dbd dc89 1bbd
00000050: b747 f43d dcf7 293d b749 3f3b ae93 f03d
00000060: 5e44 2c3e 2846 4bbd 5382 043e 4dd4 23bd
00000070: 1d96 263e eef1 fb3c 5cf5 c7bd 390b f939
00000080: eebb a93d 101a 2dbe 49f8 ee3c 3e03 47be
00000090: 0078 993d 0d68 0ebe 7f9d 16bd 0ab3 b6bd
000000a0: ec6e 89bd 5c2b 053e 3091 3e3e 651b 3bbe
000000b0: 2489 f4bd f9a8 0bbe 3efd 1dbd 8e8a b93d
000000c0: 4c51 033e 255c 343b 0d20 a4bd af63 a5bc
000000d0: 4486 323e e766 f53d 3610 8bbd b8fb 50bd
000000e0: 7335 0f3e d3ee 823d f540 9fbb f2fe 723c
000000f0: 7694 abbd e69a e8bd 50cb c2ba 8c5c 063e
00000100: 362e 613d b3bb 21be ef70 e4bd f755 1a3e
00000110: 0524 e53d 8ba3 953b bd13 893d eac1 333e
00000120: da84 c23d 2ac4 383e 5310 81bd 9c51 1c3e
00000130: 575b 153e 3e60 813d 55df 65bd 4ab6 10be
00000140: 7757 8ebd e7be fe3c 8301 bfbd d89b fabd
00000150: e077 e9bb 16ee 673d 6991 463e c9c2 a03d
00000160: a178 313e f008 d5bb 3299 8ebd 58fd 143e
00000170: 6f7e d7bc f046 a53d 9c10 e23c da44 1a3e
00000180: 744e 26bb dd0e 16be bfcd 69bd c092 39be
00000190: 2fd8 4c3d 6197 16be 4768 a63d dd8f 153e
000001a0: 6625 bfbd 4477 00be daac f0bc 3a2c 50bd
000001b0: 2322 1cbe a1c3 743d 3afe 9b3d f47b f9bd
000001c0: 1e54 b13c f406 fcbd f8b9 8dbd c04e d13d
000001d0: 6b34 943c 08fd 05be 8b3c f0bd b1ea db3d
000001e0: 5872 03bd 568a 843d c32a e43d e4cb 2e3d
000001f0: 26ef 163e 4447 e8bd 1546 9a3d 53b0 8d3d
00000200: 73e6 0d3d a802 f63c 830e d0bd 29d2 24be
00000210: 379a 473d 3e72 dbbd 675c d0bd 5907 a6bd
00000220: 91b7 183e a638 193d 4d6e 2f3e 1a73 acbc
00000230: 554f 893d cabe a8bd d9d3 f83d 4a33 7ebc
00000240: 9f3c 2a3d 8454 d83d 1bda f43d bb9d 9ebd
00000250: e432 1e3e e9d1 843c 862b 173e 950a ce3d
00000260: bd85 593e 6028 203e 97df a73d 38f2 f3bd
00000270: cac3 1eba 852d 78bd e131 23bd 82a5 c4bd
00000280: 4a83 62bb 8439 1ebe b762 ba3d f0a9 f23d
00000290: 64d6 f2bd e025 35bc 1a13 cc3d 01db 17be
000002a0: 1039 52be 01e0 aa3d 903a 613e 632c dfbd
000002b0: 09d3 66bc cd4f 34be 13b7 9e3c f258 8abd
000002c0: d206 453c c4b9 ee3d 2a72 06bd bdca 123e
000002d0: 4092 c6ba c8da 05be 6030 123e 7a9c 40bb
000002e0: ada1 9cbc 31b8 acbd 8f35 a03d 1db1 bbbd
000002f0: 1e66 033e f5b8 ffb9 9a2e 04bd a04a 19bd
00000300: 32ad 003c 9799 bdbd 9d17 35bc 686d 10be
00000310: 5f17 f73c 049c b2bd 9b4c 1dbe d839 a63d
00000320: a0ca 11be 7a10 8b3d d1bb 373d 9fe6 d23d
00000330: dad2 463e 8815 35be bb4b c73d 873a 583e
00000340: 69c5 d7bd a56b 343e 0500 9e3c 97c6 47bd
00000350: 26c0 e3bd 3629 343d c1bf 13be d266 6d3d
00000360: d0c9 c33b 1a3c 1bbe 3d1e 49be 8532 353e
00000370: d767 333e 39c5 86bc 0e01 b13c b854 92bd
00000380: fb05 803d adba d5bd 1c5e 29be 06e8 b4bd
00000390: 99f4 2f3d 7343 b23c d57b e2bd 0da2 1c3e
000003a0: 93d9 9f3d e123 03be 19d3 04be 91b5 853d
000003b0: aaec f83c 79b9 c0bd 91d1 033e 6b24 86bd
000003c0: c3b3 53bc 76a2 d1bb 9d02 26be 00d1 053e
000003d0: 48a7 433e d17e fe3d 0cd4 773c ed73 973d
000003e0: 4290 aebd b931 08be 81c5 02bd b129 2ebe
000003f0: 6ec2 bd3d d42f 1abd f551 a3bd e3f5 353e

fc1.bias f4 [128]
0.16433182 0.13030928 -0.12749742 -0.0045082425 0.04535814 0.21401927 0.20997761 0.18101539
0.006104742 -0.11901534 -0.09696159 0.0064936117 0.0267103 0.036918838 -0.079901524 0.08168896
0.15022753 -0.022569055 0.19838499 0.1368412 0.042752482 -0.05514479 -0.11670597 -0.109000936
-0.15068057 0.12651834 0.19340563 0.2232206 0.17394811 0.17848912 -0.09352424 0.014547149
-0.10677194 0.10519588 0.09293216 0.011828657 -0.051954776 0.15990968 -0.13709109 -0.0898814
0.052537233 0.15568292 -0.06625705 0.057386838 -0.13463415 0.044419296 0.15302221 0.12528571
-0.10041792 0.09924222 0.1299236 0.16163129 0.0986862 0.06190018 -0.17745547 0.052578054
-0.13166572 -0.009875472 0.055546958 0.13875978 0.088947505 -0.027717141 -0.0041700974 0.144274
0.10880634 -0.06985393 0.00505727 -0.015282276 0.06971391 -0.02709313 0.01973804 0.03892259
0.14839561 -0.029166874 -0.0048795436 -0.13652053 -0.008665644 -0.15737697 0.022721775 0.07811657
0.15851858 0.05207052 0.008505779 -0.06726793 0.2398274 -0.08472435 0.16667795 0.16136281
-0.17368615 0.0076721665 0.006309544 -0.05392094 -0.062906176 0.11790447 0.05178582 0.16576356
0.068222456 0.1930043 -0.09873278 -0.0023347267 -0.0055185743 0.047279056 -0.17440952 0.084040925
0.049446467 -0.031376593 0.07172996 0.009402277 0.07647322 -0.116790995 -0.05586015 -0.19203947
-0.15746787 0.058249675 0.04239218 -0.05536872 -0.019087939 -0.11769853 0.08154119 -0.104649246
0.05125502 -0.030523898 0.11831541 -0.13717538 0.07971017 -0.006941355 0.092572846 -0.026439635
00000000: 9a46 283e cc6f 053e af8e 02be e1b9 93bb
00000010: 75c9 393d de27 5b3e 5f04 573e 195c 393e
00000020: 4a0a c83b 51be f3bd cc93 c6bd 5dc8 d43b
00000030: 8fcf da3c 3538 173d 69a3 a3bd 8b4c a73d
00000040: 3fd5 193e bde2 b8bc 6f25 4b3e 1920 0c3e
00000050: 3a1d 2f3d 81df 61bd 8a03 efbd e23b dfbd
00000060: 024c 1abe 068e 013e 200c 463e f193 643e
00000070: 741f 323e dac5 363e a389 bfbd 2a57 6e3c
00000080: 3fab dabd f070 d73d 3753 be3d fccc 413c
00000090: 88ce 54bd 5dbf 233e 9b61 0cbe bd13 b8bd
000000a0: 4831 573d 586b 1f3e c7b1 87bd 760e 6b3d
000000b0: 89dd 09be 02f1 353d dbb1 1c3e e64a 003e
000000c0: e9a7 cdbd 813f cb3d b10a 053e ac82 253e
000000d0: fe1b ca3d 0b8b 7d3d e3b6 35be 165c 573d
000000e0: 61d3 06be bbcc 21bc 3585 633d 0b17 0e3e
000000f0: 1c2a b63d 0f0f e3bc 50a5 88bb 90bc 133e
00000100: dcd5 de3d 940f 8fbd 75b7 a53b 8362 7abc
00000110: 2bc6 8e3d 69f2 ddbc acb1 a13c 4b6d 1f3d
00000120: 05f5 173e 5eef eebc 94e4 9fbb 0acc 0bbe
00000130: 58fa 0dbc 6e27 21be 0423 ba3c 95fb 9f3d
00000140: b252 223e e647 553d d35b 0b3c c5c3 89bd
00000150: 5095 753e f683 adbd a0ad 2a3e 4b3c 253e
00000160: c8da 31be cc66 fb3b 4bc0 ce3b 34dc 5cbd
00000170: f4d4 80bd e677 f13d 5e1d 543d ecbd 293e
00000180: 37b8 8b3d eba2 453e 6934 cabd 3702 19bb
00000190: 28d5 b4bb afa7 413d 6998 32be a61d ac3d
000001a0: 6188 4a3d be84 00bd 28e7 923d 020c 1a3c
000001b0: fe9d 9c3d 1e30 efbd 9dcd 64bd ffa5 44be
000001c0: 423f 21be 3697 6e3d 6ca3 2d3d 50ca 62bd
000001d0: 4f5e 9cbc ed0b f1bd 11ff a63d 5852 d6bd
000001e0: c9f0 513d 410d fabc 5a4f f23d b477 0cbe
000001f0: 163f a33d 4e74 e3bb d596 bd3d ef97 d8bc

fc2.weight f4 [1, 128]
-0.01122249 -0.091541484 0.06839901 -0.017630855 -0.009632534 -0.12610123 -0.13195592 0.073239975
0.10565764 0.012074798 -0.01225326 -0.13029455 0.10872519 -0.09834296 0.07361728 -0.012700097
-0.045456655 0.088467024 -0.062981956 -0.1215504 -0.104879044 -0.07883343 -0.12465106 -0.0656976
0.087640725 -0.09476421 -0.055348042 -0.059391145 -0.13010882 -0.13774632 -0.086511284 0.060427282
-0.18755741 0.0924418 0.11784889 0.025924226 0.06518122 0.0708937 0.050076485 -0.04401896
-0.08801911 -0.09004299 0.07416314 -0.09483511 -0.10719538 0.08619203 0.089077085 -0.012618879
0.13239042 -0.11458148 0.06412135 0.12730584 -0.013511409 -0.06366736 0.13504466 -0.07657492
0.09660037 0.11883578 -0.08152217 -0.042649157 -0.17279771 -0.030763915 0.14674374 -0.08941345
-0.1737221 0.023422623 -0.042619973 0.048283894 -0.10176906 -0.111084074 0.106403686 -0.113382615
0.054607145 -0.085029505 -0.04289692 0.064799264 -0.09250673 0.13790774 -0.20650406 -0.0846357
0.050151866 0.04682867 0.01004471 -0.07212366 -0.11890755 0.12352174 -0.030040726 0.13227482
0.09718095 -0.06731561 -0.053752348 0.1296262 -0.05479866 0.09761623 -0.094640374 -0.09518986
-0.071293265 -0.11947118 0.10981697 0.049588386 0.04573955 -0.019594284 0.044522952 -0.02586573
-0.15523453 0.08853338 0.077399395 -0.059191383 0.04662498 -0.16295138 0.089522116 0.049456023
-0.052841146 -0.11607628 -0.05689683 0.03152933 -0.061063983 -0.11438058 -0.046969395 0.12547997
-0.16232215 0.038085107 -0.08132905 -0.014658342 0.109964676 -0.13586573 0.063453384 -0.053329967
00000000: 89de 37bc 1a7a bbbd c814 8c3d 956e 90bc
00000010: c7d1 1dbc ae20 01be 741f 07be d7fe 953d
00000020: 0863 d83d 60d5 453c e6c1 48bc ef6b 05be
00000030: 50ab de3d 0968 c9bd a8c4 963d 1114 50bc
00000040: c230 3abd 332e b53d affc 80bd 6bef f8bd
00000050: d3ca d6bd 6c73 a1bd 0e49 ffbd 778c 86bd
00000060: fb7c b33d bd13 c2bd a1b4 62bd 2144 73bd
00000070: 3f3b 05be 5f0d 0dbe d42c b1bd 9982 773d
00000080: 0d0f 40be 2052 bd3d c25a f13d 0b5f d43c
00000090: bb7d 853d b730 913d 001d 4d3d 3a4d 34bd
000000a0: 5d43 b4bd 7668 b8bd d8e2 973d e938 c2bd
000000b0: 4089 dbbd 7285 b03d 0c6e b63d 6abf 4ebc
000000c0: 5b91 073e b2a9 eabd 0e52 833d 765c 023e
000000d0: f55e 5dbc 0864 82bd 2649 0a3e 50d3 9cbd
000000e0: 6ad6 c53d 2c60 f33d 18f5 a6bd e2b0 2ebd
000000f0: e2f1 30be 9b04 fcbc fe43 163e 661e b7bd
00000100: 35e4 31be cde0 bf3c 4892 2ebd 55c5 453d
00000110: 4c6c d0bd 0c80 e3bd 2dea d93d 2535 e8bd
00000120: beab 5f3d f323 aebd aeb4 2fbd 7ab5 843d
00000130: 2b74 bdbd b037 0d3e cd75 53be 7b55 adbd
00000140: 0b6c 4d3d 6bcf 3f3d 9192 243c 92b5 93bd
00000150: cd85 f3bd f7f8 fc3d f817 f6bc 0d73 073e
00000160: ce06 c73d c4dc 89bd 6c2b 5cbd bbbc 043e
00000170: 8f74 60bd 05eb c73d d0d2 c1bd e7f2 c2bd
00000180: 3402 92bd 4ead f4bd b8e7 e03d 311d 4b3d
00000190: 6559 3b3d 3184 a0bc b35d 363d 5ee4 d3bc
000001a0: cdf5 1ebe fd50 b53d 9383 9e3d aa72 72bd
000001b0: d6f9 3e3d badc 26be 5f57 b73d 6692 4a3d
000001c0: f56f 58bd 67b9 edbd a70c 69bd e624 013d
000001d0: 3a1e 7abd 5e40 eabd fb62 40bd d27d 003e
000001e0: c737 26be 21ff 1b3d d88f a6bd 8b29 70bc
000001f0: 2935 e13d 6320 0bbe d9f3 813d 8670 5abd
