runs/3_agents_50000_episodes_mlp/models/actor_mlp.pth (torch, 25312 bytes, 4 tensors)

layers.0.weight f4 [128, 6]
000000 19 1c 8d bd cc 82 86 3e a9 24 39 3e 8c c1 ad bc
       -0.06890125 0.26271665 0.18080391 -0.021210454
000010 7d 60 2c be 6b 6f f1 3d 99 81 ab bd 16 47 9f be
       -0.16833682 0.117888294 -0.08374328 -0.31108922
000020 b8 a3 f2 3d c9 bb ca 3d 01 4e 04 3e 2f 06 a1 3e
       0.11847633 0.098990984 0.12920381 0.3145003
000030 52 94 a7 3e 87 6d 39 3e 81 e5 bb be 7e b2 84 3d
       0.32730347 0.18108188 -0.36698535 0.06479357
000040 93 62 a9 3d da 79 0b 3e 23 59 32 be 62 c8 d4 bd
       0.08270755 0.13620701 -0.17416815 -0.103897825
000050 c5 8a d6 3d 0b bd 23 be ea 36 83 3e 85 06 70 3e
       0.10475687 -0.15990083 0.25627834 0.23439987
000060 bf da 42 be 03 a6 29 3e e0 0c 4b 3e 23 d2 ac be
       -0.19028758 0.16567235 0.1982913 -0.33754072
000070 25 f9 74 bd 91 53 88 3e 60 dd 9a 3e f9 ea 70 be
       -0.059807915 0.26626256 0.3024702 -0.23527135
000080 b7 6d 9e bd 36 98 c5 3e 5d f3 2d 3e 24 ef 3c be
       -0.0773577 0.3859269 0.16987367 -0.184506
000090 ec 7e a0 3e 78 ae 61 be b1 c7 ca bd 5d 6a ab 3e
       0.31346834 -0.22039211 -0.09901369 0.33479586
0000a0 cf 92 be be 66 14 9a 3d f1 53 86 3e a6 1f 03 3e
       -0.3722138 0.07523422 0.26235917 0.12805042
0000b0 6d 6d 22 3e dd 07 a2 be b7 f7 39 be fc cf 81 3e
       0.15862055 -0.31646624 -0.18160902 0.25353992
0000c0 c0 86 29 be 87 02 c4 3e 75 0c 9b be b4 67 98 be
       -0.1655531 0.38283178 -0.3028294 -0.2976662
0000d0 b5 a6 09 3e bc aa 0e 3f bc 92 c7 3e 91 14 0c be
       0.134425 0.5572927 0.38979137 -0.1367972
0000e0 c2 4d 99 bd 21 c9 15 3e 75 9f f6 be b2 82 9b 3d
       -0.07485534 0.14627506 -0.4816853 0.075932875
0000f0 91 ed 55 3e b5 a5 c1 3e dd a5 99 be 53 84 72 be
       0.20891406 0.37821737 -0.30009356 -0.2368329
000100 f4 37 84 be 00 ec f1 be 4a d2 28 3d e4 0c 47 bd
       -0.2582394 -0.47250366 0.041216172 -0.048596278
000110 9a 5c 62 3e a5 ab f1 3d 12 76 45 3a fd c9 7d be
       0.22105637 0.11800317 0.00075325475 -0.24784084
000120 e7 64 94 be bc d2 c2 be 58 c7 35 be 4e 96 ba 3e
       -0.28983232 -0.38051403 -0.17751825 0.36442798
000130 5e 83 99 be f5 66 68 3e 51 82 94 3e 8f ff 6f be
       -0.29983038 0.22695525 0.29005674 -0.23437332
000140 e2 b7 de 3d 6f 9c 20 3e 95 e8 06 3e 34 8c 14 bd
       0.108749166 0.15684675 0.1317466 -0.03626652
000150 a7 6e 9f be a5 f6 bd 3e 99 85 df 3c ae ee 03 bd
       -0.3113911 0.37102237 0.027285384 -0.032210045
000160 21 5f a1 be 4b dc a2 3e f6 b1 ab 3d 79 22 7e ba
       -0.3151789 0.31808695 0.08383553 -0.0009694468
000170 24 c2 b1 3e b0 8a 6a be d3 c6 95 be 30 23 86 3d
       0.3471843 -0.22904468 -0.29253253 0.0654968
000180 39 ad 9f be 28 29 0b 3e 4e d6 63 be 97 85 72 be
       -0.31186846 0.13589919 -0.2224972 -0.23683773
000190 6b a4 8d 3e 80 22 cb be 83 f1 69 3d 65 5e 47 3d
       0.27664503 -0.3967476 0.05711509 0.048674006
0001a0 47 cd 34 be bf ad 26 be d7 32 72 be 43 13 08 3e
       -0.17656432 -0.16277216 -0.23652206 0.13288598
0001b0 ea 9f 48 be 99 9f 4c 3e ef 08 fc bd 12 bf be 3e
       -0.19592252 0.19982757 -0.123063914 0.3725515
0001c0 de c7 82 3e df db 4e 3e 53 04 8c be cf 82 83 bd
       0.25543112 0.20201062 -0.2734705 -0.06421434
0001d0 01 5e 43 3c 3a 73 51 3e af a8 90 be 89 30 47 bd
       0.011924268 0.20454112 -0.28253695 -0.04863027
0001e0 ec 8c e2 bc ec a6 63 3e fd ca b8 3e 83 34 9a 3e
       -0.027655087 0.22231644 0.36092368 0.30118188
0001f0 09 f9 02 3f 45 27 a1 3c f9 5e e8 bd 2f d0 84 3e
       0.5116125 0.019672045 -0.113462396 0.2594008
000200 f4 10 b9 3e 48 60 8f 3e d5 c0 c4 3e 5a 8c eb be
       0.36145747 0.28003144 0.3842837 -0.46005517
000210 40 7e bc be 6b be 2f be a7 7f c0 3e 1d b3 e5 3b
       -0.3681507 -0.17162482 0.3759739 0.0070098774
000220 78 b1 35 3e 6f 10 90 3e e0 dd a6 be 24 27 a2 3d
       0.1774348 0.28137538 -0.32591152 0.07917622
000230 15 90 9d be 82 43 99 be 87 5a a2 3e 55 f8 16 bd
       -0.30773988 -0.29934317 0.31709692 -0.03685792
000240 43 d6 99 3c db be b0 be 5a b4 ba 3d 5d f4 ad be
       0.018778926 -0.3452061 0.091164306 -0.33975497
000250 b4 11 9d be c2 4f b6 bd ea 68 9d be 40 37 b6 be
       -0.3067757 -0.08901931 -0.30744106 -0.35589027
000260 01 7d 1f be 16 79 51 be 01 0d 81 3c 8b ac 02 3e
       -0.15575029 -0.20456347 0.015753271 0.12761132
000270 5b a1 3d 3e 81 25 07 bd 0f 02 c5 be c4 a4 a1 bd
       0.18518583 -0.03299475 -0.38478133 -0.07892755
000280 5b ec af be 2b 65 cb be 42 13 af 3e 55 d9 73 be
       -0.34360012 -0.39725623 0.3419438 -0.23813374
000290 bf 29 3c 3e 4d d1 4b 3e 25 06 7c bc da a8 ef 3d
       0.183753 0.1990406 -0.015382324 0.11702128
0002a0 8c 32 88 bd bb b3 64 3e 4b b6 a5 3e e3 e3 94 3d
       -0.06650266 0.22334187 0.3236564 0.072700284
0002b0 74 ac ba be 15 88 6c be b3 6e ac 3e c7 0e 8a bd
       -0.36459696 -0.23098786 0.33678207 -0.067411
0002c0 3e 71 a4 3d d8 c4 a3 be 4c 1e d6 3e 7b e9 f5 be
       0.08029412 -0.31986117 0.4181999 -0.48029694
0002d0 59 b2 55 3e fc 5f 4b bd 87 ea a5 be 89 d6 d2 bd
       0.20868815 -0.049652085 -0.32405493 -0.102948256
0002e0 7b 47 da be 10 57 e5 3e 16 a8 70 3e 6b 32 a9 be
       -0.4263266 0.44792986 0.2350162 -0.33046278
0002f0 cb c7 ac be 05 95 c8 be 39 1a 41 3e 6d 6c 54 3e
       -0.3374618 -0.39176193 0.1885766 0.20744486
000300 1b c6 cd bc df 25 a3 3e 34 af 99 be 20 88 81 bd
       -0.025118878 0.3186483 -0.30016482 -0.06324792
000310 33 1e 9d be e3 c2 dd 3e 9a cb 29 3e f1 ca 4b be
       -0.30687103 0.4331275 0.16581574 -0.19901635
000320 b8 18 d6 be bb c1 16 3e 96 50 4b bd 3b 59 ec bd
       -0.41815734 0.1472234 -0.0496374 -0.11540457
000330 05 36 b9 3d d9 10 4d 3e b5 90 f5 bd c5 8d ad be
       0.090435065 0.20025958 -0.11990491 -0.33897224
000340 5a 5c e0 3e f8 c0 fc be 36 e4 06 be ae be 37 be
       0.4382046 -0.49365973 -0.13172993 -0.17943832
000350 a3 9f 9b 3e 85 49 9d 3e f2 5a 21 be 5d 86 0c bd
       0.3039523 0.30720153 -0.15757349 -0.034307826
000360 f2 ee b2 be 7c af b5 3d a2 4e a1 bd ec 2c 81 be
       -0.34947926 0.088713616 -0.07876326 -0.25229585
000370 45 95 06 3e 9a 16 96 3e 98 89 fa 3d 9d 6f 60 3e
       0.1314288 0.2931412 0.12233275 0.21917577
000380 80 e3 49 be 13 57 56 3e c1 05 ca bd 9f 99 a9 be
       -0.1971569 0.20931654 -0.09864379 -0.33125016
000390 07 b2 35 be 7b 5d c2 3d 9b ce 8a be 42 e4 ac bd
       -0.17743693 0.09490486 -0.27110752 -0.08441974
0003a0 e7 a2 1d 3e 37 02 da be bd e5 e1 3d 3a a2 39 3e
       0.15394174 -0.42579815 0.11030147 0.18128291
0003b0 09 87 71 be e6 11 91 3e 2f d6 9f be 9d 0f 12 bf
       -0.23586668 0.28333968 -0.31218097 -0.57055074
0003c0 e9 9c ba 3e 0e 9c be be 7e 72 2c be 1c 8e 37 3e
       0.36447838 -0.37228435 -0.1684055 0.17925304
0003d0 29 c8 b7 be f8 02 e7 3e 95 fd d1 be f9 b2 8c be
       -0.35894898 0.45119452 -0.4101378 -0.27480295
0003e0 26 db 4b be b6 7f b1 be 48 18 b7 3e 19 ef 5f be
       -0.19907817 -0.34667748 0.35760713 -0.21868552
0003f0 d7 80 74 3e bb a0 17 3d d1 81 93 3e 5c 73 c8 bd
       0.23877273 0.03701852 0.2880998 -0.09787628

layers.0.bias f4 [128]
000000 ce cd a7 be 7e 8f 41 3e 70 c7 b5 be 5d f3 23 be
       -0.32774204 0.18902394 -0.3550372 -0.16010804
000010 fa 9c c5 3e 26 f5 d2 3e 5b d3 c9 bd a6 0d b2 3e
       0.38596326 0.41202658 -0.09854766 0.34776038
000020 4a 44 84 3e 8a cb c0 be f3 e8 c4 3e 8c 65 25 3e
       0.2583335 -0.37655288 0.38458976 0.16152018
000030 d4 98 5b 3e 20 83 ae 3e a2 5c e6 bd 41 c6 b0 3e
       0.21445018 0.34084415 -0.11248137 0.34526256
000040 8f 11 af 3e 47 07 c4 bd f2 b9 4f be 60 ad eb 3d
       0.34193084 -0.095717005 -0.20285776 0.11507678
000050 6c ba 8a 3e 0d 65 4d be 58 e6 87 3e d5 01 d1 3e
       0.27095354 -0.20058079 0.26542926 0.4082171
000060 70 a3 85 be f2 78 a7 3e 8b e4 94 3d 61 55 83 bc
       -0.26101255 0.3270946 0.072701536 -0.016031923
000070 c5 56 a4 be 60 4b 83 3e 26 2b b7 3c 0b 49 cb 3e
       -0.3209745 0.25643444 0.022359442 0.39704165
000080 1d 37 af 3e 69 41 0f 3e c4 cf 5f 3d a5 27 c3 be
       0.34221736 0.13989796 0.0546415 -0.38116184
000090 ff 04 6e 3e f5 85 89 3e 1c 94 6a 3d c6 2e 0e be
       0.23244093 0.26860014 0.057270154 -0.1388503
0000a0 b1 6c 9c 3e 6c ce c9 bd 9f 7d 98 3d 48 6e fc 3d
       0.30551675 -0.09853825 0.07445835 0.12325722
0000b0 c2 94 83 3c 4b d4 b6 be 5b 4c 4f 3e 53 d4 ec 3d
       0.016062144 -0.35708842 0.20243971 0.11563935
0000c0 6d fb 80 be ee 5f 49 be d5 c8 63 be af fd 44 3e
       -0.25191823 -0.196655 -0.2224458 0.19237398
0000d0 c4 0c 5f 3e b6 60 81 be a5 bc 4e be af 26 ab 3d
       0.21782213 -0.25269097 -0.2018915 0.08356988
0000e0 9b 84 7c 3e 95 74 02 3e 34 66 83 3e a1 82 df 3b
       0.2465996 0.12739785 0.25663912 0.006820992
0000f0 f8 04 cc bd a7 72 9d 3e 8f 10 4a 3e 66 45 df 3e
       -0.09961885 0.30751535 0.19732879 0.43607634
000100 e6 fd b7 bd 83 b8 90 3c 39 fa 67 be 1c 24 8d be
       -0.08983974 0.017666107 -0.22654046 -0.27566612
000110 a4 d0 22 bd 2e 72 1a bd 91 50 3e 3d b6 bd 74 be
       -0.039749756 -0.037706546 0.046463553 -0.23900494
000120 98 88 02 3e 9c 0b 8c bd 68 a6 7f 3e 32 c2 9e 3d
       0.12747419 -0.06838152 0.24965823 0.077518836
000130 6d fa 6b 3e c1 3b b9 be 94 26 27 3e 7e 16 56 3e
       0.23044749 -0.361784 0.1632331 0.20907018
000140 39 4f 22 3e 70 85 1b be 4d 03 f4 3c 51 19 1a 3e
       0.15850534 -0.15187621 0.02978673 0.1504872
000150 61 00 38 be c1 d6 ab 3d 64 2c 46 3e af b6 8b 3e
       -0.17968895 0.083905704 0.19352871 0.27287814
000160 87 86 8c 3e 0a a3 bc 3b 37 34 4a be 94 01 36 be
       0.27446386 0.0057567405 -0.19746481 -0.1777404
000170 9d 4c ad 3e 46 d7 b9 3e 89 84 f6 bc 93 1b d8 3e
       0.33847514 0.36297053 -0.030092495 0.42208537
000180 d6 9f a2 be 1b e7 44 3e 64 bc 69 be 20 b0 77 3e
       -0.3176257 0.19228785 -0.22825772 0.2418828
000190 66 e1 bc 3e f4 ec 60 3e 2c dd 21 be e2 7b cc 3d
       0.36890715 0.2196539 -0.15807027 0.09984566
0001a0 52 a1 3c 3e 2e a7 87 be f1 98 b6 3e a1 6f db 3e
       0.18420914 -0.26494735 0.3566356 0.42858604
0001b0 22 6d b0 bb d7 37 05 3e 2d 98 b3 3e fa 1b 33 3e
       -0.0053841034 0.13009582 0.35077038 0.17491141
0001c0 1c 7e 2d bb b3 fb 7d be ea 8b 85 bd 60 60 b8 be
       -0.0026472872 -0.24803047 -0.06520827 -0.36011028
0001d0 be b3 38 3e eb fa dd 3e 9c 96 cf 3d d4 ce 24 be
       0.18037316 0.43355498 0.10136148 -0.16094524
0001e0 36 8b 8d be 81 8f 8b 3e 16 7a c3 be 24 c4 5a 3e
       -0.27645272 0.27257922 -0.38179082 0.21363884
0001f0 88 76 c6 3e 3c d2 b8 be e5 87 6e be ba 09 17 be
       0.38762307 -0.36097896 -0.23294027 -0.14749804

layers.2.weight f4 [38, 128]
000000 62 a3 e7 3d f4 35 6c bc dd 9c 8d bd 0c 30 b8 3c
       0.1131046 -0.01441716 -0.06914685 0.022483848
000010 03 d6 a6 3d 99 68 96 bd 6b 23 e9 bc df d4 32 bd
       0.08146288 -0.07344169 -0.028459271 -0.04366004
000020 d6 a2 93 3d fa 50 a7 3d 32 8b 66 3d b1 9d c3 3b
       0.07208793 0.08169742 0.05628509 0.005969726
000030 4d fa f2 bb 0e a5 11 3c ef fc b7 3d 63 73 00 3e
       -0.007415092 0.00888945 0.0898379 0.12544017
000040 7c a3 78 bd 3c 69 46 bb ae 7d 6e bd 20 0c 27 bd
       -0.060702786 -0.0030275127 -0.058225326 -0.040783048
000050 b2 98 02 be bf 2e 40 3c 00 1a 40 bd 13 d2 86 bd
       -0.12753561 0.011729895 -0.046899796 -0.06583037
000060 25 f6 25 3d cb 18 1b 3d d2 c8 8e bc 43 bd 93 3d
       0.040517945 0.03786544 -0.017429743 0.07213833
000070 ac 3c fa bb 38 d0 37 3b 14 e7 f8 3d b2 43 7b bd
       -0.007636627 0.0028047692 0.1215345 -0.061343856
000080 af b1 4f 3d 41 3f 86 3d 6c a5 ba bc 60 7d b3 bd
       0.05070656 0.065550335 -0.022783957 -0.08764148
000090 75 ef 8e bc 26 9d 2c 3d 09 06 d4 bc c0 9e 63 3d
       -0.017448166 0.042142056 -0.025881784 0.055571318
0000a0 44 6d 43 3d 53 7b 99 bd 55 1b 04 3e 26 57 b6 3d
       0.047711626 -0.07494225 0.12901051 0.08903341
0000b0 78 07 9e 3d 3b 6e 38 3d 1e 74 26 3c 49 f2 3b bd
       0.07716268 0.045027 0.01015952 -0.045885358
0000c0 ef 79 cb bd 6b cf a2 bd eb ff 32 bd 6c da aa 3c
       -0.09935366 -0.07949718 -0.043701094 0.020856105
0000d0 21 8a 37 bd f5 d5 13 bd b9 4d 9e bd 7f b6 28 bd
       -0.044809464 -0.036092717 -0.07729668 -0.041189667
0000e0 47 85 08 bd d9 d9 93 3d 34 20 14 bd e1 74 c9 bd
       -0.03333023 0.072192855 -0.036163524 -0.09836746
0000f0 28 a8 86 3d e9 78 2a bd 04 8c 16 bd 45 fa a7 3c
       0.06575042 -0.041619215 -0.036754623 0.02050508
000100 dd d9 2f be 4c 9b 73 3d 93 c9 09 3d 9a 98 87 bd
       -0.17172952 0.059474275 0.0336395 -0.06620903
000110 0e 7b 85 bd f0 51 95 3d 4a e2 f0 3d 17 75 27 3d
       -0.065176114 0.07291019 0.11761911 0.04088315
000120 a5 94 92 3d ae 14 9d bd 16 dd ef b9 9f 36 99 bc
       0.07157258 -0.0766996 -0.00045750354 -0.018702803
000130 8a c4 7a bd 03 4f ab bd 51 2f 92 3d 7b 6e ee 3b
       -0.06122259 -0.0836468 0.07137931 0.007276354
000140 6e b0 f1 3c 95 b5 69 3d a8 74 30 be c0 83 92 3d
       0.029503074 0.057057936 -0.17232001 0.071540356
000150 0e a5 f3 3d 0c c5 3f 3d b6 25 4a bd 9b b2 a9 3d
       0.11896716 0.046818778 -0.04935237 0.082860194
000160 2f f7 b3 bb 99 d7 34 bc 39 dc 01 3d 22 3a bb 3d
       -0.005492113 -0.011037731 0.03170416 0.09141947
000170 26 fb 0a bd c8 2a 02 bd a0 e7 6e 3d 7d c4 fd 3d
       -0.03393092 -0.03177908 0.058326364 0.12390993
000180 a2 a7 33 bd 48 da 26 3b d7 f4 aa 3d 61 ef b2 bd
       -0.04386104 0.0025459696 0.08347481 -0.08737064
000190 16 cd 90 bd 6a 63 b7 3d df 88 73 3c a6 5d 7f bd
       -0.07070367 0.089545086 0.014864176 -0.06234517
0001a0 b5 ab 8e 3c ec 8d 46 3c 60 7a a1 bd c3 f2 ba bc
       0.01741586 0.012118798 -0.07884669 -0.022820836
0001b0 8f 63 2a bd b0 72 ee 3c 32 98 56 3c 8a b7 ac 3b
       -0.041598853 0.029107422 0.01309781 0.005270903
0001c0 92 ae 87 3d c9 ba 9f 3b 71 4a 1e 3b 7a d1 55 3d
       0.066250935 0.0048745614 0.0024153257 0.052201726
0001d0 5e 98 6a bd 66 64 41 38 38 3f 03 3e f6 2d 8e bd
       -0.057274215 4.610829e-05 0.12817085 -0.0694236
0001e0 23 e7 af bd 79 dd 0f 3d 66 57 3e 3d 16 90 32 3b
       -0.08589008 0.035123322 0.04647007 0.0027246526
0001f0 7f 1b 28 bd 7e a9 6d 3d cf b3 16 bd 98 79 37 bd
       -0.041041847 0.05802297 -0.036792573 -0.044793695
000200 85 c2 18 ba 2b c4 17 3d ea 3f 2a 3d 31 53 44 3d
       -0.00058273255 0.037052315 0.04156486 0.0479309
000210 ee 81 7d bc b9 1d ab 3b 2f bd f3 bc 89 90 f4 bc
       -0.015472872 0.005222049 -0.029753296 -0.029854076
000220 a1 c6 28 bd 73 e5 08 3c 47 0b 62 bd 65 1f 94 bd
       -0.041205052 0.008355486 -0.055186536 -0.072325505
000230 18 15 27 bd 3c 0c d3 bd b2 dd ef 3d 01 6f 91 3d
       -0.0407916 -0.10305068 0.11712207 0.071012504
000240 ed b0 8d bb 8b 16 3f bb 62 6e 4b 3b 0e fa de bc
       -0.0043240697 -0.0029157724 0.0031041135 -0.027218845
000250 c0 19 03 be c2 30 4c bc a3 18 93 3d 15 2d 60 bd
       -0.12802792 -0.012462797 0.071824335 -0.054730494
000260 e6 b7 49 bd 5b ac 56 3d ca e5 18 bd ca a4 4c 3d
       -0.049247645 0.052410465 -0.03732852 0.049961843
000270 21 61 82 bd 86 d1 79 bd 77 38 0e 3d fd 02 79 bd
       -0.06366182 -0.060990833 0.034721818 -0.060793865
000280 d7 88 c2 bc b9 79 b5 bd 04 5f 87 bd 74 6d 99 3d
       -0.023746891 -0.088611074 -0.0660992 0.0749158
000290 5c 40 19 bd d4 3d 1b 3d e3 9b 89 bd 69 35 09 3d
       -0.037414894 0.03790076 -0.06719186 0.0334982
0002a0 a1 aa a6 3d 9a 16 d2 bc 52 40 1c bd b1 46 72 bc
       0.08138014 -0.025645543 -0.038147278 -0.014787362
0002b0 d8 aa 91 bd 12 8d 86 3a 9d 49 b2 3d 5b ea b5 3c
       -0.07112664 0.0010265431 0.08705447 0.022206476
0002c0 5e f3 24 bd 39 3d 9a bd 23 74 f3 3c 64 25 4b be
       -0.040271156 -0.075312085 0.029718464 -0.19838482
0002d0 23 8b b8 bc 78 60 12 bd 63 7a 92 bc f5 e2 1e 3d
       -0.022527283 -0.03573653 -0.017880624 0.03879066
0002e0 4a 31 e4 3c 8d cc 8d 3d a2 b8 71 3d 30 ca 23 bd
       0.027855534 0.069237806 0.05901397 -0.039987743
0002f0 36 25 5a 3d fc 1b 22 3d d0 79 5e bd 69 85 96 3c
       0.053258143 0.03957747 -0.05431539 0.018374162
000300 a6 cd 1c bd 2e 01 53 3d 3f c7 70 bb 23 82 80 3d
       -0.03828206 0.051514797 -0.0036739854 0.062748216
000310 5e 36 9c 3d 1b 66 90 bd 0e ac 8c bd 11 20 3f bd
       0.07627557 -0.07050725 -0.06868754 -0.04666144
000320 b5 d0 a1 bd f3 e8 82 bd 30 8e 1d bd ac 85 69 bd
       -0.07901136 -0.06392088 -0.03846568 -0.057012245
000330 ba f7 dc bc 56 fb 9a bd 68 61 00 3d d6 e5 67 bd
       -0.026973594 -0.0756747 0.031342894 -0.056615673
000340 fe 04 91 3d 32 7a 68 3d 34 b0 7a bd a0 3d 95 bd
       0.0708103 0.05675716 -0.061203197 -0.07287145
000350 7f 09 83 3d b3 f5 ee bc 73 74 74 3d 35 35 9a bd
       0.063982956 -0.029169893 0.059681367 -0.0752968
000360 b7 5a 03 be e6 ed c0 bd 0b f9 ea 3c 55 1f 7e 3d
       -0.12827574 -0.094203755 0.028683206 0.0620416
000370 df 45 32 3d 3d 8f a2 ba a2 7f bf 3c 76 25 37 3c
       0.043523666 -0.0012402307 0.02337629 0.011178365
000380 d2 9c 90 bc 42 54 24 bb 6b e1 a9 bd b2 ee 07 be
       -0.017652903 -0.0025074636 -0.08294948 -0.13274649
000390 02 30 3e bd 74 17 7c 3d d0 d4 b8 3c 01 d7 3b bd
       -0.046432503 0.061545804 0.022562414 -0.04585934
0003a0 7e 7f 86 3d 9b ad 60 3c 52 2d 03 bd 7e 8f c6 bd
       0.06567286 0.013713266 -0.032025643 -0.09695338
0003b0 ed 5c b2 3d 6b 7b 23 be 05 17 8b 3d 2d c7 9a bd
       0.087091304 -0.15965049 0.067915 -0.07557521
0003c0 e8 27 ab 3d d8 78 01 3d 46 a1 ce 3c 67 38 85 bd
       0.08357221 0.031609386 0.025223386 -0.065048985
0003d0 82 35 39 3d 8a a5 b4 3d be cc 05 bd a0 7e c3 bd
       0.045217045 0.088206366 -0.03266596 -0.09545636
0003e0 a1 31 cb 3b 94 13 80 39 0f a3 24 bd 3f 18 ed 3c
       0.0062009846 0.0002442865 -0.040194567 0.028942226
0003f0 63 8c 6f bd 16 cb fb 3c 7b 95 74 3d a4 ac c9 3c
       -0.058483493 0.030736487 0.05971287 0.024618454

layers.2.bias f4 [38]
000000 68 e8 2c 3d 05 0b 7b 3d 6b 8d f9 bc e1 55 dd bd
       0.042213827 0.061289806 -0.030462941 -0.10807396
000010 f2 0d ca bd a3 92 69 3d a9 b1 97 3d e0 aa 4d 3d
       -0.09865941 0.05702461 0.07406933 0.050211787
000020 22 25 27 3d 85 9c 7e 3d 6c b3 8d bd 1e d0 b4 bd
       0.040806897 0.062160987 -0.06918988 -0.08828758
000030 7a 78 de bd fb 34 e4 3d ae 21 bc bd 8f 79 6d bd
       -0.10862823 0.11142918 -0.091861114 -0.057977255
000040 54 9e 3f bc 16 bd c2 bd d4 d7 1c 3b fc 7b 11 3d
       -0.011695463 -0.095087215 0.0023932355 0.03551863
000050 7e c2 88 bd e4 19 02 bd c7 28 8c bd f8 14 6c bd
       -0.066777214 -0.031762972 -0.06843715 -0.057637185
000060 df 2b b9 bd c1 0d 26 bc bb e3 eb 3d 46 8a 6d bd
       -0.09041571 -0.010135115 0.115180455 -0.057993196
000070 37 79 f6 bc 43 44 56 3d 34 25 96 bd 9e 08 d3 3a
       -0.030087097 0.052311193 -0.07331315 0.0016100591
000080 c6 bc 76 bd 87 95 19 bb d7 fb a7 bc 6c 88 03 bd
       -0.060238622 -0.0023435073 -0.020505829 -0.032112524
000090 f9 29 ac bd cb 1a a3 3d
       -0.08406443 0.07964095
