runs/3_agents_50000_episodes_mlp/models/actor.pth (torch, 26432 bytes, 4 tensors)

fc1.weight f4 [128, 38]
0	0x3d8ac68b	0.0677615
1	0x3d8c37a7	0.06846552
2	0x3d35659d	0.04428636
3	0x3e15f82b	0.1464545
4	0xbdff50c2	-0.12466575
5	0x3e239076	0.15973076
6	0xbdfa6881	-0.12226964
7	0x3d7e298a	0.062051333
8	0x3c93fe69	0.018065648
9	0xbc9a1e54	-0.01881329
10	0xbda6e632	-0.08149375
11	0xbd98fdda	-0.07470293
12	0x3e164fb5	0.14678843
13	0xbdc34b33	-0.095358275
14	0x3d5c6706	0.05380919
15	0x3d15cd72	0.03657288
16	0xbda5dd10	-0.08098805
17	0xbdc8f235	-0.09811822
18	0x3dc3aa9f	0.09554028
19	0x3d4be6cb	0.04978065
20	0x3dabe8c5	0.08394007
21	0xbdd63aa7	-0.10460406
22	0x3cd05eaa	0.025435764
23	0xbe140704	-0.14455801
24	0x3ca36d1f	0.019949494
25	0x3c222209	0.00989581
26	0x3da54daf	0.080714576
27	0x3e002f50	0.12518048
28	0xbdd3f2b5	-0.10349027
29	0xbd9c97de	-0.07646154
30	0xbdc05a7a	-0.09392257
31	0x3c07a69a	0.008279467
32	0xbdcd6f42	-0.10030986
33	0xbcdc41a6	-0.026886772
34	0x3dd4b265	0.103855886
35	0x3e1c0e8f	0.15239929
36	0x3e20370e	0.15646002
37	0x3dcf2bed	0.101158
38	0xbca51287	-0.020150436
39	0xbdbab32b	-0.09116205
40	0x3c0bcd32	0.008532809
41	0x3dddc928	0.10829383
42	0x3b275653	0.002553363
43	0x3df84b45	0.121237315
44	0x3df3f9d1	0.11912883
45	0xbdee671e	-0.11640762
46	0xbd6fdcdd	-0.05856024
47	0x3d867bc6	0.06566577
48	0xbe1a9002	-0.15093997
49	0xbd456262	-0.04818953
50	0xbe04c5af	-0.12966035
51	0x3dff2c37	0.12459605
52	0xbc67b0a7	-0.014141238
53	0x3da68c17	0.08132189
54	0x3d828215	0.063724674
55	0xbe0cc0ea	-0.13745466
56	0x3d882405	0.06647495
57	0x3df44c9a	0.11928673
58	0x3cd31c48	0.025770321
59	0x3c9dceae	0.019263592
60	0xbd71a9f3	-0.058999967
61	0xbd388e1e	-0.04505741
62	0x3d6b3770	0.057425916
63	0x3e1ab105	0.1510659
64	0x3ca92425	0.020647118
65	0xbc869b86	-0.016431581
66	0x3d6e4803	0.058174144
67	0xbe20e809	-0.15713514
68	0x3de6eeea	0.11276038
69	0x3c6561f2	0.014000403
70	0xbda4473d	-0.080214
71	0x3e017d4a	0.1264545
72	0x3d19c75d	0.037543643
73	0x3e03fb34	0.12888795
74	0x3d47e743	0.048804533
75	0x3e18935d	0.14899965
76	0x3d81241a	0.06305714
77	0x3dc51e59	0.09624929
78	0x3a10d551	0.00055249507
79	0xbc8716bd	-0.016490335
80	0xbe0d588c	-0.13803309
81	0x3dde3857	0.1085059
82	0x3c5edf4b	0.013603042
83	0x3d2c587b	0.04207657
84	0x3bcafc05	0.006194594
85	0xbe0ceda0	-0.13762522
86	0xbd8807ee	-0.066421375
87	0x3db07115	0.08615319
88	0xbd24b748	-0.040213853
89	0x3d8e4ff3	0.06948843
90	0x3c852d78	0.016257033
91	0xbd14c0fe	-0.036316864
92	0x3e0a1c6e	0.13487408
93	0x3e18d245	0.14923961
94	0x3df9b384	0.12192443
95	0x3dae103d	0.08499191
96	0x3a5f3b13	0.00085155776
97	0xbe10aba1	-0.14127971
98	0xbd038dc2	-0.032117613
99	0xbe089b01	-0.1334038
100	0x3d8fc72e	0.070204124
101	0x3da54be3	0.08071115
102	0x3d90ab03	0.07063868
103	0x3c6e61c1	0.014549674
104	0x3dd56972	0.10420503
105	0x3e2098ca	0.15683284
106	0x3df7df5e	0.12103151
107	0xbd167a7e	-0.03673791
108	0xbd9f083c	-0.077652425
109	0x3d840f00	0.064481735
110	0xbe294d73	-0.16533451
111	0x3d359e72	0.04434056
112	0x3d4b1b3c	0.04958652
113	0x3e0f10d3	0.13971262
114	0x3e25392c	0.1613509
115	0x3e0e6bb7	0.13908277
116	0xbd53b502	-0.051686294
117	0x3e183723	0.14864783
118	0x3de82d9c	0.11336824
119	0xbc7ed674	-0.015554059
120	0xbde3f11d	-0.11129973
121	0xbd6ce00b	-0.05783085
122	0x3db7d13d	0.08975456
123	0x3d1fab5e	0.038981788
124	0xbc8e99d0	-0.017407328
125	0x3d14cb11	0.03632647
126	0x3e0711d7	0.13190399
127	0x3dc0f847	0.09422355
128	0x3c0230dc	0.007946219
129	0xbd6b05b7	-0.057378497
130	0x3de3c582	0.11121656
131	0x3d7bc252	0.061464615
132	0xbd2e56a1	-0.042563085
133	0xbd8f19f3	-0.06987371
134	0x3d17cf0d	0.037062693
135	0xbca5ebff	-0.020254133
136	0x3d34aa89	0.044107947
137	0xbdbb3015	-0.0914003
138	0x3d8217db	0.06352206
139	0x3c3c940f	0.011509909
140	0x3e07bd7d	0.13255878
141	0x3c790f23	0.015201363
142	0xbda8b90c	-0.0823842
143	0x3d6bd67c	0.057577595
144	0x3d680a38	0.05665037
145	0x3dc42008	0.09576422
146	0x3d1e4b39	0.038645957
147	0xbdc1f775	-0.09471027
148	0xbcc2bfa9	-0.023773031
149	0xbc55bb6f	-0.013045176
150	0xbe0c09da	-0.13675633
151	0x3d530410	0.051517546
152	0xbdb2dce7	-0.0873354
153	0xbcc8b002	-0.02449799
154	0x3cb1e803	0.021717077
155	0xbdccd4ae	-0.10001503
156	0xbd48eca7	-0.049053814
157	0x3d22e77e	0.03977155
158	0x3e346321	0.1761594
159	0x3c99737d	0.018731827
160	0x3d9c95f2	0.07645787
161	0xbd68d93e	-0.056847803
162	0x3e2ca469	0.16859592
163	0x3dafbd7c	0.08581063
164	0x3e05c127	0.13061963
165	0xbdbd858a	-0.09253986
166	0x3e09b77c	0.134489
167	0x3b1f9cc6	0.002435492
168	0x3d7ab91e	0.061211698
169	0xbe1bd67b	-0.15218537
170	0x3aaa3061	0.0012984389
171	0xbbad24e4	-0.0052839387
172	0xbc9383a0	-0.0180071
173	0x3be87d2a	0.007094999
174	0x3daed4bb	0.08536669
175	0xbe337de5	-0.17528494
176	0x3e17a21f	0.14807938
177	0xbe1d9c96	-0.15391764
178	0xbc899eda	-0.01679938
179	0xbd6a0475	-0.057133157
180	0x3e3627a8	0.17788565
181	0xbdc94621	-0.09827829
182	0xbc364128	-0.011123933
183	0x3de09d2b	0.109674774
184	0x3c95d70a	0.018291015
185	0x3db2db7f	0.08733272
186	0x3e13f7c3	0.14449982
187	0x3da19664	0.07890013
188	0xbdfdd9a2	-0.12395026
189	0xbd9280ba	-0.07153459
190	0x3dd65330	0.104650855
191	0xbe02edd4	-0.12786037
192	0x3d63e0fd	0.055634487
193	0x3e064d13	0.13115339
194	0xbd9feb43	-0.078085445
195	0x3dbd1b81	0.092337616
196	0xbca75870	-0.020427912
197	0x3e0f7109	0.14007963
198	0xbe25ada5	-0.16179521
199	0xbde14384	-0.10999206
200	0xbd220162	-0.0395521
201	0x3e02a860	0.12759542
202	0xbdfc42af	-0.123174064
203	0x3d24e9b1	0.040261928
204	0x3c347e4e	0.0110164415
205	0xbc72bf50	-0.01481612
206	0x3d8f3b0c	0.06993684
207	0x3d6135db	0.054983
208	0xbe20ae50	-0.15691495
209	0x3c83d557	0.01609294
210	0x3df789b6	0.12086813
211	0xbdc224a9	-0.094796486
212	0xbdba6cb9	-0.091027685
213	0xbe1176d3	-0.14205484
214	0xbba51606	-0.005038026
215	0xbdcdb9ee	-0.10045229
216	0xbd847c9e	-0.06469081
217	0x3c4715e2	0.012151213
218	0x3dfc72e8	0.12326604
219	0xbc7091fd	-0.014683244
220	0x3ca94614	0.020663299
221	0x3ce63c9b	0.02810507
222	0x3d0a311c	0.03373824
223	0x3d007db1	0.03136987
224	0xbd8ea26b	-0.069645725
225	0x3d12c699	0.03583393
226	0xbb722743	-0.0036949671
227	0xbe02e796	-0.12783656
228	0x3d3177cc	0.043327138
229	0x3cdad16b	0.026711186
230	0x3ded8aa3	0.115987085
231	0x3c341e7d	0.010993597
232	0xbd40c4a0	-0.047062516
233	0x3d94d80d	0.07267771
234	0xbe1afd97	-0.151358
235	0xbe056e6f	-0.13030408
236	0xbc0cbdc4	-0.0085901655
237	0xbcc4b074	-0.02400992
238	0xbe02178a	-0.12704292
239	0x3d304a2f	0.043039497
240	0x3decece4	0.11568621
241	0xbda21d24	-0.079157144
242	0x3ca65f48	0.020309106
243	0xbbfed2af	-0.0077765803
244	0xbc2325f6	-0.009957781
245	0x3e1505ea	0.14553037
246	0x3bdbf20e	0.006712205
247	0x3d94934b	0.072546564
248	0x3dc12f37	0.09432834
249	0x3e1448fd	0.14480968
250	0x3cc8df75	0.024520615
251	0xbe1a0a19	-0.15042914
252	0x3e01ae52	0.12664154
253	0x3d6320e7	0.0554513
254	0xbe1ea7b1	-0.15493657
255	0x3da19706	0.078901336

fc1.bias f4 [128]
0	0xbd670b5f	-0.05640733
1	0x3d477e15	0.048704226
2	0x3bc34c90	0.0059600547
3	0x3de91007	0.1138001
4	0xbd8225c2	-0.06354858
5	0xbdb3cc89	-0.08779246
6	0xbd41e82f	-0.04734057
7	0x3ca173ba	0.019708503
8	0x3da50750	0.080580354
9	0x3c8e8b6d	0.017400468
10	0x3cea3846	0.028591286
11	0xbe12affa	-0.14324942
12	0xbddf8108	-0.10913283
13	0xbddf5f17	-0.10906809
14	0xbd8d4bb5	-0.068992056
15	0xbdc439e9	-0.09581358
16	0x3ceb676b	0.028735837
17	0x3c2b76fd	0.010465381
18	0x3d946dc0	0.07247496
19	0x3dc1f62a	0.0947078
20	0x3db15aea	0.086599186
21	0xbd611130	-0.054948032
22	0x3e3a9402	0.18220523
23	0x3e2ee51b	0.17079584
24	0xbd8ba030	-0.06817663
25	0xbe151624	-0.14559227
26	0xbdbea984	-0.09309676
27	0xbe1f184c	-0.15536612
28	0xbdceabfe	-0.10091399
29	0x3dca3f4f	0.098753564
30	0xbe176db6	-0.14787945
31	0xbe05a2bf	-0.13050364
32	0xbdbd8dbc	-0.09255549
33	0xbb3ef7b2	-0.0029139337
34	0x3b8f2667	0.0043685916
35	0xbd925314	-0.07144752
36	0xbd0f9d4e	-0.035062127
37	0x3d3ef439	0.046619628
38	0xbb24bd2d	-0.0025137172
39	0xbdbd5ef8	-0.092466295
40	0xbddb7193	-0.10715022
41	0xbd535785	-0.051597137
42	0x3dc35a43	0.095387004
43	0xbd169b50	-0.03676921
44	0xbde41510	-0.1113683
45	0xbbf48e73	-0.0074632703
46	0xbd2de9bc	-0.042459235
47	0xbd9523f9	-0.07282252
48	0x3b4e9169	0.0031519777
49	0xbe18902b	-0.14898746
50	0xbd94bcb7	-0.07262557
51	0xbc017562	-0.007901521
52	0xbcdeb6a4	-0.0271867
53	0x3da15f20	0.07879472
54	0xbd03fa25	-0.03222098
55	0xbd823c38	-0.06359142
56	0xbdb57b66	-0.08861427
57	0xbd7202f5	-0.05908485
58	0x3e3aadaf	0.18230318
59	0xbd76d2b2	-0.06025953
60	0xbdc2b3b1	-0.0950693
61	0x3dc16a89	0.09444148
62	0x3e14e135	0.14539035
63	0x3dc094f4	0.094034106
64	0x3e0d04bf	0.13771342
65	0xbe0ae040	-0.13562107
66	0xbbdd73dd	-0.0067581967
67	0xbe1a8664	-0.15090328
68	0x3d314a22	0.04328359
69	0x3c82167f	0.015879868
70	0x3db4aeba	0.08822389
71	0x3c836963	0.016041463
72	0x3e04a853	0.12954836
73	0x3debb4e8	0.115091145
74	0x3cad724f	0.02117267
75	0x3dbb7230	0.09152639
76	0x3e0fe20c	0.14051074
77	0xbd6787d7	-0.05652603
78	0x3dbe238d	0.092841245
79	0x3d6f4fbd	0.058425654
80	0x3e111a90	0.14170289
81	0x3d6ca4a0	0.057774186
82	0x3ded94a2	0.11600615
83	0x3e1bc1d7	0.15210663
84	0xbd9ed72d	-0.07755885
85	0xbd3bd8c3	-0.045861017
86	0xbcd48e0b	-0.025946638
87	0xbda9d043	-0.08291676
88	0xbdbff76d	-0.093733646
89	0x3e14fdb6	0.14549908
90	0x3d16b106	0.036789916
91	0xbdd5d6c4	-0.10441354
92	0x3b83bc48	0.0040202476
93	0xbdb599e0	-0.0886724
94	0xbde6cd69	-0.11269648
95	0xbe156f2a	-0.14593187
96	0x3d8d1f6d	0.068907596
97	0x3d091d82	0.033475406
98	0x3e10a8c5	0.1412688
99	0xbdae3a89	-0.085072584
100	0x3d4d59ae	0.050134353
101	0x3e2d320c	0.16913623
102	0x3e2f86c5	0.17141254
103	0x3dbc5876	0.0919656
104	0xbdf412a0	-0.11917615
105	0x3d86a4ff	0.06574439
106	0x3d8df192	0.069308415
107	0xbd113aae	-0.035456352
108	0xbdb6d4c7	-0.08927303
109	0xbe0814b5	-0.13289149
110	0x3da941ba	0.082644895
111	0xbe2257c5	-0.15853794
112	0x3e0fc48a	0.14039817
113	0x3dc22fcb	0.09481772
114	0x3d86fbc6	0.06590991
115	0xbc9b3994	-0.018948354
116	0x3e509df4	0.20372754
117	0xbdcd035d	-0.10010407
118	0x3e023dab	0.12718837
119	0x3db930e6	0.0904253
120	0xbe0a0503	-0.13478474
121	0xbdb68e48	-0.08913857
122	0x3e16c9fd	0.1472549
123	0xbd9fc16a	-0.07800563
124	0x3e247f8e	0.16064283
125	0x3d7452db	0.05964933
126	0xbe01146b	-0.12605445
127	0xbcb576a9	-0.022151308

fc2.weight f4 [9, 128]
0	0xbd259307	-0.04042342
1	0x3d81d83d	0.06340072
2	0xbd8993f9	-0.06717677
3	0x3d93b703	0.07212641
4	0x3dca86d3	0.09888997
5	0xbbe72623	-0.007054107
6	0x3d9f84e5	0.077890195
7	0x3d8029b4	0.06257954
8	0xbd351716	-0.04421147
9	0xbdc0e933	-0.09419479
10	0x3d018e8c	0.031630084
11	0xbda2c793	-0.07948222
12	0x3d77b41c	0.0604745
13	0xbc58d733	-0.013234901
14	0xbcf87d1c	-0.030333094
15	0xbd80415a	-0.06262465
16	0xbd6bed89	-0.057599578
17	0x3d9dc4cf	0.07703554
18	0xbda1bb96	-0.07897107
19	0xbd81ab42	-0.06331493
20	0xbd86384f	-0.06553709
21	0x3ba838b0	0.005133711
22	0xbe0e2356	-0.13880667
23	0xbe05c4fa	-0.13063422
24	0x3d7a1506	0.061055206
25	0x3d1b336e	0.037890844
26	0xbdab5f4c	-0.08367786
27	0xbd9a1272	-0.075230494
28	0xbc6efb3d	-0.014586267
29	0xbd51e79b	-0.051246267
30	0xbc00b9de	-0.007856814
31	0x3d8ecfbe	0.069732174
32	0x3d01d044	0.03169276
33	0xbd858c0a	-0.06520851
34	0xbdc3e8cf	-0.09565889
35	0xbd593c57	-0.05303606
36	0x3d953e5a	0.07287283
37	0x3d999ea2	0.0750096
38	0xbd53fcda	-0.05175481
39	0x3d819f52	0.06329216
40	0x3d62ea65	0.055399317
41	0x3d9f8249	0.07788522
42	0xbd4cecfe	-0.0500307
43	0xbd5ec988	-0.054391414
44	0x3ca4c22c	0.02011212
45	0x3d26c9eb	0.040719908
46	0x3da0a26a	0.07843478
47	0x3d714fa2	0.058913834
48	0xbdfddb3f	-0.123953335
49	0xbe156e9d	-0.14592977
50	0xbe2c68fe	-0.16836926
51	0x3d608d32	0.054822154
52	0xbd98b21f	-0.07455849
53	0xbe055b49	-0.13023104
54	0x3d6a3a2c	0.057184383
55	0xbc5e17dc	-0.013555493
56	0xbd89177d	-0.06693933
57	0x3d87e185	0.06634811
58	0xbde19e3f	-0.11016511
59	0xbcbc3b84	-0.022977598
60	0xbd82951c	-0.063760966
61	0x3c6d28cf	0.014475062
62	0xbd14aa85	-0.036295433
63	0xbc877f8e	-0.016540315
64	0xbca175fd	-0.019709582
65	0x3d681198	0.056657404
66	0xbe1466f7	-0.14492403
67	0x3d6e792b	0.058221024
68	0xbdaf4ff2	-0.0856017
69	0xbdc6580d	-0.09684763
70	0xbd55bcff	-0.052182194
71	0xbd24796a	-0.040154852
72	0x3c8e4347	0.017366065
73	0xbdcb663f	-0.09931611
74	0xbda1eac4	-0.07906106
75	0x3d2f0b18	0.04273519
76	0xbd6e6367	-0.058200266
77	0xbcc3672a	-0.023852903
78	0xbd99a929	-0.07502968
79	0xbdd9e219	-0.10638828
80	0xba9b8e7f	-0.0011868029
81	0x3d958101	0.07299996
82	0xbcffde24	-0.031233855
83	0x3cf16d9e	0.029471215
84	0x3d23741d	0.039905656
85	0xbe006664	-0.12539059
86	0xbc9da3a8	-0.019243076
87	0x3d1ca920	0.038247228
88	0x3d43ee5c	0.04783474
89	0x3c8e3f1e	0.017364081
90	0xbd3b06fc	-0.045660958
91	0xbd9ad793	-0.07560649
92	0xbd90b200	-0.07065201
93	0xbd8490db	-0.064729415
94	0x3d841487	0.06449228
95	0xbd98d0e5	-0.074617185
96	0x3ca6a6d0	0.020343214
97	0xbd4d9c27	-0.050197747
98	0x3dcbacbc	0.09945056
99	0x3db14791	0.08656228
100	0xbe03ca2f	-0.12870096
101	0x3cfce236	0.030869585
102	0xbcdff6ed	-0.027339423
103	0xbe2a1ea6	-0.16613254
104	0xbd42aa65	-0.047525782
105	0x3c60adcd	0.013713312
106	0x3d66dc0b	0.056362193
107	0xbe25559c	-0.16145939
108	0xbdaf2b9d	-0.085532404
109	0xbd6f2547	-0.05838516
110	0xbc07ce1f	-0.008288889
111	0x3d94397d	0.072375275
112	0xbe253bd3	-0.16136102
113	0xbe080ebd	-0.13286872
114	0xbd4c363c	-0.04985641
115	0xbd75ad36	-0.05997964
116	0x3ddb4841	0.10707141
117	0x3dcf253b	0.10114523
118	0x3d886488	0.066598
119	0xbd824a6a	-0.063618496
120	0xbd119ac2	-0.03554798
121	0xbcd8d697	-0.026469512
122	0xbd186180	-0.03720236
123	0x3c8cdd07	0.017195238
124	0x3d7f9346	0.06239631
125	0xbdc0e229	-0.094181366
126	0xbe12fd02	-0.14354327
127	0xbd43842d	-0.047733475
128	0x3daaf6a7	0.083478265
129	0xbd491322	-0.049090512
130	0x3ce61d4e	0.028090145
131	0x3da4985a	0.08036871
132	0xbd0b0394	-0.03393896
133	0x3d02469c	0.03180562
134	0xbce1a549	-0.027544634
135	0x3c70a9ed	0.014688951
136	0xbe051aa6	-0.12998447
137	0x3c3d9266	0.011570549
138	0x3d2ae31f	0.041720506
139	0xbda3f685	-0.08006004
140	0x3dda7e99	0.10668678
141	0x3d66b9bc	0.056329474
142	0xbcc7d9f1	-0.024395915
143	0xbe34e78a	-0.1766645
144	0x3cddb389	0.027063148
145	0x3de76922	0.11299349
146	0xbd2209fa	-0.039560296
147	0x3d9dd0ee	0.07705866
148	0xbdb56381	-0.088568695
149	0x3c49f2d6	0.012325963
150	0xbcac495d	-0.021031076
151	0x3bbc8bd3	0.005753973
152	0x3d7339f5	0.059381444
153	0x3d0e68da	0.034767963
154	0xbce74443	-0.028230792
155	0x3d8909c8	0.06691319
156	0xbdacbb37	-0.08434146
157	0x3ca3abcf	0.019979386
158	0x3caab0b7	0.020836217
159	0x3db2e0c8	0.0873428
160	0xbcfec427	-0.031099392
161	0x3cc94028	0.024566725
162	0xbe4831cd	-0.19550247
163	0xbc3eacca	-0.011637876
164	0x3c85bf4d	0.01632657
165	0x3cf5c28d	0.029999996
166	0x3d804c68	0.06264573
167	0x3c821fe8	0.015884355
168	0xbc94cd43	-0.018164283
169	0xbd578cbb	-0.052624445
170	0xbd11128e	-0.035418086
171	0xbe404127	-0.18774854
172	0xbb6f56b7	-0.0036520192
173	0xbd61471e	-0.054999463
174	0xbd344bf0	-0.044017732
175	0x3d54cc3a	0.051952578
176	0xbd930c3b	-0.07180067
177	0xbdb4b6fe	-0.088239655
178	0xbe52b1a5	-0.20575579
179	0x3ca3fc4e	0.02001777
180	0x3d117043	0.03550745
181	0xbdd6fc30	-0.1049732
182	0xbd92548d	-0.07145033
183	0xbd9dd721	-0.07707048
184	0xbdfab413	-0.12241378
185	0x3dc061f5	0.09393684
186	0x3d884bf0	0.06655109
187	0xbcff0a1c	-0.03113275
188	0x3d59c75a	0.053168632
189	0x3c0567d7	0.008142433
190	0xbd36ae7c	-0.044599995
191	0xbc896145	-0.016770015
192	0xbcbdb678	-0.023158297
193	0xbd9049d3	-0.07045331
194	0xbd6b4e21	-0.057447556
195	0x3d1a02a2	0.037600167
196	0x3d9ca210	0.076480985
197	0xbdc7e530	-0.09760511
198	0x3d3393fb	0.043842297
199	0xbd5a5c1d	-0.053310502
200	0x3d9084f6	0.0705661
201	0xbe0a26e0	-0.13491392
202	0xbb50e339	-0.0031873717
203	0x3d4e12ca	0.050310887
204	0xbda897e4	-0.08232096
205	0x3d7b036a	0.061282553
206	0x3d55f403	0.05223466
207	0xbdf564ec	-0.1198214
208	0x3da07d56	0.07836406
209	0x3cabbc3a	0.020963777
210	0xbca6cf78	-0.0203626
211	0xbd56ed16	-0.052472197
212	0x3da4868a	0.08033474
213	0xbe3c0059	-0.18359508
214	0x3c48e2ea	0.012261132
215	0xbdb29003	-0.08718874
216	0xbd4b9d7a	-0.04971073
217	0xbca42cbf	-0.020040868
218	0xbda1e797	-0.079055004
219	0x3ca82cf2	0.020529244
220	0xbd838bfd	-0.06423185
221	0xbb650677	-0.003494648
222	0xbcde0c07	-0.027105344
223	0xbd37a40e	-0.04483419
224	0x3d57ecc3	0.052716028
225	0xbcd37a39	-0.025815116
226	0xbd4f128d	-0.0505548
227	0xbdbaa529	-0.09113533
228	0xbdcb289b	-0.09919854
229	0xbde4d5b8	-0.11173576
230	0x3d049787	0.03237107
231	0x3d051477	0.03249022
232	0x3c1efb82	0.009703519
233	0xbda79a74	-0.081837565
234	0xbd599d0f	-0.0531283
235	0xbdf52c3f	-0.1197133
236	0xbd6ce58a	-0.057836093
237	0xbd507822	-0.050895818
238	0x3dd8cf7e	0.10586451
239	0x3d8ca4cc	0.0686737
240	0xbd99275c	-0.0747821
241	0xbd8e883f	-0.06959581
242	0x3b7ff8c2	0.0039058183
243	0x3bf262a9	0.007397015
244	0x3d49662a	0.049169697
245	0x3ceaa4d4	0.02864305
246	0x3db7b964	0.08970907
247	0x3d8ed8d4	0.069749504
248	0x3c9da6c8	0.019244567
249	0x3cd01b1d	0.025403554
250	0x3dba0a8e	0.090840444
251	0x3ddd98b0	0.108201385
252	0x3ce5cec3	0.028052693
253	0xbd891243	-0.06692936
254	0x3c1b57ac	0.009481352
255	0xbdfd39c2	-0.12364532

fc2.bias f4 [9]
0	0x3c0c1fd9	0.008552515
1	0x3d4a6e32	0.049421497
2	0xbd402497	-0.046909895
3	0xbd806f5c	-0.0627124
4	0xbd37ab6d	-0.04484122
5	0xbc9daf63	-0.01924867
6	0x3d6879e1	0.056756858
7	0xbcb464f1	-0.022020789
8	0xbd626183	-0.055268776
