runs/3_agents_50000_episodes_mlp/models/critic.pth (torch, 19272 bytes, 3 tensors)

fc1.weight f4 [128, 32]
00000000: 370e 91bd efba 2c3e 9abe 34be ef12 94bd
00000010: 1fd1 be3d 1f83 213e 8fc4 bcbd 4918 0cbe
00000020: 5082 56bd 2be1 2bbe 30ea 193e 8722 09bd
00000030: e2a3 0c3e b8bb 7bbd 4689 c73d 2ba9 79bd
00000040: dd77 bdbc 3319 d13d 79c4 6b3d 18d3 6dbd
00000050: 35a2 1fbe 3dc5 1a3e a09e b83d f9ab ad3d
00000060: 7312 03be cc81 c13b 664e a2bd bbe7 ec3b
00000070: 3218 1cbc 1b55 053c aec6 813d 50c5 683e
00000080: dd5f 533d 5870 4a3e a1af 2dbd 8437 eabd
00000090: 070f d63c 5de3 683e b76a b9bd a0ea 18be
000000a0: 79cd 063e 5b21 edbd cb57 d4bd 793a 243b
000000b0: 4665 01be ce83 af3d aa36 3dbe 7430 40be
000000c0: 070e 29be 1b13 2f3e 7be8 e93c 962a e4bc
000000d0: c6aa 23be d3ec fa3c 54aa 483e 5cdf ac3d
000000e0: ef1f 65be c5b5 fc3d 47d9 41be f6b0 ba3d
000000f0: a314 23be d69d b1bd e670 223d ffce e93d
00000100: c260 f0bd 8a06 8a3a 8e4d 3a3e f6be 143e
00000110: 896b e0bb 72f2 87bc d4c4 373e f271 7cbd
00000120: eb55 b03b 8081 21be fb77 1abe 8b72 253e
00000130: 4346 683d a10e 88bc 4d18 f9bd b08d 573c
00000140: 32d2 c33d 2e26 1ebd a259 43be 7d9f e9bd
00000150: 00fa 303e 4bdb ca3c 654e 8fbe 35c0 12be
00000160: c5f4 763c 7b65 a8bd 5c79 1abe 4cdd 3a3d
00000170: 8f5e 1ebe 87c9 e13d e01f dbbc 3e36 30be
00000180: d829 dbbb 12d5 a5bd f561 0dbe 1b03 1bbe
00000190: 6f52 003d 8169 a73d cdb7 25be 3675 a73d
000001a0: ba68 2cbe f585 013d 8ace fbba 5268 6a3d
000001b0: 1fdf d43d 9eb8 04be 3b8f 323e d9c8 24be
000001c0: a0fc ebbd bbe8 1fbe 5617 d0bd 0d5f ef3d
000001d0: e2ac cbbd 60d2 db3b f48a 243e 7dcd 57bd
000001e0: 5212 9c3d a28a d4bd a0d9 fdbc cb24 b3bd
000001f0: 59f4 e5bd 1df2 a83d 7df8 563d 2a4f 313d
00000200: 9b41 ef3d ca00 1b3e 0e59 b5bd 1d3d 0ebd
00000210: 06c1 4a3d c7ae 593e 8402 42be 3246 6abe
00000220: a98a c93d 3253 1dba 8651 583d 62e8 203e
00000230: 2105 51bd a759 c4bc 4f06 cc3d 223f 59bd
00000240: 8d7c d63d 537d 0d3e f09d 3e3c 4e3d 7dbd
00000250: 0da6 71be 5ec6 443e 12c7 05bc 1272 fdbb
00000260: e3df f83d acc7 27be 8818 57be d8eb d3bd
00000270: bc0c 933d 72aa 753c e8e0 ef3d 34f3 a43b
00000280: 43f0 a03d 370d 1d3e 2595 e1bd 980c 8dbd
00000290: 565b e13d a752 bbbd 4d7a 41be 6e80 64be
000002a0: 426c 423e ba73 08bd ce49 4a3e c87f f93d
000002b0: 34e1 963d c273 e43d 37a7 09be 185f 823d
000002c0: 7cb3 0ebe ca9a c9bd d6aa 513e 5685 87bd
000002d0: 3544 8c3d 6818 ea3b 4000 25bc 9009 073e
000002e0: f519 44bd 3321 fbbd 78a3 14be 4b91 a83d
000002f0: a0a6 aa3d 2ebd c93d 9b67 2f3e 2ebb 6d3e
00000300: 2dda 2c3d d0bc 28bd cfc0 bfbd b15c d0bd
00000310: 0ce5 dc3d 3efb 71bd 28a9 3bbe c8cd 5f3d
00000320: a35d 2abe e97e 1bbe 0fe6 313c e48f c13c
00000330: caf1 e63d 8238 e9bb c5bb 3abd 817e 0ebd
00000340: 29f8 1abe a91f 923d 9875 893d 115d d9bc
00000350: 9af3 e43d 149a 8c3d fa43 ea3c e5fa 05bd
00000360: 2f4e 973d 660d a93d 999b 07be ee31 4fbd
00000370: a6b0 2abe 9da9 bdbd be29 c33c e8f6 053e
00000380: 55f4 adbd c4af f53d f253 c1bd 8465 a0bd
00000390: 79e4 56bd 8cf3 2bbe 20b2 8ebd e9fb 2c3e
000003a0: d696 2d3e 2e2c 7cbd 6284 12be 66b2 46bc
000003b0: 45ae 22be 34df 0c3d c43c 21bd 0390 eabc
000003c0: 59db 3e3e 40ab 19be 66ab 32be 6de0 b63d
000003d0: 92f0 c6bc 6837 953d ad3d 07be 1d98 56be
000003e0: 863b 293e 1c1c d13d 04a6 36be 660d 253e
000003f0: 13e0 2f3e bedd 29bc 8ce4 663d 6092 2dbd
-0.070827894 0.16868185 -0.17650834 -0.07230174 0.093172304 0.15772675 -0.09217178 -0.13681139
-0.05237037 -0.16785114 0.15030742 -0.033480193 0.13734391 -0.06145832 0.0974298 -0.060952347
-0.023128444 0.102098845 0.057560418 -0.058062643 -0.15589221 0.15114303 0.0901463 0.08480067
-0.12800007 0.0059053656 -0.079251096 0.007229773 -0.009527253 0.0081379665 0.06336723 0.22731519
0.051605094 0.19769418 -0.04240382 -0.1143637 0.026130212 0.22742982 -0.09053557 -0.14933252
0.13164319 -0.11578628 -0.10368308 0.0025059266 -0.12636289 0.085700616 -0.18477884 -0.18768483
-0.16509257 0.17097132 0.028553238 -0.027852338 -0.15983114 0.030630505 0.19596225 0.0844104
-0.22375463 0.12339357 -0.18930541 0.09115784 -0.15925841 -0.08672683 0.03965845 0.114164345
-0.11737205 0.0010530513 0.18193647 0.14525971 -0.0068487567 -0.0165951 0.17946178 -0.061632104
0.005381336 -0.15772057 -0.15084831 0.16156976 0.05670763 -0.016608538 -0.12162838 0.0131563395
0.09561576 -0.03861063 -0.19077161 -0.11407373 0.17282867 0.02476277 -0.27989498 -0.14331134
0.015073006 -0.08222481 -0.15085357 0.0456212 -0.15465759 0.110247664 -0.026748598 -0.17208192
-0.006688338 -0.080972806 -0.13806899 -0.15137903 0.031328615 0.0817442 -0.16183396 0.08176653
-0.16836825 0.031621892 -0.0019211334 0.057228394 0.103941195 -0.12961051 0.1743745 -0.16092242
-0.11522794 -0.15616123 -0.10160701 0.116880514 -0.09945084 0.0067084283 0.16068631 -0.052686203
0.07620682 -0.103780046 -0.03098756 -0.08747252 -0.11228246 0.082493044 0.05248307 0.043288387
0.11682435 0.1513702 -0.088548765 -0.03472625 0.049500488 0.21258079 -0.18946272 -0.2287834
0.098409005 -0.0006001472 0.05281212 0.15713647 -0.051030282 -0.02396853 0.09962141 -0.053038724
0.10472975 0.13817339 0.011634335 -0.061826043 -0.235985 0.19216296 -0.008165138 -0.0077345455
0.12152078 -0.16384763 -0.21005452 -0.10347718 0.07180163 0.014994251 0.11712819 0.005033875
0.07858326 0.15337072 -0.11014775 -0.06887168 0.11003749 -0.09146624 -0.1889431 -0.22314617
0.1898661 -0.03331349 0.19754717 0.121825755 0.07367173 0.111548916 -0.13442694 0.06365794
-0.13935655 -0.09843977 0.20475325 -0.06617229 0.06848947 0.0071440227 -0.01007086 0.13187242
-0.047876317 -0.122621916 -0.14515483 0.082308374 0.083325624 0.09850536 0.17129366 0.23215935
0.042200256 -0.04119569 -0.09362947 -0.101739295 0.10785875 -0.059077494 -0.18326247 0.054639608
-0.16637282 -0.15185131 0.010858073 0.023628183 0.11276586 -0.007117332 -0.045589227 -0.034788612
-0.15133728 0.07134945 0.06711882 -0.026533635 0.11179276 0.068653256 0.028596867 -0.032709975
0.07387959 0.08254509 -0.1324295 -0.050584726 -0.16668949 -0.09260867 0.023823615 0.13082469
-0.08493868 0.11996415 -0.094398394 -0.078318626 -0.052463982 -0.16792125 -0.069675684 0.16892971
0.1695207 -0.06156557 -0.14308313 -0.012127494 -0.15886791 0.03439255 -0.03936459 -0.028633123
0.18638362 -0.15006733 -0.17448196 0.089295246 -0.024284635 0.072859585 -0.13207121 -0.20956464
0.16526613 0.102104396 -0.17836767 0.16118392 0.17175321 -0.010367809 0.056370303 -0.042375922

fc1.bias f4 [128]
00000000: c186 193e 8a96 31be 1961 7b3c 79fc 1ebe
00000010: 3a88 b63d 5f4a 8ebd 357d 943b 0115 4a3e
00000020: 4e84 3b3d 1a4a 26bd c3c5 f9bd f820 f33c
00000030: ce65 833d 03c0 533d de6a a4bd 1e61 0ebe
00000040: 9dbb 4e3e 3b23 d33d e17b 9e3d 89fc 913d
00000050: c695 20bd e2cc 2a3e 8f46 923d e843 473e
00000060: ee37 a7bd 5579 89bd 7e50 213e 423d 8cbd
00000070: 4cd2 e1bc facb 05be 90a1 783e 696b 6d3e
00000080: 6381 db3d 3e3d 20be 08e5 98bd be9f 0d3e
00000090: 5221 97bd 7313 c23d d6db 7cbd 4592 50bd
000000a0: 70ee ed3d 2023 27be 4f1b a13d 1310 2fbc
000000b0: 24a0 233e b904 4dbd 9ac3 383e dd5f 2dbe
000000c0: c162 a2bd 670c a2bd 4bbf c83d 64d8 d4bd
000000d0: 397c 033e a352 c8bd c288 ed3d 246a 6139
000000e0: 80c5 39bd 7688 393e fe7b 84bd 2b68 2b3e
000000f0: 85a0 063e faf0 29bd 10aa babd 1dc9 013a
00000100: 6eea 7bbd 5ada 3c3e dad4 0abe e42f e53c
00000110: dee8 20bd 8afa a7bd 66c3 1fbc e3a2 7a3d
00000120: e18d 203c 244e f8bc 1f68 213d dd5c e73c
00000130: 5903 6e3d 4678 9b3c de1f 2f3e 57e1 fabd
00000140: 8cc7 80bd 8f75 b33d d260 3c3d 35af 773a
00000150: cb5c 563e 761c 91bd 7a74 a3bd 6abd 913d
00000160: 7de3 303c 898b 23be 557e 293e 32b7 c9bd
00000170: 18a9 813d 1c4b cdbd 1d3a 37be 2d63 edbc
00000180: 1773 1ebe 8a6c b8bd ec1a ed3d eeea e23c
00000190: 199b 183c 7638 8a3d 7815 2abe b8ee 2e3e
000001a0: 7a5d a03d ae2a e8bd 2899 f33d 10f3 843d
000001b0: e6a4 da3b 2461 d8bd b024 183e fa59 5e3e
000001c0: cbf2 21bd ddc7 23be c3d6 31bc 9bbb ddbd
000001d0: b56d fcbd fa0e b03d 2719 dd3d 1b13 9c3d
000001e0: 671f f33d eb87 7dbb fce3 3dbe 27da 1bbe
000001f0: 30ee d5bd 3a9d b53c 785a 113e d5ec e2bc
0.14992811 -0.17342582 0.015342974 -0.15525998 0.08912702 -0.06947779 0.0045315274 0.19734575
0.045780472 -0.040598013 -0.12195923 0.029678807 0.06415902 0.05169679 -0.08028196 -0.13904235
0.20188756 0.10309454 0.07738472 0.071282454 -0.039205335 0.16679719 0.07142364 0.19459498
-0.081649646 -0.067125954 0.15753362 -0.068476215 -0.027566098 -0.13066092 0.24280381 0.23185505
0.10718038 -0.15648362 -0.07465559 0.13830468 -0.07379402 0.09476366 -0.06173309 -0.050920743
0.11617744 -0.16321993 0.07866537 -0.010684985 0.15979058 -0.050053332 0.18043366 -0.169311
-0.07928992 -0.07912522 0.09802111 -0.10392836 0.12840356 -0.09781387 0.1159835 0.00021497213
-0.045354366 0.18118462 -0.06468962 0.16738956 0.13147171 -0.04148958 -0.09114468 0.00049509277
-0.061502866 0.1844267 -0.13557759 0.027976938 -0.03928458 -0.082020834 -0.009751176 0.061190497
0.009799452 -0.030310698 0.03940594 0.028242523 0.05810866 0.01897825 0.17102 -0.122500114
-0.062880605 0.08762657 0.045990773 0.000944841 0.20933835 -0.070855066 -0.079812005 0.07116206
0.010796425 -0.15971197 0.16552098 -0.09849395 0.0633108 -0.100240916 -0.17893262 -0.028977955
-0.15473591 -0.09005077 0.115774006 0.027699914 0.009314322 0.0674905 -0.16609752 0.17083251
0.07830329 -0.113362655 0.118944466 0.06491673 0.0066724895 -0.10565403 0.14857745 0.21714011
-0.039538186 -0.1599421 -0.010854426 -0.108267985 -0.123256125 0.085966066 0.10795813 0.076208316
0.11871224 -0.003868575 -0.18544 -0.15219937 -0.10445821 0.022169698 0.14194667 -0.027700821

fc2.weight f4 [1, 128]
00000000: 2321 efbd 6ca2 eebd 4d68 ef3d 14ef 33bd
00000010: acbc 07be ed27 ffbd c4f9 9dbc c157 403e
00000020: 715e e73d e2f0 2d3e ae30 023e b465 21be
00000030: b41e f43d 1fd0 823d d328 e6bd b0c7 33be
00000040: 875b cf3d 159a 09be dfbf 19bd 9e89 9fbd
00000050: e2dc 243e 0303 31be 3e62 40be 1748 0d3e
00000060: 9342 f93d 9472 55bc 9f56 ba3d 2978 03be
00000070: eb99 bb3d b7d4 c7bd 6be3 e93d 7a97 073e
00000080: 5f24 8c3d 82bc 80bd 2d48 813d 2470 09be
00000090: c6fc 543d 1940 15be d5e7 163e 8dd3 2f3e
000000a0: 841a afbd 67f7 afbd 8040 b8bd 8142 9a3d
000000b0: 5ef3 e4bd cf44 16be 6cfc 043e c790 90bc
000000c0: b645 6fbd 668a ac3d 7b6c d0bd bcb9 103d
000000d0: a3f1 183e 6386 2b3e cf94 2dbd dc0e 9cbd
000000e0: 0947 fcbd e1ea db3d 05c1 993d 3075 f4bd
000000f0: ee9a 013e 3991 babd 8490 813d 6440 dfbd
00000100: 2672 17be 4bcb 653d baf4 c7bd 3408 5ebc
00000110: 52d1 d1bd 49eb d9bd b220 1c3e 9bb7 cd3d
00000120: 8625 1abe 374f 30bd f7e1 c33d 618a d63d
00000130: dabd 0dbe 2332 0f3e b215 acbd 244a 02be
00000140: 75d0 79bd f64d 7fbd bf50 f6bd 268d 58bd
00000150: f9b5 e4bd 8674 b13c d2bf 313e b968 07be
00000160: 781e b93d e9fb 9d3d b835 c5bd 717b c6bd
00000170: b1a4 edbd dac2 5e3d d848 58bd 3ab4 b33d
00000180: 1855 c0bd d1d3 f93d 5d72 05be 83b9 ffba
00000190: fcea 1b3e c755 2dbd 4bcd b5bd 9ba9 d8bd
000001a0: 5105 83bd bd40 34bd 5ddf 163e 132d 2cbe
000001b0: 6a67 acbd 50c8 69bd de22 983d 7654 753d
000001c0: 6a9f 05be 33b3 abbd dd87 bdbd 063e ed3d
000001d0: a18a 69bd 95d9 9fbd dc3f 213e 3e95 ea3d
000001e0: 678e 223e d52d e1bd 3d63 06be 2e60 09be
000001f0: 75c2 853d a1bb e6bd 4c03 39be dbe4 22be
-0.11676242 -0.11652073 0.11689816 -0.043929175 -0.13255566 -0.12458787 -0.019284137 0.18783475
0.1129731 0.16986421 0.12713882 -0.15761453 0.11919919 0.06387352 -0.11238255 -0.17556643
0.10124879 -0.13437684 -0.0375365 -0.0778992 0.16099885 -0.17286305 -0.18787476 0.13797031
0.12170901 -0.013027806 0.09098553 -0.12838806 0.09160217 -0.09757369 0.1142033 0.13241377
0.06842875 -0.06285955 0.063125946 -0.13421685 0.051998876 -0.14575233 0.14736874 0.17170544
-0.08549979 -0.0859211 -0.089966774 0.07532216 -0.11179231 -0.14674686 0.12986916 -0.01764716
-0.05841609 0.08424835 -0.10176941 0.03533338 0.14935927 0.16750483 -0.042378243 -0.07620022
-0.123182364 0.10738159 0.07507519 -0.11936414 0.12656757 -0.0910973 0.06326392 -0.109009534
-0.14789638 0.05610208 -0.09763475 -0.01355176 -0.10245003 -0.1064058 0.15246847 0.100447856
-0.15053377 -0.043044295 0.09564584 0.104756124 -0.13841954 0.1398397 -0.084025756 -0.12723595
-0.060989816 -0.06233021 -0.1202712 -0.052868985 -0.11167521 0.021662008 0.1735833 -0.13223542
0.090390146 0.07714064 -0.09629387 -0.09691513 -0.11603678 0.054385044 -0.052803844 0.0877461
-0.0939123 0.12198604 -0.13031907 -0.0019510243 0.15226358 -0.04231813 -0.08877047 -0.10579225
-0.063974984 -0.04400705 0.14733644 -0.1681407 -0.08418162 -0.0570758 0.074285254 0.059895
-0.13049093 -0.08383789 -0.092544295 0.11584096 -0.057016972 -0.07805172 0.15747017 0.11454247
0.15874635 -0.1099507 -0.13123794 -0.13415596 0.0653123 -0.11266256 -0.18067664 -0.15907614
