runs/3_agents_50000_episodes_mlp/models/critic_mlp.pth (torch, 23784 bytes, 4 tensors)

layers.0.weight f4 [128, 9]
0	0xbe3232b0	-0.17402148
1	0xbce0aa70	-0.027425021
2	0x3ead18c3	0.33807954
3	0x3c76b1c9	0.015057036
4	0xbe35a451	-0.17738463
5	0xbd877e7c	-0.06615922
6	0x3e23082c	0.15921086
7	0xbd965223	-0.07339885
8	0x3ea2367e	0.316822
9	0x3c4a9dba	0.0123667065
10	0xbe8279ab	-0.2548345
11	0xbda3757e	-0.07981394
12	0x3ea55794	0.3229338
13	0xbe9b8f3e	-0.30382723
14	0xbd8cbc26	-0.06871824
15	0xbc88ca98	-0.016698167
16	0x3d97bbe2	0.07408883
17	0x3e9ea0fa	0.3098219
18	0x3e724c3f	0.23661898
19	0xbdbd5ee3	-0.09246614
20	0x3eb6c037	0.35693523
21	0x3c90b74f	0.017665533
22	0xbe11ed9d	-0.14250799
23	0xbda27de4	-0.07934168
24	0xbe239b77	-0.15977274
25	0x3e7ae27c	0.2450046
26	0x3ed7ee66	0.4217407
27	0xbe07d5c0	-0.13265133
28	0x3e6426ca	0.22280422
29	0x3ebdb3cd	0.3705124
30	0x3e003d2f	0.1252334
31	0xbd03ea6b	-0.03220598
32	0xbe13f228	-0.14447844
33	0x3cf5d2ae	0.030007686
34	0xbd87e6f4	-0.06635848
35	0xbcce276e	-0.025165286
36	0xbe9cccd4	-0.3062502
37	0x3e785c3d	0.24253936
38	0xbdb28d9e	-0.087184176
39	0x3e5b0870	0.21389937
40	0xbebf3c54	-0.37350714
41	0xbde82c4f	-0.11336576
42	0x3e5180ba	0.20459262
43	0x3adccffa	0.001684665
44	0xbdd51b8d	-0.104056455
45	0x3da90503	0.08252909
46	0xbe331ac0	-0.17490673
47	0xbe837445	-0.25674644
48	0xbde36d81	-0.111048706
49	0xbeb38134	-0.35059512
50	0x3e98266c	0.29716814
51	0x3eaa77d3	0.33294544
52	0x3deabe06	0.11462025
53	0xbe16058b	-0.14650552
54	0xbd055857	-0.03255495
55	0x3e317985	0.17331512
56	0x3e651868	0.22372591
57	0xbe73263a	-0.23745051
58	0xbc70685b	-0.014673318
59	0xbeb6060d	-0.3555149
60	0xbebb7301	-0.3661118
61	0x3d8ccfa1	0.068755396
62	0x3dc0f2fd	0.09421346
63	0xbe49f4c5	-0.19722278
64	0x3eaebd27	0.34128687
65	0x3eb20bde	0.3477468
66	0x3d43cb8d	0.047801543
67	0xbeb04192	-0.34425026
68	0x3e0c61ef	0.13709234
69	0x3eb684c8	0.3564818
70	0xbbded980	-0.0068008304
71	0x3e3951cd	0.18097611
72	0x3e925fcf	0.2858872
73	0xbe80d3d6	-0.25161618
74	0x3e43f859	0.19137706
75	0x3e6e5dd2	0.23277977
76	0xbe00c219	-0.12574042
77	0x3e240e9f	0.16021203
78	0xbd4987ec	-0.04920189
79	0x3c8f2fb3	0.0174788
80	0x3e8875ce	0.26652378
81	0x3d64dfd4	0.05587752
82	0xbdd178c9	-0.10228116
83	0xbe0fbba6	-0.14036426
84	0x3ec57f03	0.38573465
85	0xbe3fc1df	-0.187263
86	0xbe69c6ef	-0.22829793
87	0xbe29b2a9	-0.1657206
88	0xbe55e96f	-0.20889829
89	0xbdfc901c	-0.12332174
90	0xbe85534a	-0.26040107
91	0xbe6033a1	-0.21894695
92	0xbe796e85	-0.24358566
93	0xbe665f31	-0.2249725
94	0xbe242232	-0.1602867
95	0x3e31d14f	0.17365001
96	0xbe04b865	-0.12960966
97	0x3e92b1a9	0.2865117
98	0xbe144ac2	-0.14481643
99	0x3dae3d56	0.08507793
100	0x3daf25b6	0.08552115
101	0x3e8fd250	0.28090143
102	0xbe20f466	-0.1571823
103	0xbebcf624	-0.3690654
104	0xbe330391	-0.17481829
105	0x3e3c0e76	0.18364891
106	0xbe106f5a	-0.14104977
107	0x3e2da21a	0.16956368
108	0xbe83ac2c	-0.25717294
109	0x3e545b51	0.2073796
110	0xbdb6f027	-0.08932524
111	0x3eba2e67	0.36363527
112	0x3e762b9a	0.2404007
113	0xbe5abcb3	-0.21361046
114	0xbdc337f9	-0.0953216
115	0x3ed5e0ad	0.41772977
116	0x3e0508cf	0.12991641
117	0x3e160f94	0.1465438
118	0xbda3bb24	-0.079946786
119	0x3e5d1410	0.21589684
120	0x3e9d32ed	0.30702916
121	0xbdad71ce	-0.08468972
122	0xbd517f0c	-0.051146552
123	0xbe2447eb	-0.1604306
124	0xbd4ceae6	-0.050028704
125	0x3e03a8a4	0.128573
126	0xbe6d8e2e	-0.23198768
127	0xbe37b98d	-0.17941876
128	0x3c8b99c6	0.017041098
129	0xbe10db1b	-0.14146082
130	0xbea3a23b	-0.3195971
131	0x3e10c6ac	0.14138287
132	0xbe62507b	-0.22101013
133	0x3e44364b	0.19161336
134	0xbd940fb4	-0.07229558
135	0xbe96f24d	-0.29481736
136	0x3e69097b	0.22757523
137	0x3e08a28a	0.13343254
138	0x3ec7052f	0.38871142
139	0xbe91d3bb	-0.2848185
140	0x3e639f77	0.222288
141	0xbe14f27c	-0.14545625
142	0x3e63edcc	0.22258681
143	0x3e4a9a29	0.1978537
144	0xbe7d74f8	-0.24751651
145	0x3d3611e4	0.044450656
146	0x3eb6812f	0.35645434
147	0xbe95eb6b	-0.29281172
148	0xbe6a82ec	-0.22901505
149	0x3e7de3c0	0.24793911
150	0x3c0c856c	0.008576732
151	0x3e2de93a	0.169835
152	0x3bb4060d	0.0054938854
153	0x3e9b13b9	0.30288485
154	0x3e63135f	0.22175358
155	0x3ec7a716	0.38994664
156	0x3d3cae4c	0.04606466
157	0xbebfb0c0	-0.37439537
158	0xbe2ce47f	-0.1688404
159	0x3e1e480e	0.15457174
160	0x3e2255aa	0.15852991
161	0xbe24a296	-0.16077647
162	0x3c9599b7	0.018261774
163	0x3e4abd98	0.19798887
164	0x3ec14a04	0.37751782
165	0xbdaf4736	-0.08558504
166	0xbe21f090	-0.15814424
167	0xbbb5d56b	-0.005549123
168	0xbea3098d	-0.31843224
169	0xbe02aea1	-0.12761928
170	0xbda1c6fc	-0.078992814
171	0xbd87b9c5	-0.066272296
172	0xbe5868cf	-0.21133731
173	0xbe387b75	-0.18015845
174	0x3e864af7	0.2622907
175	0x3e1e8df0	0.15483832
176	0xbeba383b	-0.36371025
177	0x3ea82e58	0.32847857
178	0x3e7a0ccb	0.24418943
179	0xbe246397	-0.16053616
180	0x3e97ffbd	0.296873
181	0x3dee40c6	0.11633448
182	0xbd844f2e	-0.06460415
183	0xbe8d30b0	-0.27576208
184	0x3c6122a0	0.013741165
185	0x3ea73d26	0.3266384
186	0xbd0180b0	-0.031616867
187	0x3eb62248	0.3557303
188	0x3e6d5a34	0.23178941
189	0xbe48180e	-0.19540426
190	0x3d9d7988	0.07689196
191	0x3d0e4823	0.034736764
192	0x3e5b408d	0.21411343
193	0xbea4a7d3	-0.3215929
194	0x399facd5	0.00030455613
195	0x3dadf7f7	0.08494561
196	0x3d9704c7	0.07373958
197	0xbe6424e2	-0.22279695
198	0xbe21058a	-0.15724769
199	0xbe904a73	-0.281818
200	0x3e7729f0	0.24137092
201	0x3e841d79	0.25803736
202	0x3d96d7be	0.07365368
203	0xbe9ae893	-0.30255565
204	0xbd303215	-0.043016512
205	0xbe6ab25a	-0.22919598
206	0xbd5389b7	-0.051645007
207	0xbd454d60	-0.048169494
208	0x3e44493b	0.1916856
209	0x3e39be32	0.1813896
210	0x3d4153d5	0.04719909
211	0x3e8c1382	0.27358633
212	0x3d05d869	0.032677088
213	0x3e902b6c	0.28158128
214	0x3da23f3d	0.07922218
215	0xbd6b6754	-0.05747159
216	0xbe4f0474	-0.20216542
217	0xbea039f3	-0.31294212
218	0x3eabd84b	0.33563456
219	0xbe7faaee	-0.24967548
220	0x3ca04220	0.01956278
221	0xbeb48ff1	-0.3526607
222	0x3e3e76e4	0.1860004
223	0xbdac625e	-0.084171996
224	0xbe90a623	-0.28251752
225	0xbe55c153	-0.20874529
226	0x3e85bd1c	0.26120842
227	0x3e978a14	0.29597533
228	0xbe28b827	-0.16476499
229	0x3e1cea08	0.15323651
230	0x3d8e1b11	0.06938756
231	0x3bf534e7	0.007483113
232	0xbe0d112a	-0.13776079
233	0xbe07033a	-0.13184825
234	0xbe8fd6a6	-0.2809345
235	0x3e130eb0	0.14361072
236	0x3d539c4b	0.051662724
237	0x3eaafa8d	0.3339428
238	0x3e45e541	0.19325735
239	0x3e3988ed	0.1811864
240	0x3e442f24	0.19158608
241	0x3e05b359	0.13056697
242	0xbe531018	-0.20611608
243	0xbe8ecb22	-0.27889353
244	0x3e710fad	0.23541136
245	0x3e41ff23	0.18944983
246	0xbe25087a	-0.16116515
247	0xbe47c171	-0.19507386
248	0xbea08104	-0.3134843
249	0x3d323de3	0.04351605
250	0xbe060b40	-0.13090229
251	0xbe5c8498	-0.21534956
252	0x3ec70340	0.38869667
253	0xbe3c1b8f	-0.18369888
254	0x3e75550d	0.23958226
255	0xbe8b36a8	-0.27190137

layers.0.bias f4 [128]
0	0xbe34a270	-0.1764009
1	0x3eaa1dee	0.3322596
2	0xbe1085b7	-0.14113508
3	0x3e397e63	0.18114619
4	0x3eb8e4be	0.36112016
5	0x3daa350e	0.08310901
6	0xbdadeafb	-0.084920846
7	0x3e4b64c3	0.19862656
8	0x3d77ab77	0.060466256
9	0xbe64e498	-0.22352827
10	0xbe3507e8	-0.17678797
11	0x3e78423e	0.2424402
12	0xbe0a5cf3	-0.1351202
13	0x3e378bc1	0.17924406
14	0xbe82ae54	-0.25523627
15	0x3e29a995	0.16568597
16	0xbe592fd3	-0.2120965
17	0x3de4dd5e	0.11175035
18	0xbe4f1864	-0.20224148
19	0xbe087d94	-0.13329154
20	0xbe8f1600	-0.27946472
21	0xbd4edca3	-0.050503384
22	0x3ebcce72	0.36876255
23	0x3dc7a98f	0.097491376
24	0x3e084f10	0.1331141
25	0x3e41d138	0.18927467
26	0x3d2f0110	0.042725623
27	0x3d8540b1	0.065064795
28	0xbe478f6d	-0.19488306
29	0xbe7a22c8	-0.2442733
30	0x3ecb07ae	0.39654297
31	0x3e522369	0.2052132
32	0x3d70a966	0.0587553
33	0xbe5b9799	-0.21444549
34	0x3d20c707	0.039252307
35	0x3e2dbd7c	0.16966814
36	0x3d2fb430	0.04289645
37	0xbe935d64	-0.2878219
38	0xbdd3b2dc	-0.10336849
39	0x3eb7726b	0.3582948
40	0xbde8c83a	-0.11366315
41	0xbc891bae	-0.016736832
42	0xbe5890fe	-0.2114906
43	0x3d9fd6fc	0.07804677
44	0xbd55fb06	-0.052241348
45	0x3df6124f	0.12015211
46	0x3dee4422	0.11634089
47	0xbe4c1abf	-0.19932078
48	0x3dca7e91	0.09887422
49	0xbd16528c	-0.036699817
50	0x3e6ff848	0.23434556
51	0x3bd17ad0	0.006392814
52	0x3ea20f3a	0.31652242
53	0xbd31d5a6	-0.04341664
54	0x3e6024fe	0.21889111
55	0x3ecb612e	0.3972258
56	0x3d24da92	0.040247507
57	0xbe96a1c9	-0.29420307
58	0xbd12a28b	-0.035799544
59	0x3e851e67	0.25999758
60	0x3e86aa54	0.26301825
61	0x3ea28351	0.3174081
62	0xbe98fa18	-0.29878306
63	0x3e4bada8	0.19890463
64	0x3c217470	0.009854421
65	0x3c53e17e	0.0129321795
66	0x3e85a217	0.26100227
67	0x3c3f4291	0.0116735855
68	0x3e51cb8f	0.20487808
69	0x3e4bac91	0.19890048
70	0xbdfb70b6	-0.12277357
71	0x3ebf655c	0.3738202
72	0xbcd3f89b	-0.02587538
73	0xbd405b83	-0.046962272
74	0x3eedad87	0.46421453
75	0x3db8a794	0.09016338
76	0xbe2d1edd	-0.16906305
77	0xbe756f46	-0.23968229
78	0xbc669ed3	-0.014075953
79	0x3bef1099	0.0072956798
80	0xbdb977ce	-0.09056054
81	0x3ec1c1de	0.3784322
82	0xbe00e2ea	-0.12586561
83	0xbc58f302	-0.013241531
84	0xbe634d45	-0.22197445
85	0x3d242dc7	0.04008272
86	0xbe1984c6	-0.14992055
87	0xbe741b48	-0.23838532
88	0x3e8f8bd6	0.28036374
89	0xbe1e625b	-0.15467207
90	0xbdaa564b	-0.0831724
91	0xbd994a33	-0.074848555
92	0x3e9aeed0	0.30260324
93	0xbe4ced98	-0.2001251
94	0xbd846aec	-0.06465706
95	0x3cae3d68	0.021269515
96	0x3d0ba447	0.034092214
97	0xbe0e5f41	-0.13903524
98	0x3e81764c	0.25285566
99	0x3e4281c7	0.18994819
100	0x3e0c38a1	0.13693477
101	0xbcc1f869	-0.023678022
102	0xbe65c9a9	-0.22440208
103	0x3e4fb68f	0.20284484
104	0xbdd16be4	-0.10225657
105	0x3d73d520	0.059529424
106	0xbe14e96b	-0.14542167
107	0xbe614bb7	-0.22001539
108	0x3eaa82ef	0.3330302
109	0xbd0f10d7	-0.03492817
110	0x3e3d9208	0.18512738
111	0xbde3b0ef	-0.11117732
112	0xbe69bd97	-0.22826229
113	0x3dbacdc9	0.09121282
114	0x3e4af5fc	0.19820398
115	0xbe6ed747	-0.2332431
116	0xbe66b4bb	-0.2252988
117	0x3e0474e8	0.12935221
118	0x3d3a9654	0.04555352
119	0x3dc36908	0.095415175
120	0x3dc71290	0.097203374
121	0x3dff6b4a	0.12471636
122	0x3e1c6a1c	0.15274853
123	0x3e752e7f	0.23943518
124	0xbe47c80a	-0.19509903
125	0x3dbc3f15	0.091917194
126	0x3d82a6eb	0.06379493
127	0xbde54287	-0.1119433

layers.2.weight f4 [32, 128]
0	0xbdf8ac1e	-0.12142204
1	0xbc631fd8	-0.013862573
2	0xbddfb570	-0.10923278
3	0xbd33cd23	-0.043896805
4	0xbcefcadc	-0.029271536
5	0xbd8f3f60	-0.0699451
6	0xbdb79fea	-0.08966048
7	0x3d622a18	0.055215925
8	0xbdac76f4	-0.08421126
9	0x3d962986	0.07332139
10	0xbd98c8a0	-0.07460141
11	0x3d174629	0.036932144
12	0x3d826cb0	0.06368387
13	0xbd8c7069	-0.06857378
14	0xbdd979d9	-0.10618944
15	0xbd63e960	-0.055642486
16	0xbc59e52d	-0.013299269
17	0xbd7febb6	-0.06248065
18	0x3d3c2d53	0.045941662
19	0x3c8fcbfa	0.017553318
20	0xbd131ba9	-0.03591505
21	0xbd745205	-0.059648532
22	0x3daeb960	0.08531451
23	0x3dd29d99	0.102839656
24	0xbd4a1d84	-0.049344555
25	0x3d90daa7	0.070729546
26	0x3db8bcc5	0.0902038
27	0xbc8d16d6	-0.017222803
28	0x3d120e05	0.0356579
29	0x3c047a86	0.0080858525
30	0x3d931f61	0.071837194
31	0x3c5ede4f	0.013602807
32	0xbc6e6c8a	-0.014552245
33	0xbd9fc8b1	-0.07801951
34	0x3dba6fe8	0.09103376
35	0xbdd0725a	-0.10178061
36	0xbd8a522c	-0.06753954
37	0xbdc47517	-0.095926456
38	0x3da54a4b	0.08070811
39	0xb9fbbe06	-0.0004801603
40	0xbd937daa	-0.07201703
41	0xbd5aa2a8	-0.053377777
42	0x3d7cee90	0.06175095
43	0xbd860998	-0.065447986
44	0xbc859662	-0.01630706
45	0x3d21a357	0.039462414
46	0xbd934d51	-0.07192481
47	0xbd9636bf	-0.07334661
48	0xbd401aab	-0.046900433
49	0x3da42f29	0.080168076
50	0xbda5af84	-0.080901176
51	0xbd1f9c38	-0.03896734
52	0x3ddfc153	0.109255455
53	0xbdceb8eb	-0.10093864
54	0x3d046a0b	0.032327693
55	0xbdaef088	-0.085419714
56	0xbd1d2d58	-0.03837332
57	0x3dd484d3	0.10376897
58	0xbd17f19f	-0.037095662
59	0xbd2ee669	-0.042700205
60	0xbd927102	-0.07150461
61	0xbd6f5205	-0.05842783
62	0x3d8c9507	0.06864362
63	0xbd560fb5	-0.052261073
64	0xbd996b28	-0.074911416
65	0xbdc1d212	-0.09463896
66	0x3c1581e1	0.009125204
67	0x3de404d1	0.11133731
68	0xbc49e843	-0.012323442
69	0xbd35b47e	-0.044361584
70	0xbe0212fd	-0.12702556
71	0xbda00285	-0.078129806
72	0x3d273987	0.040826347
73	0x3d892a04	0.06697467
74	0xbcaa6b6a	-0.020803172
75	0x3d59a3a1	0.053134564
76	0xbcbc2ebc	-0.022971503
77	0xbd7c305d	-0.06156956
78	0x3d385e7b	0.04501198
79	0xbb3a6ae2	-0.0028445055
80	0xbe09b484	-0.13447767
81	0xbd2c51b2	-0.0420701
82	0x3d417fff	0.047241207
83	0x3a8be548	0.001067319
84	0xbd855bb0	-0.06511629
85	0x3ddea16d	0.10870633
86	0x3d983467	0.0743187
87	0x3d4d2711	0.050086085
88	0xbd42f68c	-0.047598407
89	0xbd1a6db0	-0.037702262
90	0xbdd11a10	-0.10210049
91	0xbd871f03	-0.06597712
92	0x3d22d7ab	0.03975646
93	0xbdfe72b9	-0.12424225
94	0xbc7ade4b	-0.015311788
95	0xbd08a71d	-0.033362497
96	0xbdc6373d	-0.096785046
97	0x3c5a208e	0.013313426
98	0x3e19c5f4	0.1501692
99	0xbd28cb77	-0.041209664
100	0xbd36e031	-0.0446474
101	0x3d0630a6	0.03276124
102	0x3d28b7b0	0.041190803
103	0xbcba6056	-0.022751015
104	0xbd07cc5d	-0.03315388
105	0x3b10927b	0.0022059965
106	0x3d0a6799	0.033790205
107	0x3d9a737d	0.07541559
108	0x3d44547f	0.047932144
109	0xbd16d99d	-0.036828626
110	0x3c9aa305	0.018876562
111	0x3caeb1cf	0.02132502
112	0xbe00b6f0	-0.12569785
113	0x3d88be8a	0.066769674
114	0x3da4c7e0	0.08045936
115	0x3d2bf42b	0.041980904
116	0xbd88e9f1	-0.06685246
117	0xbcbebedf	-0.023284374
118	0xbd306a3c	-0.043070063
119	0x3dafff8a	0.08593662
120	0xbd340917	-0.04395398
121	0xbda1028a	-0.078618124
122	0xbd9e742f	-0.07737004
123	0xbd4e36f7	-0.050345387
124	0xbd4f5d9e	-0.05062639
125	0xbd62bcfe	-0.05535602
126	0xbd683d9b	-0.056699377
127	0x3c882cbe	0.016622897
128	0x3db7f360	0.08981967
129	0xbd47ae84	-0.048750415
130	0x3dc518c6	0.09623866
131	0xbc9f1134	-0.019417383
132	0x3c16bf1b	0.0092008365
133	0x3d2e3bc9	0.042537484
134	0x3ca09a19	0.01960473
135	0x3cd2c7d3	0.02573005
136	0xbd66de55	-0.056364376
137	0xbdb0d6eb	-0.08634742
138	0x3d141dc0	0.036161184
139	0xbd180ca6	-0.037121437
140	0xbe057329	-0.13032211
141	0xbd86f3c8	-0.06589466
142	0xbcda0049	-0.026611464
143	0xbd2d49c9	-0.042306695
144	0x3d7a99ad	0.061181713
145	0x3dea2891	0.11433519
146	0xbccd41f8	-0.02505587
147	0x3ceef3ae	0.02916893
148	0x3d4826ff	0.048865315
149	0x3da52687	0.08063989
150	0x3d9a60dc	0.07538006
151	0xbc8fdd1b	-0.017561486
152	0xbc91d84a	-0.01780333
153	0x3ca45597	0.020060344
154	0x3d4b04e1	0.0495652
155	0x3cf59d63	0.029982274
156	0xbd90e42d	-0.07074771
157	0xbd70a894	-0.05875452
158	0x3bbb4c13	0.005715856
159	0xbab5af2d	-0.001386141
160	0x3abc12cd	0.0014348865
161	0x3d2036c9	0.039114747
162	0xbda2f805	-0.07957462
163	0xbce6923f	-0.028145907
164	0xbbae8d82	-0.0053269276
165	0xbcc5e92a	-0.024159033
166	0xbd32a623	-0.04361547
167	0xbe077364	-0.13227612
168	0x3dfd265f	0.12360834
169	0xbd7f5e47	-0.06234577
170	0xbd9a3a93	-0.075307034
171	0xbd82c277	-0.063847475
172	0x3cee5db0	0.029097408
173	0xbcaabc4c	-0.02084174
174	0x3cc95f2b	0.024581512
175	0x3cac5615	0.02103714
176	0x3db957d3	0.09049954
177	0x3bae25ce	0.0053145653
178	0x3d8768f9	0.06611819
179	0xbd86d318	-0.06583232
180	0x3d95ddd4	0.07317701
181	0xbd775478	-0.06038329
182	0xbdd20929	-0.102556534
183	0x3d911fc3	0.07086136
184	0x3d6edb56	0.058314644
185	0x39c8d744	0.00038307358
186	0xbc895873	-0.016765809
187	0x3da92150	0.08258307
188	0x3d1d1bf7	0.038356747
189	0x3b92ab56	0.0044759912
190	0x3e0c7e8a	0.13720146
191	0x3d800e7f	0.06252765
192	0x3dac458f	0.08411705
193	0x3dda3f4d	0.10656605
194	0x3b83173f	0.004000574
195	0xbd48e32f	-0.049044784
196	0x3cc8901a	0.024482775
197	0xbcfce334	-0.030870058
198	0xbb34c764	-0.0027584666
199	0xbd7eb6a8	-0.062185913
200	0xbdc50faf	-0.09622132
201	0x3cefdaeb	0.029279193
202	0x3d288c1d	0.041149247
203	0x3cafcae8	0.021459058
204	0x3e0b6d3c	0.13615888
205	0x3d8ca744	0.06867841
206	0x3d7103fd	0.058841694
207	0x3d682271	0.05667347
208	0x3e1b2030	0.15148997
209	0x3d7efa4f	0.06225043
210	0xbdd1af3c	-0.102385014
211	0x3d698488	0.057011157
212	0x3d289f6a	0.041167654
213	0x3cd1e2f3	0.025620913
214	0xbdbdf72a	-0.092756584
215	0x3d119544	0.03554274
216	0xbd749c80	-0.059719563
217	0x3c35400b	0.011062632
218	0x3e1edfba	0.15515032
219	0xbdb9c4f4	-0.09070769
220	0x3cad10db	0.021126201
221	0x3d488335	0.048953254
222	0x3e2de6d8	0.16982591
223	0xbdc391f4	-0.09549323
224	0xbd6e543d	-0.058185805
225	0x3dc838f3	0.09776487
226	0xbd4bc046	-0.049743913
227	0x3cf6b8b5	0.030117372
228	0x3e037b9d	0.12840123
229	0xbd1a9386	-0.037738346
230	0x3dc5c1c5	0.09656099
231	0xbc9c45c4	-0.019076236
232	0xbb810025	-0.003936785
233	0xbbbe117c	-0.005800424
234	0x3cabd618	0.020976111
235	0x3dba730c	0.09103975
236	0xbd853244	-0.06503728
237	0x3b349b60	0.002755843
238	0x3ddc871b	0.10767957
239	0xbc3d73df	-0.01156327
240	0x3d8bd79e	0.06828235
241	0x3d130b9e	0.03589975
242	0xbd7648ed	-0.06012814
243	0xbdcc1415	-0.09964768
244	0x3e031a75	0.12803061
245	0xbdd19633	-0.10233726
246	0xbda6f131	-0.08151472
247	0xbbac0c33	-0.0052504777
248	0x3cd8fe5f	0.026488481
249	0x3da810b5	0.082063116
250	0x3dbb96cc	0.091596216
251	0xbb951df6	-0.0045506908
252	0x3c8bed76	0.017081004
253	0x3dc45d01	0.095880516
254	0x3d90be8c	0.07067594
255	0x3d7c18cd	0.06154709

layers.2.bias f4 [32]
0	0x3d186947	0.037209775
1	0xbd1808a2	-0.037117608
2	0x3d67b33f	0.056567427
3	0x3e398d34	0.18120271
4	0x3d2a1683	0.041525375
5	0xbdac1796	-0.08402936
6	0xbbfb6070	-0.0076714084
7	0xbd62d46c	-0.055378363
8	0x3da0ef8a	0.078581885
9	0xbde61ee5	-0.112363614
10	0x3d77812c	0.060425922
11	0x3d6848fd	0.056710232
12	0x3c338dee	0.010959132
13	0x3d801a8b	0.06255063
14	0xbcaeac1f	-0.021322308
15	0xbc19cf0c	-0.009387743
16	0xbd8a16c5	-0.06742624
17	0xbc0bdafe	-0.0085360985
18	0xbcb4fbe2	-0.022092763
19	0xbd04efe4	-0.03245534
20	0xbd3d4b78	-0.04621455
21	0xbd839272	-0.064244166
22	0x3d296ca6	0.04136338
23	0x3d6b8a5a	0.05750499
24	0x3c10dffd	0.0088424655
25	0x3d4d4a81	0.05011988
26	0x3cc953ed	0.024576152
27	0x3db14fb7	0.086577825
28	0x3d1ea4ae	0.03873127
29	0xbd849e20	-0.064754725
30	0x3bc084db	0.0058752126
31	0xbd51c6d2	-0.051215
