runs/7_agents_50000_episodes_mlp/models/actor.pth (torch, 26432 bytes, 4 tensors)

fc1.weight f4 [128, 38]
0	0x3d287738	0.04112932
1	0x3b85e24d	0.004085815
2	0xbdd71868	-0.10502702
3	0x3d4a9c50	0.049465477
4	0xbd035b84	-0.032069698
5	0x3dc6cbbf	0.0970683
6	0x3d2d55e4	0.04231824
7	0x3c49723c	0.012295302
8	0xbbf4e303	-0.007473351
9	0xbd2ed9ae	-0.042688064
10	0x3d89b49c	0.06723902
11	0x3d2803c4	0.041019216
12	0xbdc5fc76	-0.09667294
13	0x3d9655c7	0.073405795
14	0x3ddd5d8f	0.108088605
15	0x3dc078e4	0.09398058
16	0xbdd66d36	-0.10470049
17	0x3d8c19ba	0.068408445
18	0x3dd55623	0.1041682
19	0xbd76a183	-0.060212623
20	0x3e22905e	0.15875384
21	0xbdf30f21	-0.1186812
22	0xbc17862f	-0.0092483
23	0xbd9ba2a9	-0.07599384
24	0x3d478260	0.04870832
25	0xbd60ff43	-0.054930937
26	0x3db69e85	0.08916954
27	0x3d22d161	0.03975046
28	0x3db19328	0.08670646
29	0x3dca97c8	0.09892231
30	0xbe40860d	-0.18801136
31	0xbe138c3b	-0.14408962
32	0xbe0137c5	-0.1261893
33	0x3cee6655	0.02910153
34	0xbb0d8b96	-0.0021598092
35	0xbe25bb4b	-0.16184728
36	0xbdf32206	-0.11871724
37	0xbdc5c39d	-0.09656451
38	0xbdd110dc	-0.10208294
39	0xbde5f676	-0.11228649
40	0x3dab9c35	0.083794035
41	0xbba32816	-0.004979144
42	0xbdedba04	-0.11607745
43	0xbd841d46	-0.06450896
44	0xbba41ab0	-0.005008064
45	0x3e26bf7c	0.16283983
46	0xbe30eb3d	-0.17277236
47	0x3d070b3f	0.03296971
48	0xbe0d8789	-0.13821234
49	0x3e0480b7	0.12939726
50	0x3d5a461c	0.053289518
51	0x3d2030ab	0.039108913
52	0xba2d73be	-0.0006616673
53	0x3cf93e54	0.030425228
54	0xbe606d96	-0.21916804
55	0x3d6a765f	0.057241794
56	0x3df082b7	0.11743682
57	0x3ddbf50f	0.107401006
58	0xbde5beba	-0.11218019
59	0xbe26513a	-0.16241923
60	0xbe21ff2f	-0.15820001
61	0xbce3b904	-0.027798183
62	0x3d977f4a	0.07397325
63	0x3dbf1383	0.093298934
64	0xbd32f0b6	-0.04368659
65	0x3d79d0d6	0.060990177
66	0x3e423b1c	0.18967861
67	0xbc851c8b	-0.016248962
68	0x3db4b62d	0.0882381
69	0xbe20da4a	-0.1570827
70	0xbe22bf51	-0.15893294
71	0xbe27815f	-0.16357945
72	0x3c129f5b	0.008949126
73	0x3e46a32d	0.19398184
74	0x3dba1ea3	0.09087875
75	0xbcceb258	-0.025231525
76	0x3d97326f	0.07382666
77	0x3d9c6999	0.07637329
78	0x3d9ac5be	0.075572476
79	0x3dc71867	0.09721451
80	0xbe159d5b	-0.14610808
81	0xbe051c3b	-0.1299905
82	0xbe00a4b1	-0.12562825
83	0x3e1247fb	0.14285271
84	0xbe1febdd	-0.15617318
85	0xbcae02dc	-0.021241598
86	0xbc7d975d	-0.015477982
87	0x3cb7bb78	0.02242826
88	0x3dd0cddb	0.10195514
89	0xbd65ff29	-0.056151543
90	0xbddf9a2c	-0.10918078
91	0xbe039198	-0.12848508
92	0xbdb0d03c	-0.086334676
93	0xbdbf1fa9	-0.093322106
94	0x3dd6c51a	0.10486813
95	0x3c04b439	0.008099609
96	0x3ddb5012	0.107086316
97	0x3de57471	0.1120385
98	0x3dd54239	0.104130216
99	0xbdc7cf10	-0.09756291
100	0x3e16ee25	0.14739282
101	0x3d02194e	0.031762414
102	0x3cd1d128	0.025612429
103	0xbc07f3e7	-0.008297897
104	0x3984275c	0.00025206327
105	0x3da2d171	0.07950104
106	0xbccae1ff	-0.024765966
107	0x3cb74c5b	0.022375276
108	0xbe16377c	-0.14669603
109	0xbd0c69fe	-0.03428077
110	0x3d9bcc3d	0.07607315
111	0x3e202f68	0.15643084
112	0x3e2471d5	0.16059048
113	0xbd3fc929	-0.0468227
114	0xbdb595f0	-0.08866489
115	0x3da94064	0.08264235
116	0x3d90149b	0.0703518
117	0xbd611f6e	-0.054961614
118	0x3d317374	0.043322995
119	0x3e3746f9	0.17898168
120	0xbd6891b9	-0.056779597
121	0x3dffd05a	0.12490912
122	0x3dc437c5	0.0958095
123	0xbca8e40b	-0.020616552
124	0xbd231ec5	-0.039824266
125	0xbd375ce2	-0.044766314
126	0xbda75c31	-0.08171881
127	0x3dd01492	0.101601735
128	0xbdcededf	-0.10101103
129	0x3e31336a	0.17304769
130	0xbe18aaf0	-0.14908957
131	0xbcd78493	-0.026308334
132	0x3c102078	0.008796804
133	0x3e7f877f	0.24954031
134	0xbdfae160	-0.12250018
135	0x3e40e7ef	0.18838476
136	0xbe0c02fd	-0.13673015
137	0x3e3b2846	0.18277082
138	0x3daa0e33	0.083034895
139	0xbd299788	-0.041404277
140	0xbd1afbd8	-0.037837833
141	0xbe3b077c	-0.18264574
142	0x3e0acbfd	0.13554378
143	0xbcc653e2	-0.02420992
144	0xbd517ac7	-0.05114248
145	0x3e0c42d9	0.13697375
146	0xbd2c0e36	-0.04200574
147	0xbde848aa	-0.113419846
148	0x3c88caa5	0.016698191
149	0xbdf9d3a4	-0.1219857
150	0x3d247b63	0.040156733
151	0xbe56e95a	-0.20987454
152	0xbcda9d5f	-0.026686369
153	0xbe0f50e8	-0.13995707
154	0x3cc71ad6	0.024304789
155	0xbdd863ac	-0.10565886
156	0xbdda2b72	-0.10652818
157	0x3e00befc	0.12572855
158	0x3bea208b	0.0071449927
159	0xbd1b7747	-0.03795555
160	0xbd835653	-0.064129494
161	0xbdafdc15	-0.08586899
162	0x3d069a4a	0.032861985
163	0x3a94ad4b	0.0011343149
164	0xbd556de8	-0.052106768
165	0xbd5fddd8	-0.054654926
166	0x3e057fe9	0.13037075
167	0xbe19062e	-0.14943764
168	0x3c638ab6	0.013888052
169	0x3e246eb1	0.1605785
170	0x3cdce2f2	0.026963685
171	0xbd84e87f	-0.064896576
172	0x3d9c49de	0.076312765
173	0x3dddf1ae	0.10837112
174	0x3dd0a22c	0.10187182
175	0x3e187565	0.14888532
176	0xbdbc941b	-0.092079364
177	0xbd9823f8	-0.074287355
178	0xbdd1e96b	-0.10249599
179	0xbcc81f64	-0.02442903
180	0xbdb4475d	-0.08802674
181	0x3df00c3f	0.11721086
182	0x3ce5a03b	0.028030505
183	0x3da0abf2	0.07845296
184	0xbcf851d3	-0.030312454
185	0x3dce724d	0.10080395
186	0xbc91c21c	-0.017792754
187	0xbe0f3ec9	-0.13988794
188	0x3d426da3	0.04746784
189	0xbd4e19fa	-0.050317742
190	0xbdf51beb	-0.119682156
191	0x3c2cc23c	0.010544356
192	0x3e3283d5	0.17433102
193	0x3e097164	0.13422161
194	0x3dbb3683	0.09141257
195	0xbe1b19f3	-0.15146618
196	0x3dcbbf6b	0.099486195
197	0x3e047355	0.1293462
198	0x3df0fa06	0.11766438
199	0xbdcdfefd	-0.10058401
200	0x3dd723c8	0.105048716
201	0xbdd62ca5	-0.10457734
202	0x3ca67a1e	0.020321902
203	0x3dd576d1	0.10423053
204	0xbd8a2761	-0.06745792
205	0xbe1888d6	-0.14895949
206	0x3c8c3b30	0.017118067
207	0xbd2ba11e	-0.0419017
208	0xbe106a15	-0.14102967
209	0xbce58e5a	-0.02802198
210	0x3e18246c	0.14857644
211	0x3e0fdaf6	0.1404837
212	0xbcae35dd	-0.021265918
213	0x3d99928a	0.07498653
214	0x3d86d884	0.06584266
215	0x3cc27f8f	0.023742465
216	0xbc87984e	-0.016552117
217	0x3db83b26	0.08995657
218	0xbdeb0bde	-0.11476873
219	0xbe0744e0	-0.13209867
220	0x3e058ec8	0.13042748
221	0x3dff8886	0.12477212
222	0x3e13067f	0.14357947
223	0xbdcb494a	-0.09926088
224	0xbd8e82ee	-0.069585666
225	0x3d05de9c	0.032683
226	0xbe1806e7	-0.14846383
227	0xbe2ccdd6	-0.16875395
228	0xbe060fdb	-0.13091986
229	0xbd4e736c	-0.050403044
230	0xbcd15d3c	-0.025557153
231	0x3dfe3c77	0.124138765
232	0xbd2de435	-0.042453963
233	0x3d94cd54	0.07265726
234	0x3c1d54b5	0.009602715
235	0xbdbb3ad8	-0.09142083
236	0xbdfc3b97	-0.12316053
237	0x3e2dd713	0.16976576
238	0xbd808dcf	-0.06277048
239	0x3e553a28	0.20822966
240	0xbe161c58	-0.1465925
241	0x3dbd57df	0.09245276
242	0x3de9d241	0.11417056
243	0x3e16bddc	0.14720863
244	0x3ddea6ab	0.10871633
245	0x3e084df6	0.1331099
246	0xbd9a12fe	-0.07523154
247	0x3cf7e24d	0.030259276
248	0xbe14c418	-0.14527929
249	0xbd0062f8	-0.031344384
250	0x3dbd1e18	0.092342556
251	0xbdc579dc	-0.096423835
252	0x3de8c602	0.11365892
253	0xbd714f75	-0.058913667
254	0x3d07f2de	0.0331906
255	0x3dc61618	0.09672183

fc1.bias f4 [128]
0	0xbd64a9f1	-0.05582613
1	0x3d15829d	0.036501516
2	0x3dda798f	0.10667717
3	0x3d557cea	0.05212108
4	0x3d96fb9e	0.07372211
5	0xbc339027	-0.010959662
6	0x3d86161f	0.06547188
7	0x3c8ac82b	0.01694115
8	0x3d85898e	0.06520377
9	0xbe1e8e76	-0.15484032
10	0xbb6f249c	-0.0036490327
11	0x3e175444	0.14778239
12	0xbd484459	-0.048893306
13	0x3da7d1a5	0.081942834
14	0x3e0ba328	0.13636458
15	0xbca4230e	-0.020036247
16	0xbe04ebec	-0.12980622
17	0xbe09ecda	-0.13469258
18	0xbdfbd8ac	-0.12297186
19	0x3d89a477	0.06720822
20	0xbd265101	-0.040604595
21	0xbdba3e71	-0.09093941
22	0xbe184564	-0.1487022
23	0x3e1d3f2e	0.15356132
24	0x3d76c041	0.06024194
25	0x3d005ed9	0.031340454
26	0x3e4ed5ae	0.201987
27	0x3cc673b8	0.0242251
28	0x3d22f357	0.03978285
29	0x3e3dc849	0.18533434
30	0x3d9b2d2f	0.075769775
31	0x3e3ec699	0.18630446
32	0x3e4769ce	0.19473955
33	0xbce1f894	-0.027584352
34	0x3d997e5d	0.07494805
35	0xbd948d3d	-0.072535016
36	0x3dd85946	0.105639026
37	0x3dd5c97d	0.104388215
38	0xbe2293a1	-0.15876628
39	0x3e20f34c	0.1571781
40	0xbe1c7dce	-0.15282366
41	0xbd3aae08	-0.045576125
42	0x3dc750ee	0.09732233
43	0x3e2f4bf7	0.17118822
44	0x3d80d381	0.06290341
45	0x3dbf1c36	0.09331553
46	0xbd87ea38	-0.066364706
47	0xbd370925	-0.044686455
48	0xbca85ff3	-0.020553565
49	0xbdc5f9a1	-0.096667536
50	0xbd39242c	-0.04520051
51	0x3decc52b	0.11561044
52	0xbc96b02e	-0.018394556
53	0xbb5ecbcd	-0.0033995986
54	0x3dd9591b	0.10612699
55	0x3d3dbbc2	0.046321638
56	0x3e08c7f4	0.13357526
57	0x3dbbe0b7	0.0917372
58	0x3d587789	0.052848373
59	0x3d4f5074	0.050613835
60	0xbd8b4a06	-0.06801228
61	0x3c09cd37	0.008410743
62	0xbdf9d9d7	-0.12199753
63	0xbda555d2	-0.080730096
64	0xbc62e58b	-0.013848673
65	0x3e252a18	0.16129339
66	0xbd872b59	-0.06600065
67	0xbd0ffa23	-0.03515066
68	0x3e041be4	0.12901264
69	0x3d9f3788	0.077742636
70	0xbc2c2ca3	-0.010508689
71	0xbd034bfb	-0.032054882
72	0xbdc10f33	-0.09426727
73	0x3e090966	0.13382491
74	0x3d886092	0.06659044
75	0xbcdc2771	-0.026874276
76	0x3e292a26	0.16519985
77	0x3bb509d2	0.0055248523
78	0x3d0557c4	0.032554403
79	0xbdd7ca4a	-0.105366305
80	0xbcfa1433	-0.03052721
81	0x3e13fe0b	0.14452378
82	0x3db560c8	0.0885635
83	0xbd854d96	-0.06508939
84	0xbd89d9db	-0.06731006
85	0xbdfcb810	-0.12339795
86	0x3d895325	0.06705312
87	0xbe361ece	-0.17785189
88	0x3de02559	0.109446235
89	0x3dd4cb28	0.103903115
90	0x3e63dd7c	0.22252458
91	0xbdf4adae	-0.11947189
92	0x3e0dafb4	0.13836557
93	0xbd41424c	-0.047182366
94	0x3d4ff7b2	0.05077333
95	0x3db5a454	0.08869234
96	0x3d5bd4dc	0.053669795
97	0x3e6d9f79	0.23205365
98	0x3d8b0d5d	0.06789658
99	0x3e5df5c9	0.21675791
100	0xbdf97d0b	-0.12182053
101	0x3d395134	0.045243457
102	0x3d1f5987	0.03890374
103	0xbe0b80ff	-0.13623427
104	0x3e02e1a6	0.1278139
105	0x3e5bbab2	0.21457937
106	0xbdd10b16	-0.102071926
107	0x3d30a203	0.043123256
108	0x3d3a0641	0.04541612
109	0xbc123a2f	-0.008925005
110	0xbd83f558	-0.0644328
111	0xbb694d8f	-0.0035599207
112	0xbdb19ecc	-0.08672866
113	0xbc624f70	-0.013812885
114	0xbe21f79c	-0.15817112
115	0x3dfdd280	0.12393665
116	0x3d9ad36c	0.07559857
117	0x3d6684d4	0.05627902
118	0xbdaa61ca	-0.08319433
119	0x3d0298b6	0.031883918
120	0x3d990f6c	0.074736446
121	0x3db84578	0.08997625
122	0xbbac1e01	-0.0052526
123	0x3e11c937	0.14236914
124	0x3e68958c	0.22713298
125	0x3d84b6d9	0.06480188
126	0x3dc51830	0.09623754
127	0xbdce1fef	-0.100646846

fc2.weight f4 [9, 128]
0	0xbd9f651a	-0.077829555
1	0xbdbda43d	-0.092598416
2	0x3cc74847	0.024326457
3	0xbe0fb632	-0.14034346
4	0x3d5c66d7	0.053809013
5	0xbd473215	-0.048631746
6	0x3dca9880	0.09892368
7	0xbb91bc6f	-0.004447512
8	0x3acca8a0	0.0015614219
9	0x3ccef2ed	0.02526232
10	0x3d67befb	0.056578618
11	0xbd26386a	-0.040581144
12	0xbddb3b6e	-0.10704695
13	0xbe0a6c27	-0.1351782
14	0x3d532197	0.051545706
15	0xbbd22905	-0.0064135813
16	0xbcd2923c	-0.025704496
17	0x3cabffef	0.020996062
18	0x3dc9f474	0.09861079
19	0xbcf229c8	-0.029560938
20	0x3c98a3dd	0.018632824
21	0xbbae942d	-0.0053277225
22	0xbcec4f00	-0.028846264
23	0xbe0529c2	-0.1300421
24	0x3d0c37e8	0.034233004
25	0xbdbdc47a	-0.092659906
26	0x3dbdcc5f	0.09267496
27	0xbbc7f8a1	-0.006102637
28	0xbe3a3421	-0.18183948
29	0xbd6597ca	-0.05605296
30	0x3d137775	0.036002595
31	0xbd7b7313	-0.06138904
32	0x3ca9ca9f	0.0207265
33	0x3d02b1cf	0.031907853
34	0x3db03a31	0.08604849
35	0xbd6fb6d6	-0.058523975
36	0x3d815475	0.06314937
37	0xbc61d113	-0.013782757
38	0x3d3109b1	0.043222133
39	0xbd0acfc3	-0.033889543
40	0x3d8137a8	0.06309444
41	0xbda738c9	-0.08165128
42	0x3d436b0d	0.047709513
43	0xbd02beae	-0.031920128
44	0x3d56cd48	0.052441865
45	0x3d85b4c2	0.065286174
46	0xbdab829b	-0.083745204
47	0xbd533809	-0.05156711
48	0x3df1f94a	0.11815126
49	0x3d5fcb75	0.05463739
50	0xbdb2bc97	-0.08727377
51	0x3c662cef	0.014048799
52	0xbde126d8	-0.10993737
53	0x3db39050	0.0876776
54	0xbdacb96e	-0.084338054
55	0xbe42600b	-0.1898195
56	0xbd2521db	-0.04031549
57	0x3b612e6b	0.0034359943
58	0xbd8f49f3	-0.069965266
59	0x3dd75f1e	0.10516189
60	0x3d8abdbe	0.06774472
61	0xbda1a753	-0.07893243
62	0x3d123b90	0.035701334
63	0xbe384b7c	-0.17997545
64	0xbd84243d	-0.064522244
65	0xbd49f88f	-0.04930931
66	0xbd865cb6	-0.06560652
67	0xbdc47485	-0.09592537
68	0xbe180264	-0.14844662
69	0x3d61ea50	0.0551551
70	0xbc8c65d7	-0.017138405
71	0x3d5988fe	0.05310916
72	0x3d375130	0.04475516
73	0x3d08f265	0.03343429
74	0x3ce1d4fa	0.027567375
75	0x3c1c42a9	0.009537377
76	0x3d92c4b2	0.07166423
77	0x3d9f07e6	0.077651784
78	0xbdf94adf	-0.12172484
79	0xbc917814	-0.017757453
80	0x3d86de91	0.0658542
81	0x3ddd0204	0.107914
82	0x3dda813f	0.10669183
83	0x3dbd6309	0.09247405
84	0x3d1e18bb	0.038597804
85	0x3da97357	0.082739525
86	0x3cdff6ca	0.027339358
87	0x3d7dac5a	0.061931945
88	0xbdd1a6b1	-0.10236872
89	0xbd164ef7	-0.0366964
90	0x3d274081	0.040833
91	0x3ccd286b	0.025043687
92	0xbe375b1c	-0.17905849
93	0xbd1ea58d	-0.0387321
94	0xbcdf7092	-0.027275357
95	0xbd9f5c6c	-0.077813
96	0x3d41800d	0.04724126
97	0xbd5da439	-0.054111693
98	0x3d868cb7	0.06569808
99	0xbd56e068	-0.052460104
100	0x3b0693c8	0.0020534862
101	0xbda571d6	-0.08078353
102	0xbc8d9777	-0.017284138
103	0xbd071451	-0.03297836
104	0x3dbecd0c	0.09316453
105	0x3daa583d	0.08317611
106	0xbd9742df	-0.073858015
107	0x3da63490	0.08115494
108	0x3dfc24c3	0.12311699
109	0xbdb81633	-0.08988609
110	0xbd6f86c8	-0.058478147
111	0xbc2262cf	-0.009911253
112	0x3d828b9b	0.06374284
113	0x38f731ef	0.00011787179
114	0x3d854eaa	0.065091446
115	0x3d8d76f6	0.069074556
116	0xbd78b842	-0.060722597
117	0x3d38974c	0.045066163
118	0xbd76c50f	-0.060246523
119	0xbe5b1b2d	-0.21397085
120	0x3b3d7435	0.0028908376
121	0xbca28dd1	-0.019843014
122	0x3da41487	0.08011728
123	0x3d49050a	0.04907707
124	0xbd4c4cdf	-0.049877997
125	0xbdd4d66e	-0.10392462
126	0xbd8ede0f	-0.06975948
127	0xbd0f5e25	-0.035001893
128	0x3bf41399	0.0074486253
129	0xbc479adf	-0.01218292
130	0xbd159087	-0.036514785
131	0xbe0fd4cf	-0.14046024
132	0xbd3d2d3a	-0.04618571
133	0xbde6b220	-0.112644434
134	0xbbe128a2	-0.006871299
135	0x3d8c5357	0.06851833
136	0x3ce3dae8	0.027814344
137	0xbc2c97b7	-0.0105342185
138	0x3c21e755	0.009881814
139	0xbc5af78b	-0.013364683
140	0x3da06978	0.078326166
141	0xbce1dc75	-0.027570942
142	0x3d3614c2	0.04445339
143	0x3d93af64	0.072111875
144	0x3d8c23ca	0.06842764
145	0xbd197079	-0.037460778
146	0xbd1a0ca8	-0.037609726
147	0xbe381346	-0.17976102
148	0x3daa3fbe	0.08312939
149	0x3d489451	0.04896957
150	0xbd754c98	-0.0598875
151	0xbc61314d	-0.013744664
152	0xbc51fdc3	-0.012816849
153	0x3c3d3394	0.011547942
154	0xbbec93af	-0.0072197537
155	0xbced349b	-0.028955748
156	0xbcb2155e	-0.021738704
157	0x3d99f9df	0.07518362
158	0x3bfc9e05	0.007709267
159	0x3da41106	0.080110595
160	0x3d006429	0.03134552
161	0xbd37cdd1	-0.044874016
162	0x3d8a00e3	0.067384504
163	0xbcb05795	-0.021526137
164	0x3c2d83c2	0.010590496
165	0xbe02a27b	-0.12757294
166	0xbde02d70	-0.109461665
167	0xbd422e08	-0.04740718
168	0xbd7e93af	-0.06215256
169	0xbd963d0d	-0.07335863
170	0x3d942c4a	0.0723501
171	0xbd382446	-0.044956468
172	0x3daae671	0.083447345
173	0xbc449156	-0.011997541
174	0xbdea155d	-0.11429856
175	0x3d9a07a6	0.0752099
176	0x3c778f25	0.015109812
177	0x3d5e7cb3	0.05431814
178	0x3d1d4e74	0.038404897
179	0xbdfb13d3	-0.122596405
180	0xbcbd9eaa	-0.023146946
181	0x3db3d2d7	0.08780449
182	0xbd42b567	-0.04753628
183	0xbe02dd4d	-0.12779732
184	0xbe315721	-0.17318393
185	0x3d6871c8	0.056749135
186	0xbd99fb29	-0.07518608
187	0x3cf6de2e	0.03013524
188	0x3dc521dc	0.09625599
189	0x3c956487	0.018236412
190	0xbdf616e3	-0.12016084
191	0xbdb279e1	-0.08714653
192	0x3bfafb97	0.0076593864
193	0xbe1ead3a	-0.15495768
194	0x3d961aa8	0.07329303
195	0x3d8b4a17	0.06801241
196	0xbd891692	-0.06693758
197	0xbd825516	-0.06363885
198	0x3d8b5307	0.068029456
199	0xbdb273d9	-0.087135024
200	0x3a432dce	0.0007445485
201	0x3d2a553c	0.041585192
202	0xbd8de834	-0.06929055
203	0xbc67baf5	-0.014143695
204	0x3ced8ba1	0.028997244
205	0x3dd9c7ce	0.10633813
206	0x3d329083	0.04359485
207	0x3c1b5e30	0.009482905
208	0x3d22ad93	0.039716315
209	0x3def248a	0.11676891
210	0xbe1386b6	-0.14406857
211	0xbcfce4e0	-0.030870855
212	0xb9d5d65d	-0.0004078624
213	0x3cda16da	0.026622225
214	0xbcf09e2e	-0.029372301
215	0xbd9fd9ac	-0.078051895
216	0xbd867eec	-0.06567177
217	0xbd41dd9f	-0.047330495
218	0xbd4edfe3	-0.050506484
219	0xbda6dc2c	-0.08147463
220	0xbe401306	-0.18757257
221	0x3d7fa4ae	0.06241291
222	0xbd2ebbf9	-0.042659733
223	0x3d3d4bd7	0.046214905
224	0xbe085adf	-0.13315915
225	0x3d38d27f	0.04512262
226	0x3c73ecab	0.014887969
227	0x3da91319	0.08255596
228	0xbc725548	-0.01479084
229	0x3c980680	0.018557787
230	0x3d56818a	0.05236963
231	0xbe2b97a4	-0.16757065
232	0x3dc268c6	0.0949264
233	0x3db90898	0.09034842
234	0xbd63578b	-0.05550341
235	0x3dc63176	0.09677403
236	0x3da8c7e7	0.08241253
237	0xbe0e325e	-0.13886401
238	0xbd328c8b	-0.043591063
239	0x3d776055	0.060394604
240	0x3d6033e6	0.054736994
241	0x3d9132fb	0.07089802
242	0x3dbe2cd2	0.092858925
243	0x3cce25a7	0.025164438
244	0xbe2f927a	-0.1714572
245	0xbdf76d3b	-0.12081381
246	0xbbeeb320	-0.007284537
247	0xbc8ceaf5	-0.01720188
248	0xbc9fd9b7	-0.019512994
249	0xbc3c6efd	-0.011501071
250	0x3cb4d41c	0.022073798
251	0x3bb7ed24	0.005612986
252	0xbd8bd63e	-0.06827973
253	0xbb69df00	-0.0035685897
254	0x3daafe43	0.08349278
255	0x3baaabd9	0.005208474

fc2.bias f4 [9]
0	0x3d52eb37	0.05149385
1	0x3ca56b2b	0.020192703
2	0x3d201621	0.039083604
3	0xbd2a6942	-0.041604288
4	0x3d901d42	0.070368305
5	0x3d808418	0.06275195
6	0xbc087640	-0.008328974
7	0xbab841de	-0.0014057716
8	0x3d0ffcbc	0.035153136
