runs/7_agents_50000_episodes_mlp/models/actor_mlp.pth (torch, 25312 bytes, 4 tensors)

layers.0.weight f4 [128, 6]
0	0xbe0ddd59	-0.13853969
1	0x3e8faf7f	0.2806358
2	0xbe039be4	-0.12852436
3	0x3d534266	0.051576994
4	0xbea478ae	-0.3212332
5	0x3eba5421	0.3639231
6	0x3ea22118	0.31665874
7	0xbdb2b126	-0.08725195
8	0x3e989acb	0.29805598
9	0xbeac2221	-0.33619788
10	0xbea47a69	-0.32124642
11	0x3ebf7ec4	0.37401402
12	0xbc065e8c	-0.008201253
13	0xbe988c54	-0.29794562
14	0x3d09f66d	0.033682276
15	0xbcc65ee5	-0.024215171
16	0xbe693196	-0.22772822
17	0xbcc729d5	-0.02431194
18	0x3ec3e0b6	0.38257378
19	0x3ea2a782	0.31768423
20	0xbc2180ca	-0.009857366
21	0x3bba1214	0.0056784246
22	0x3e57397f	0.21018027
23	0xbef96f78	-0.48717856
24	0x3e96a3db	0.29421887
25	0xbd835b6a	-0.0641392
26	0x3e8f18cc	0.27948606
27	0x3e0e0e00	0.13872528
28	0x3db56249	0.08856637
29	0x3eb2bfc8	0.34911942
30	0xbe5a6965	-0.21329267
31	0x3e63d8ad	0.22250624
32	0x3e11a499	0.14222945
33	0xbead4fe1	-0.33850005
34	0xbeb7a3b4	-0.35867083
35	0x3ecb3637	0.396898
36	0xbe1d65ef	-0.15370916
37	0x3eafec08	0.34359765
38	0xbe067fb7	-0.13134657
39	0xbe1420df	-0.14465664
40	0x3ed2846d	0.41116658
41	0x3a1213f5	0.0005572432
42	0xbdb77f11	-0.08959783
43	0x3cc3d3df	0.023904739
44	0x3dc5469c	0.09632608
45	0x3cc4c165	0.024017999
46	0x3ed5ba5a	0.41743737
47	0x3bf18f63	0.0073718294
48	0x3ea4f667	0.3221924
49	0x3eb25828	0.34832883
50	0xbea0245e	-0.31277746
51	0xbe1d2ad0	-0.15348363
52	0x3e4e8f14	0.20171767
53	0xbd048f08	-0.032362968
54	0xbec76fca	-0.38952476
55	0xbe7fa42b	-0.24964969
56	0x3df4deb4	0.1195654
57	0xbeb28d3d	-0.3487338
58	0x3eca9ee8	0.3957436
59	0xbe80bedd	-0.25145617
60	0x3e386251	0.18006255
61	0x3c225671	0.009908305
62	0x3e9089d8	0.28230166
63	0x3e6b27fd	0.22964473
64	0xbeb46932	-0.35236508
65	0x3eff2ca7	0.49838755
66	0x3ea88435	0.32913366
67	0xbd1e0c61	-0.038586024
68	0xbdbac4b9	-0.09119553
69	0x3e894174	0.2680775
70	0x3ee7b3f6	0.45254487
71	0x3b890652	0.0041816616
72	0x3eb36e3b	0.35045037
73	0xbcfb7d5a	-0.03069942
74	0xbe1a5a7a	-0.15073577
75	0x3dd4cca7	0.10390597
76	0xbd92b502	-0.07163431
77	0xbee9e453	-0.4568201
78	0xbe02098d	-0.12698956
79	0x3e003934	0.12521821
80	0x3e66b49d	0.22529836
81	0x3e753a21	0.23947956
82	0xbed8bb14	-0.4233023
83	0xbec34459	-0.38138083
84	0x3e530acb	0.20609586
85	0xbc10f52c	-0.008847516
86	0xbe4c0a19	-0.19925727
87	0xbd6e5a30	-0.05819148
88	0xbe8b7d1d	-0.2724389
89	0xbead3e4b	-0.33836588
90	0x3dd57072	0.10421838
91	0xbdded55a	-0.10880537
92	0x3e3ab768	0.18234026
93	0x3e860245	0.26173607
94	0xbee03ecc	-0.4379791
95	0xbe72a243	-0.2369471
96	0xbe9af260	-0.30263042
97	0x3ed7412c	0.4204191
98	0x3e92a8d8	0.28644443
99	0x3e6ef7ae	0.2333667
100	0xbeabdd75	-0.33567396
101	0x3c914093	0.017730987
102	0x3ebb4ffc	0.3658446
103	0x3e38ce30	0.18047404
104	0x3e961a2f	0.29316851
105	0x3e5064d9	0.2035097
106	0xbc99a8ad	-0.018757189
107	0xbd8b8dd4	-0.06814161
108	0x3eb90328	0.3613522
109	0xbd828787	-0.06373506
110	0xbe935260	-0.28773785
111	0x3e8570f2	0.26062733
112	0x3e08dba5	0.13365038
113	0xbe9a9d27	-0.30198023
114	0x3c8088bc	0.0156902
115	0x3ebedef1	0.37279466
116	0x3eaf8cc2	0.34287077
117	0xbe14e3fa	-0.14540091
118	0x3dd0ff9f	0.10205006
119	0x3e2c3665	0.16817625
120	0x3ed12dfe	0.40855402
121	0xbeac3db0	-0.33640814
122	0x3e9605ec	0.29301393
123	0x3e17d03b	0.14825527
124	0xbeaedf8a	-0.34154922
125	0x3ed4282b	0.41436896
126	0xbecc6316	-0.39919347
127	0xbd1f7121	-0.038926248
128	0x3e7f49be	0.24930474
129	0x3ebf8e06	0.37413043
130	0x3e8e617b	0.27808747
131	0x3ea42487	0.32059118
132	0x3e2e4697	0.17019115
133	0x3e5fd1bc	0.21857351
134	0x3e3cc3a9	0.18434013
135	0xbd9279a2	-0.07152106
136	0x3ee43fb0	0.4457984
137	0x3ebddd49	0.3708289
138	0xbe907c78	-0.28219962
139	0xbe965f1b	-0.29369435
140	0xbe97587c	-0.29559696
141	0x3e4bad45	0.19890316
142	0x3eb23134	0.34803164
143	0xbea74ba3	-0.32674894
144	0xbdd67f16	-0.104734585
145	0x3e5942b2	0.21216848
146	0x3d2f88c7	0.04285505
147	0xbeae0516	-0.33988255
148	0x3ec0fcf8	0.37693
149	0x3e9d4d77	0.30723163
150	0x3e444d7d	0.19170184
151	0x3d85e17f	0.065371506
152	0x3e922c88	0.285496
153	0x3e865cd8	0.2624271
154	0x3ee56ecc	0.44811094
155	0x3ea45f17	0.32103798
156	0xbe05a69a	-0.13051835
157	0x3eb1a4fb	0.34696183
158	0xbea89067	-0.3292267
159	0x3ea84ae1	0.32869628
160	0xbeed616b	-0.46363387
161	0xbe2bed2c	-0.16789693
162	0x3e47ce85	0.19512375
163	0x3e8ef37a	0.27920133
164	0x3ea37c8b	0.31930956
165	0xbe90bd73	-0.28269538
166	0xbd695ab9	-0.056971285
167	0x3ed138bf	0.40863606
168	0x3d920b93	0.07131114
169	0x3e219bb7	0.15782057
170	0x3e72ed87	0.23723422
171	0xbecae272	-0.3962589
172	0xbe8ac3c2	-0.27102476
173	0x3ebef09a	0.3729294
174	0xbe3ef90c	-0.18649691
175	0x3ea69a65	0.3253967
176	0x3ebaf35f	0.36513802
177	0x3eae0a32	0.33992153
178	0xbd2b7d48	-0.041867524
179	0xbed805c6	-0.42191905
180	0x3d979416	0.07401292
181	0x3caba90b	0.02095463
182	0xbea34c77	-0.31894276
183	0x3e5f954d	0.21834297
184	0x3e50b737	0.20382391
185	0x3e677c25	0.22605951
186	0x3e908ebd	0.282339
187	0x3e509cab	0.20372264
188	0xbe3134a4	-0.17305237
189	0x3e8d24a9	0.27567032
190	0xbe28dfc2	-0.16491607
191	0x3ee7f0dd	0.45300952
192	0xbd653186	-0.055955432
193	0x3dfcd7c5	0.12345842
194	0x3c953c29	0.018217163
195	0xbec5b42d	-0.38614026
196	0x3d821fa0	0.06353688
197	0x3e897292	0.26845223
198	0xbe980e75	-0.2969853
199	0xbce7901a	-0.028266955
200	0xbec2a599	-0.38016966
201	0x3e06df4d	0.1317112
202	0x3dac6961	0.08418537
203	0x3eb9cdbe	0.3628978
204	0xbc179be1	-0.009253473
205	0x3e0cf961	0.13767006
206	0x3e6b0cbe	0.2295408
207	0x3d9a0ffe	0.075225815
208	0xbe99419c	-0.29932868
209	0x3efd024c	0.49415815
210	0x3de5ed2c	0.112268776
211	0x3bcb3434	0.0062012915
212	0x3b96af36	0.0045985235
213	0x3e8a8a96	0.27058858
214	0x3ec38ef3	0.38195
215	0xbe99dfbb	-0.30053505
216	0xbe1b002b	-0.15136783
217	0x3e956902	0.29181677
218	0xbe6bad21	-0.23015262
219	0xbeabf63f	-0.33586308
220	0x3e2b0307	0.16700374
221	0xbeeef0e3	-0.46668157
222	0x3e1f2f5b	0.15545408
223	0xbe2fc146	-0.17163572
224	0x3ddba3d9	0.10724611
225	0x3ed9713c	0.42469203
226	0xbdc33850	-0.09532225
227	0xbe54f190	-0.20795274
228	0x3e5e26bc	0.21694463
229	0x3da6fd50	0.08153784
230	0xbe9e8ba3	-0.3096591
231	0x3dfd10ab	0.12356695
232	0xbe69bc97	-0.22825848
233	0xbe9a9293	-0.30189952
234	0xbe15e73a	-0.14638987
235	0xbe6f01a1	-0.23340465
236	0x3ead7ef9	0.33885935
237	0x3ecd45ae	0.40092224
238	0x3e7344ef	0.23756765
239	0xbd02ccdc	-0.03193365
240	0xbe24a416	-0.16078219
241	0x3db93c3e	0.090446934
242	0xbe15d628	-0.14632475
243	0xbeb6e369	-0.35720375
244	0x3eb0bb83	0.3451806
245	0xbe578ae6	-0.2104908
246	0x3ce14f9a	0.027503777
247	0x3c88c71f	0.01669651
248	0x3c2699a6	0.010168469
249	0x3d8cfa1f	0.06883644
250	0xbdb9606b	-0.090515934
251	0x3e931102	0.28723913
252	0x3eb77aae	0.35835785
253	0x3d77d8cc	0.060509488
254	0x3eafbaba	0.3432215
255	0xbe120f88	-0.14263737

layers.0.bias f4 [128]
0	0x3eb2c50e	0.34915966
1	0xbeb752de	-0.3580541
2	0x3eb1f779	0.3475912
3	0x3e30b29c	0.17255634
4	0x3e188881	0.14895822
5	0x3d90d269	0.070713826
6	0x3ed6b6e2	0.41936404
7	0xbe0992e6	-0.13434944
8	0x3cbd3060	0.023094356
9	0xbde25702	-0.11051752
10	0xbe6ef754	-0.23336536
11	0x3e36c7b4	0.17849618
12	0xbeb994ed	-0.36246434
13	0xbe49f893	-0.1972373
14	0xbe87cad1	-0.26521924
15	0x3e8c18e0	0.27362728
16	0xbe03d042	-0.12872413
17	0x3ebbd1e4	0.3668357
18	0x3eaae469	0.33377388
19	0xbea0d3d2	-0.31411606
20	0x3e2d9ae3	0.16953616
21	0x3ec09cb8	0.37619567
22	0xbe631a80	-0.22178078
23	0xbcbe2ef1	-0.023215743
24	0x3e500809	0.20315565
25	0x3ebb9c5e	0.36642736
26	0xbe8a17b0	-0.26971197
27	0x3e8c6fe8	0.27429128
28	0x3e59b09f	0.21258782
29	0xbad58e44	-0.0016293009
30	0x3eabd5ed	0.3356165
31	0x3ecf9530	0.4054351
32	0xbe3e5791	-0.18588091
33	0x3e33ae58	0.17546976
34	0x3ea9018e	0.33009
35	0x3eda1763	0.42595968
36	0x3eb8ff8b	0.36132464
37	0x3e5caebc	0.21551031
38	0xbe9bfaa6	-0.30464667
39	0xbe50d21b	-0.20392649
40	0xbe010494	-0.12599403
41	0x3d9fe65f	0.07807612
42	0xbeaef75b	-0.34173092
43	0xbe80ceb0	-0.2515769
44	0xbd9a4028	-0.07531768
45	0x3ec748ce	0.38922733
46	0xbb8a6019	-0.0042228815
47	0xbdfaa945	-0.12239317
48	0xbe164ce0	-0.14677763
49	0x3d9f877c	0.077895135
50	0x3e9204bc	0.28519237
51	0xbeb75963	-0.35810384
52	0xbcb2142d	-0.021738136
53	0xbd88ef7b	-0.06686302
54	0x3eb7b632	0.35881191
55	0x3e96deeb	0.29466948
56	0xbe38d257	-0.18048988
57	0x3d14c54f	0.03632098
58	0xbc8ed332	-0.01743469
59	0xbeb5dca2	-0.35519892
60	0x3e9532c1	0.29140285
61	0xbd3bed0d	-0.045880366
62	0x3b9c5994	0.0047714207
63	0xbebeec99	-0.37289885
64	0xbebbfedd	-0.36717883
65	0x3ed8e144	0.42359364
66	0xbe9254b3	-0.28580245
67	0xbe3f6fd5	-0.18695004
68	0xbe05fc31	-0.13084485
69	0x3e0e793d	0.13913436
70	0x3cb0e7b0	0.021594852
71	0xbeb61e3a	-0.35569936
72	0xbed04615	-0.40678468
73	0xbe11eaca	-0.14249721
74	0xbdd62c11	-0.10457624
75	0xbdea3e59	-0.11437673
76	0x3e842adb	0.25813946
77	0x3e330461	0.17482139
78	0x3ce4fcc2	0.027952556
79	0xbcbeed4d	-0.023306513
80	0xbea545e3	-0.32279882
81	0x3e07a6a0	0.13247156
82	0xbece81b3	-0.40333328
83	0xbdd7ec05	-0.10543064
84	0x3d93288d	0.07185469
85	0x3ed6eeed	0.4197916
86	0x3e0976f9	0.1342429
87	0xbd357763	-0.04430331
88	0xbd2801e9	-0.041017447
89	0xbc5e0b09	-0.013552436
90	0x3e4a78ec	0.1977269
91	0xbe6082b7	-0.21924864
92	0x3e110c28	0.14164793
93	0xbde1834f	-0.11011373
94	0x3e77463c	0.24147886
95	0x3e48c3d3	0.19605951
96	0x3e409bff	0.18809508
97	0x3e15ae6c	0.14617318
98	0x3e3525e6	0.17690238
99	0xbe34537e	-0.17609975
100	0xbec6e355	-0.38845316
101	0xbd81c9e6	-0.06337337
102	0xbd8289d1	-0.06373943
103	0xbd8c1b74	-0.06841174
104	0xbd1563e5	-0.03647222
105	0x3eb9cbdb	0.36288342
106	0x3e0f0e9d	0.13970418
107	0x3ee8016d	0.45313588
108	0x3ee6290a	0.44953185
109	0x3db31ccc	0.08745727
110	0xbe01d031	-0.12677075
111	0xbe18b085	-0.14911087
112	0xbe7c846a	-0.24659887
113	0x3db146ac	0.08656058
114	0xbe56bfc7	-0.20971595
115	0xbe8b8b2b	-0.27254614
116	0xbb10045d	-0.0021975257
117	0x3e01be2d	0.12670203
118	0x3dfe499c	0.124163836
119	0xbb558055	-0.0032577713
120	0x3e48b68b	0.19600885
121	0x3edc7c92	0.4306379
122	0x3d2f99f1	0.04287142
123	0x3eca4798	0.39507747
124	0x3eae0c6e	0.33993858
125	0x3e481b62	0.19541696
126	0xbe549ca9	-0.20762886
127	0xbc13ed70	-0.0090287775

layers.2.weight f4 [38, 128]
0	0x3c84da98	0.016217515
1	0x3dd948d2	0.106095925
2	0xbdb6dc6c	-0.08928761
3	0xbd66e227	-0.05636802
4	0x3c9d6180	0.01921153
5	0x3c3f6e5a	0.011684025
6	0x3d29d134	0.041459277
7	0x3d78997e	0.060693257
8	0x3b3fae1a	0.002924806
9	0xbdc0b222	-0.09408976
10	0xbce24c90	-0.027624398
11	0xbd5c3ec3	-0.05377079
12	0xbc62b5f3	-0.013837325
13	0xbdd0a667	-0.10187989
14	0x3d672d8f	0.056439932
15	0xbc5c9b66	-0.013464784
16	0xbcb489d5	-0.02203838
17	0xbc91a504	-0.01777888
18	0xbdb20190	-0.08691704
19	0x3b056f35	0.0020360474
20	0xbd7f7a86	-0.062372707
21	0xbd920912	-0.07130636
22	0x3d57a2e6	0.052645586
23	0x3da17287	0.078831725
24	0x3dbf618b	0.09344777
25	0xbcabfaf2	-0.020993683
26	0xbd8263fa	-0.06366725
27	0x3cb72b41	0.022359492
28	0x3d4a7c3c	0.049434885
29	0xbe012ee1	-0.12615539
30	0x3af06180	0.0018339604
31	0x3d1567eb	0.036476057
32	0x3de0586c	0.10954365
33	0x3d6df9bc	0.058099493
34	0x3dd02c31	0.10164679
35	0xbdb7fb02	-0.08983423
36	0xbde87fda	-0.11352511
37	0xbdf2c9ac	-0.11854872
38	0xbdc78bfe	-0.09743498
39	0xbd35d03c	-0.04438804
40	0xbb41d180	-0.0029574335
41	0x3dacd308	0.084386885
42	0xbd17195c	-0.03688942
43	0x3c0310f7	0.00799965
44	0x3d0963d0	0.033542454
45	0x3d0fc623	0.035101067
46	0x3d086f47	0.033309247
47	0xbd73fc33	-0.059566688
48	0xbdbbe8ef	-0.09175288
49	0x3cce6684	0.025195368
50	0xbda6a36b	-0.08136638
51	0xbdb1ec8b	-0.08687695
52	0x3d533ebc	0.0515735
53	0xbda0437e	-0.07825373
54	0xbbe2b95b	-0.0069190687
55	0x3d9e8132	0.07739486
56	0x3d8da954	0.069170624
57	0x3db25e2c	0.08709368
58	0x3bdcc2fb	0.0067371107
59	0xbcd6a6b3	-0.026202535
60	0x3d7e57d9	0.062095497
61	0xbc13b37a	-0.0090149585
62	0xbd97a87a	-0.07405181
63	0x3d909000	0.07058716
64	0xbc2c126c	-0.010502439
65	0xbdb1876e	-0.08668409
66	0x3d9493f4	0.07254782
67	0xbc0ebeb4	-0.008712459
68	0xbdb8b0c9	-0.09018094
69	0x3db80a4e	0.089863405
70	0x3d1e27c5	0.038612146
71	0xbc835e21	-0.016036095
72	0x3d874dd0	0.066066384
73	0x3d9d0ef2	0.07668866
74	0x3d34f971	0.0441832
75	0x3d8d0799	0.06886215
76	0xbb9c9b1b	-0.004779232
77	0x3b80ba1c	0.003928436
78	0x3d3aadeb	0.045576017
79	0x3d639c9b	0.055569272
80	0xbce4fa76	-0.02795146
81	0xbbe5c0ef	-0.007011525
82	0x3be28ae5	0.00691353
83	0xbd390981	-0.04517508
84	0xbda8d671	-0.082440265
85	0x3cc9ea65	0.0246479
86	0x3dc7bd90	0.09752953
87	0x3d5a4a3e	0.05329346
88	0xbdb2985c	-0.087204665
89	0xbb6c77e8	-0.0036082212
90	0xbc082db3	-0.008311677
91	0xb98a3935	-0.00026364034
92	0x3d84c467	0.06482773
93	0x3d734018	0.059387296
94	0xbe0ea4f9	-0.1393012
95	0x3daa2674	0.083081156
96	0xbcc15dd0	-0.023604304
97	0xbb89b2e9	-0.004202236
98	0x3d81ace5	0.06331805
99	0xbca3e337	-0.020005805
100	0x3d722eba	0.059126593
101	0xbc3c8278	-0.011505716
102	0x3d85bbbf	0.0652995
103	0xbc897401	-0.016778948
104	0x3c73322e	0.014843507
105	0x3dd727e8	0.105056584
106	0x3dc0410e	0.09387408
107	0x3c9f845b	0.019472292
108	0xbd9d3134	-0.076754004
109	0x3c023bc0	0.007948816
110	0x3cbdfeee	0.023192849
111	0x3daf5ff5	0.08563224
112	0xbd26eda2	-0.040753968
113	0x3cd2ef9b	0.025749018
114	0x3d848e49	0.06472451
115	0xbd39ec2e	-0.045391254
116	0x3c06e42d	0.008233112
117	0xbb3ce6aa	-0.002882401
118	0xbde599f0	-0.11211002
119	0x3d18afd8	0.037277073
120	0xbd8aedde	-0.06783651
121	0xbcf8610e	-0.030319717
122	0xbc9c62e4	-0.019090123
123	0xbdd154df	-0.10221266
124	0xbd776235	-0.060396392
125	0x3db0b9fb	0.08629223
126	0xbdae3f39	-0.085081525
127	0xbd7e958e	-0.062154345
128	0x3e0c2d18	0.13689077
129	0x3d150bc1	0.036388163
130	0x3c57e940	0.01317817
131	0xbd9ad060	-0.075592756
132	0xbd476f46	-0.048690103
133	0x3d1782f6	0.03699013
134	0x3d2004a1	0.039066914
135	0xbd896056	-0.06707828
136	0xbdab6b3b	-0.08370062
137	0xbca46b16	-0.020070594
138	0x3df695db	0.120403014
139	0x3d92e46e	0.07172476
140	0x3d4c800f	0.049926814
141	0xbcf2af03	-0.029624468
142	0x3c95b903	0.018276697
143	0xbd87f298	-0.06638068
144	0xbbc9d495	-0.006159375
145	0x3c95a543	0.01826728
146	0xbd9c020d	-0.07617579
147	0x3c92f6fe	0.01794004
148	0x3cb1f091	0.021721156
149	0xbd9e1003	-0.07717898
150	0xbc551026	-0.013004338
151	0x3d9cd328	0.07657462
152	0x3daf61e7	0.08563595
153	0xbcb2017f	-0.021729229
154	0xbd8fdf05	-0.070249595
155	0x3d1f5d60	0.03890741
156	0x3de27cb0	0.110589385
157	0xbdcec978	-0.10097021
158	0x3d946e49	0.07247598
159	0xbbab3a8f	-0.0052254866
160	0x3d16005f	0.036621448
161	0xbc9d0153	-0.01916567
162	0x3da7db02	0.08196069
163	0xbd3cba65	-0.046076197
164	0xbd97d54b	-0.07413729
165	0x3cae52a6	0.021279644
166	0x3c865579	0.016398178
167	0xbcf980cc	-0.030456923
168	0xbd076a83	-0.033060562
169	0x3e0f5198	0.1399597
170	0x3d16492c	0.036690876
171	0x3d651330	0.0559265
172	0x3d4ba8f8	0.049721688
173	0x3da8fcfc	0.08251378
174	0x3d2fc386	0.042911075
175	0xbdd723aa	-0.10504849
176	0xbd8eb494	-0.06968036
177	0xbcb491c5	-0.022042165
178	0x3d99bf0b	0.07507142
179	0x3d15590d	0.03646188
180	0xbcf69f91	-0.030105384
181	0xbdac161d	-0.08402655
182	0x3dd6eac8	0.10494
183	0x3d9b7799	0.07591171
184	0x3d9b2b86	0.07576661
185	0x3da53fc5	0.08068804
186	0xbde63604	-0.112407714
187	0x3d2b6893	0.041847777
188	0x3d8c9e8e	0.068661794
189	0x3c678e6e	0.014133079
190	0x3ddd5b43	0.108084224
191	0x3caf9f01	0.021438124
192	0xbca041b0	-0.019562572
193	0x3de941c9	0.11389501
194	0xbd760609	-0.06006435
195	0xbd98ab22	-0.07454516
196	0x3d9beef1	0.07613934
197	0x3ceac5d6	0.028658789
198	0xbda1d9e3	-0.07902887
199	0x3d3d69c4	0.046243444
200	0xbd15d411	-0.036579195
201	0x3d532b85	0.051555175
202	0x3d9edd37	0.07757037
203	0x3bb2c404	0.005455496
204	0xbd663914	-0.056206778
205	0x3c3dc6a3	0.011583003
206	0x3d7b76e1	0.06139267
207	0xbcdc5031	-0.026893707
208	0xbdcad384	-0.09903625
209	0xbd9b1da2	-0.075740114
210	0x3c854b2f	0.016271202
211	0xbd8db6f0	-0.06919658
212	0x3d00a8ae	0.031410865
213	0x3d8b681c	0.06806967
214	0x3e0eaed5	0.1393388
215	0x3b3cb0fa	0.002879201
216	0x3d2cb04d	0.04216032
217	0x3d23f5cf	0.040029343
218	0xbda1ee9e	-0.07906841
219	0xbd5981f4	-0.05310245
220	0xbd901306	-0.070348784
221	0x3d5af52c	0.05345647
222	0x3c585995	0.013204952
223	0x3d601aa1	0.054712895
224	0xbc50533f	-0.01271516
225	0xbd74c4cc	-0.059757993
226	0x3da19236	0.07889216
227	0x3cdfd296	0.027322095
228	0xbda01044	-0.078156024
229	0xbe07c935	-0.13260348
230	0xbd3bffdb	-0.0458983
231	0x3da7cde5	0.08193568
232	0x3d42abe5	0.047527213
233	0x3db84e4c	0.08999309
234	0xbd8cca34	-0.06874505
235	0xbd5c765d	-0.053823818
236	0x3da3a6e4	0.07990816
237	0x3d980a70	0.07423866
238	0x3d6b6fd7	0.057479706
239	0xbd80ef53	-0.062956475
240	0x3d81ea80	0.063435555
241	0x3ce940fa	0.028473366
242	0xbcc24f2e	-0.023719396
243	0x3d8c4d3e	0.0685067
244	0xbd923e02	-0.07140733
245	0xbcd46b23	-0.025929993
246	0x3a4c3832	0.0007790356
247	0xbc91b211	-0.017785104
248	0xbc0de5fb	-0.008660789
249	0xbdb3199a	-0.087451175
250	0x3d93bc8b	0.07213696
251	0xbbaf5f68	-0.0053519495
252	0xbd897077	-0.06710904
253	0xbda25431	-0.079262145
254	0x3d71d189	0.05903772
255	0xbd8b03c7	-0.0678783

layers.2.bias f4 [38]
0	0xbdbbe45c	-0.091744155
1	0xbb16dc54	-0.002301951
2	0xbcb8efcb	-0.02257528
3	0x3e0277da	0.12741032
4	0xbe3325a7	-0.17494832
5	0xbd6acc7d	-0.05732392
6	0x3e26fa83	0.163065
7	0x3c70e252	0.0147023965
8	0xbd2b0c0a	-0.04175953
9	0x3d7b9b88	0.061427623
10	0xbde45701	-0.11149407
11	0x3d2ecead	0.04267757
12	0x3db9bd02	0.090692535
13	0x3ca9a45f	0.020708261
14	0x3d14423d	0.036195982
15	0x3da3dec2	0.08001472
16	0xbd174b8a	-0.036937274
17	0xbd3f6454	-0.04672654
18	0xbdf3a0e7	-0.11895924
19	0x3cd37755	0.025813738
20	0xbdf8cdf3	-0.12148657
21	0x3cfba3bc	0.030717723
22	0x3d8d8722	0.0691054
23	0xbd8e33be	-0.06943463
24	0x3d061bea	0.032741465
25	0x3dfb4f61	0.12271
26	0xbd47d3a7	-0.04878583
27	0xbb8781d0	-0.004135348
28	0x3d4765e5	0.04868116
29	0x3dc8a60b	0.09797295
30	0xbce7042f	-0.028200237
31	0xbcdf8b35	-0.027288059
32	0xbd54bd27	-0.051938202
33	0xbca78190	-0.020447522
34	0xbcc0f54a	-0.023554463
35	0x3ccb6291	0.024827274
36	0xbd524447	-0.051334646
37	0xbd3df268	-0.046373755
