runs/7_agents_50000_episodes_mlp/models/critic_mlp.pth (torch, 23784 bytes, 4 tensors)

layers.0.weight f4 [128, 9]
000000 ae fb 3b 3e 86 94 a1 3e cf a9 57 bd be 93 bf bd
       0.18357727 0.31558627 -0.052652176 -0.093543515
000010 d2 a7 82 3e e3 dd ce 3c 7d 99 92 3e c6 08 56 3d
       0.25518662 0.025252288 0.28632727 0.05225446
000020 f4 3e 38 bd 9e b5 a7 bd d8 55 6f 3c 62 11 89 be
       -0.04498191 -0.081889376 0.014607869 -0.26771075
000030 4a a4 6a 3e b6 65 ce bd 40 61 5d bc e1 ed 71 be
       0.22914234 -0.100779936 -0.013511956 -0.236259
000040 25 b2 cf bd f0 09 3b 3e 1c 04 56 3e ae 09 08 3e
       -0.101414 0.1826551 0.20900005 0.13284943
000050 e9 56 88 3e c5 36 40 3d f3 eb b5 3e c0 ff ad bd
       0.26628807 0.046927232 0.35531577 -0.08496046
000060 7a 5f 0f 3d ed f6 b1 3e cd 76 70 3e 3e 48 19 be
       0.035003163 0.34758702 0.23482819 -0.14968964
000070 3c e1 af 3e 12 99 9e 3d 7c 8d 70 be c7 30 29 be
       0.34351528 0.077440396 -0.23491472 -0.16522513
000080 63 c5 c0 3e 44 b6 99 3e eb 75 c1 3d 91 ff c9 ba
       0.37650594 0.3002187 0.09446319 -0.0015411248
000090 f4 63 7a 3d 22 81 a1 be d6 45 f8 3d eb 5a ab 3d
       0.06113048 -0.31543833 0.12122695 0.083669506
0000a0 3b e5 37 3e 31 ab 51 3e 0e 21 5a bd d0 6f fd 3d
       0.17958538 0.2047546 -0.05325418 0.12374842
0000b0 31 4e 91 bd 69 34 a3 3e 87 1c 54 3e d9 fd 44 3d
       -0.07094992 0.31875923 0.20714007 0.04809365
0000c0 f7 2b 93 3d d3 48 a9 3e 6b ee c7 3e fd 2d 5b bd
       0.0718612 0.33063373 0.39049086 -0.053510655
0000d0 da 01 9b 3e 7a f4 7b be be 2e 29 3e 60 b8 3d be
       0.3027485 -0.24604979 0.16521737 -0.18527365
0000e0 56 eb af 3e f3 aa 6d bd a2 68 b6 be 0f bd 74 be
       0.34359235 -0.058024358 -0.35626704 -0.23900245
0000f0 e9 19 24 be d0 7d a1 3e 44 f8 15 3e ef 85 fe 3d
       -0.16025509 0.315413 0.14645487 0.124278896
000100 9d 55 47 3d 49 03 47 3e ef 13 49 3e d9 0f 58 3e
       0.04866563 0.19434847 0.1963651 0.21099795
000110 9f 17 97 be 46 fa 2d 3d 0c 63 0b be 41 06 8e be
       -0.2951021 0.042475007 -0.13612002 -0.27739146
000120 6f cb f5 3d d9 81 66 be 70 56 37 be e5 72 b0 3e
       0.120016925 -0.2251047 -0.17904067 0.34462658
000130 f9 1f 2b 3e 7e 24 71 3e 1f cd 56 3e 37 fa 41 bd
       0.16711415 0.23549077 0.20976685 -0.047357764
000140 88 35 54 3e ba c9 b5 3e 22 cb 8e 3e 55 37 de bc
       0.20723546 0.35505468 0.27889353 -0.027125994
000150 19 e6 4e bd e8 ed 6c bd f6 51 38 be 63 7e 41 be
       -0.050512407 -0.057844073 -0.18000016 -0.18895869
000160 df f2 09 be a3 3b b2 3c fb 27 b4 be 6f 09 f3 bc
       -0.13471554 0.021756953 -0.35186753 -0.029667584
000170 1a aa 97 3e fb 7f aa be b6 e4 77 3e f8 87 05 3e
       0.29621965 -0.33300766 0.2420834 0.13040149
000180 a3 66 14 be 37 5f 86 3d d3 7c b4 3e 70 b2 ac 3c
       -0.14492278 0.065611295 0.35251483 0.02108118
000190 71 40 4c 3e ef c6 da bd 5a d1 54 be 5c b9 a2 be
       0.19946457 -0.10682475 -0.20782986 -0.31782043
0001a0 7c 80 22 be d8 40 98 3e 74 75 09 3e 28 b0 8c 3e
       -0.15869325 0.29736972 0.13423711 0.27478147
0001b0 0a 17 b4 3c e9 da 5e 3b 14 bc 8b 3e df be f0 bc
       0.021983642 0.0034004992 0.2729193 -0.02938789
0001c0 a8 c0 13 3d 35 23 69 bb e9 f3 8b be 40 85 71 3e
       0.036072403 -0.0035573964 -0.27334526 0.23585987
0001d0 dc f3 51 be 15 a3 8e be 16 f3 b5 be a5 b2 b3 3e
       -0.20503181 -0.27858797 -0.35537022 0.35097232
0001e0 d0 ac 18 3e ef 99 81 3e 45 5f 7c 3e 45 f5 0e be
       0.14909673 0.25312755 0.24645717 -0.1396075
0001f0 63 83 68 3e 5f 92 80 be 68 81 72 be 58 24 bf 3d
       0.2270637 -0.25111672 -0.23682177 0.09333104
000200 eb af 89 3e cf fc 0b 3e f5 c1 6d 3e 2c f8 bf 3e
       0.26892027 0.13670658 0.2321852 0.37494028
000210 33 83 59 be 1c 9c 03 be b1 1a 29 be b9 79 8b 3e
       -0.21241455 -0.1285252 -0.16514088 0.27241305
000220 33 98 76 3e 2f 03 8e 3e 11 cd 8a be 3a 34 96 3d
       0.24081497 0.27736804 -0.27109578 0.0733418
000230 46 19 e7 3d 37 f1 67 3e a9 1b 92 be 9e c4 3c bc
       0.112841174 0.2265061 -0.28536728 -0.011521487
000240 25 97 42 3e 19 19 8c 3e 84 f1 e4 3c 1b e1 6e 3e
       0.1900297 0.27362898 0.027947195 0.23328058
000250 8b a8 9e be 5b 7d 7a be 5f 4f 9b 3e fc 83 35 3c
       -0.30987963 -0.24461882 0.30333993 0.011078831
000260 e8 b4 ad 3e fe 9a 89 3e ae fa 5c 3e 81 55 61 be
       0.33927083 0.26876062 0.21580002 -0.22005273
000270 84 d9 ee 3c 8b ea 03 3e 77 74 96 3c 38 f5 38 3d
       0.029156454 0.1288244 0.018366082 0.045155734
000280 f5 a1 31 3d f4 10 89 be e5 c9 3e bb fc f2 49 3e
       0.043367345 -0.26770747 -0.0029112038 0.19721597
000290 fb ce 89 3e 48 f7 b8 bc 9e 4c 0a be d3 08 75 3e
       0.26915726 -0.02257885 -0.1350579 0.23929147
0002a0 98 c0 51 be 56 6e 2b 3e a4 c2 0b be 57 fc 62 bc
       -0.20483625 0.16741309 -0.13648468 -0.013854108
0002b0 b5 1b a2 3e b0 a8 06 3e 07 a9 4f 3e ad 6d 0f be
       0.31661764 0.13150287 0.20279323 -0.14006682
0002c0 61 39 8a be 87 16 06 be e5 31 32 3d f5 04 b6 3e
       -0.26996902 -0.13094531 0.043504614 0.35550657
0002d0 d0 a5 46 3d 34 4e 97 be f7 83 97 be e2 55 93 be
       0.048497975 -0.29551852 -0.2959287 -0.2877646
0002e0 e4 5a 9a bd 5b 84 70 be 6a 33 8c 3e bb d8 60 be
       -0.07536867 -0.2348799 0.27382976 -0.21957676
0002f0 3a d5 d2 3b 92 04 22 be 29 48 8a be 8b b4 8f 3a
       0.00643411 -0.15822056 -0.2700818 0.001096384
000300 0c 17 45 3e cd 4d 94 3e 42 5c 65 be 1c e9 e9 bb
       0.19247073 0.28965607 -0.22398475 -0.0071383845
000310 07 ff 07 3c b5 96 35 3e ae 5b 90 3e 91 e2 ac 3e
       0.008300549 0.17733271 0.28194946 0.33766606
000320 a7 e4 ee 3d 40 cc 5b 3e ac 5a 4d be d8 80 00 3e
       0.11664706 0.21464634 -0.2005412 0.1254915
000330 97 73 9d 3e 54 51 39 be 70 57 81 3e db ae 50 bc
       0.3075225 -0.1809743 0.25262022 -0.012737001
000340 d7 0f a5 3e a3 73 45 3e be 66 ac bd 52 7c b7 bd
       0.32238647 0.19282393 -0.08418034 -0.08959259
000350 39 24 58 3d fa f7 e9 bd 97 db 17 be 72 d3 01 bd
       0.05276892 -0.11424251 -0.1482986 -0.03169579
000360 21 ad c5 3d f8 eb 1b be 79 ca 7b 3e c1 a7 14 be
       0.09652162 -0.15226734 0.24588956 -0.14517118
000370 29 07 bf 3e d2 d9 05 3e 3b 61 fc bc a6 95 4e 3d
       0.3731015 0.13071373 -0.030808082 0.050435685
000380 17 04 b7 bd d4 72 81 be 89 b1 b1 3c 70 6e 4a 3e
       -0.08936327 -0.2528292 0.0216911 0.19768691
000390 d1 59 b3 3e 13 d4 99 3c ce 56 43 3e 49 04 6e bd
       0.35029462 0.018777883 0.19076082 -0.058109555
0003a0 1a 61 c9 3e dd 26 5b 3d 33 29 81 bd ea 08 a1 3e
       0.39331895 0.05350386 -0.06306686 0.31452113
0003b0 ac bb 16 bd ed 60 e5 3e f3 1c bb 3d 42 91 54 3e
       -0.03680007 0.4480051 0.09136381 0.20758536
0003c0 c8 6a 4a 3e 46 a6 0c 3e 54 cb 0c bc 39 26 34 be
       0.19767296 0.13735303 -0.008593399 -0.17592706
0003d0 95 51 a5 3d c9 bb a9 3e 97 36 56 be 7c a4 2f be
       0.08072201 0.3315108 -0.20919262 -0.1715259
0003e0 ee 0f b7 3e eb 86 43 3e c9 31 77 be 80 ee 2c 3e
       0.3575434 0.19094436 -0.24140085 0.16887856
0003f0 61 7a c8 bd f9 23 a9 be cc 00 c9 3d e1 a0 13 3e
       -0.09788967 -0.33035257 0.09814605 0.14416839

layers.0.bias f4 [128]
000000 79 f0 62 bd 9b d9 b6 3e aa 3c b3 3e ae ea 47 be
       -0.055405114 0.35712895 0.3500722 -0.19523117
000010 e2 44 d6 3e 83 3b 8e 3e 22 a5 42 3e 88 a4 78 bd
       0.41849428 0.2777978 0.19008306 -0.060703784
000020 a1 a4 bf 3e 45 34 bc 3e 74 e6 03 3d ed 4b 4b be
       0.3743029 0.36758628 0.0322022 -0.19853182
000030 f0 25 50 3e 5f 83 75 3c 1b 14 bc 3d 18 f7 64 3e
       0.20326972 0.014984935 0.09183522 0.22359884
000040 bf 95 8f be 4c b2 18 be 40 a7 c1 3e e1 bd 8b bd
       -0.28043935 -0.14911765 0.37822914 -0.06823326
000050 a3 1b 5a 3e 1e 04 0b be db 43 83 3e a8 01 92 3e
       0.21299605 -0.1357579 0.25637707 0.2851689
000060 fc ee 9c 3e ef ee 1c 3d e9 3d c3 3e f0 ed b9 3e
       0.3065108 0.038313802 0.3813317 0.36314344
000070 ec 27 f4 3d a1 46 78 3e 36 0f 8f 3e f2 97 45 3e
       0.11921677 0.24245693 0.27941293 0.19296244
000080 c7 d8 ae bd 2b 39 6d 3d cc 75 8e 3e 5c 49 2a 3e
       -0.08537441 0.057915848 0.27824247 0.16629547
000090 f8 6f 35 be 07 d7 95 3e 69 92 8d 3e 33 22 10 be
       -0.17718494 0.29265615 0.27650765 -0.14075546
0000a0 3f 7e 89 3e f1 5d 90 bd cc 9a 29 be ea 2c ea bd
       0.2685413 -0.07049168 -0.16562957 -0.11434348
0000b0 25 5c 6e be 2c 80 31 be 7d 66 7b 3e 82 be 5f be
       -0.23277338 -0.1733405 0.24550815 -0.21850017
0000c0 70 93 84 3e a3 23 7f 3d 25 89 95 be 6c 77 5d 3e
       0.25893736 0.062289845 -0.29206195 0.21627587
0000d0 48 f6 52 3e 1d 8e d5 3d 71 36 aa 3d 18 67 15 3e
       0.20601761 0.104274966 0.08311165 0.14590108
0000e0 7a 94 57 3e a5 e8 05 be 36 f8 87 3e b8 b2 7f 3d
       0.21052733 -0.13077028 0.26556557 0.0624263
0000f0 70 b7 a7 3e 04 3c a6 3e b2 76 a0 3e fc d6 0a be
       0.3275714 0.32467663 0.31340557 -0.13558573
000100 ec 71 b0 bc 6e 11 9f 3e 19 d1 4f 3e 4e fa 86 bd
       -0.021538697 0.31067985 0.20294608 -0.065907106
000110 2d 0a 60 3e 57 69 a6 3e 53 48 7f be 6f 4d 95 3e
       0.21878882 0.32502243 -0.24929933 0.2916064
000120 d2 64 12 bd 85 37 54 be f8 d4 36 bd 95 2e 2c be
       -0.03574068 -0.20724304 -0.044636697 -0.16814645
000130 c5 45 c7 3e 9e e9 0e 3e 28 09 be bd 66 d4 88 3e
       0.38920417 0.13956305 -0.0927909 0.26724547
000140 13 66 18 be 64 73 95 3d 6c cf 0d bd 64 2c 99 bd
       -0.14882688 0.072974 -0.03462164 -0.0747917
000150 f5 3c 9f 38 16 8d c9 3e 7e 0c 8c 3e bb ef 45 be
       7.593065e-05 0.39365453 0.2735328 -0.19329731
000160 27 84 98 3e e3 2c b5 3e cc d8 3e be 03 79 89 3e
       0.29788324 0.35385808 -0.18637389 0.26850137
000170 ee 66 43 3e f6 b5 09 3e d3 58 97 3e eb 64 4e be
       0.19082233 0.13448319 0.29559955 -0.20155685
000180 f6 f4 9d 3e fb 00 a6 3e f9 47 43 bd b0 55 5d be
       0.30850953 0.32422623 -0.04767606 -0.21614718
000190 5f 4b 90 be 86 fd 08 3d 7a e1 60 3e c3 82 00 3c
       -0.28182504 0.033444904 0.21961012 0.007843676
0001a0 72 35 f3 3c bc 11 05 bd 2f 7e 61 3e e6 67 43 be
       0.02968857 -0.032487616 0.22020791 -0.19082603
0001b0 3c 94 d2 bd 68 0d 60 3e 50 3f 9a bd c9 cf 15 be
       -0.1028218 0.21880114 -0.07531607 -0.14630045
0001c0 4f 1e b1 3e 22 a0 4e be 09 18 a6 bc 52 c4 16 be
       0.34593436 -0.20178273 -0.020275133 -0.14723328
0001d0 50 70 ce 3d 12 f4 93 be 09 ff 4c bc 65 70 af 3e
       0.10080016 -0.28897148 -0.012511977 0.34265438
0001e0 ec 1a 6c bd 22 3e 4c bd 09 e7 c3 3e 8e e4 50 3e
       -0.057642862 -0.049863942 0.38262203 0.20399687
0001f0 9e 7a 48 bd 27 be 91 3e c4 4f c0 bd eb c9 2c 3d
       -0.04894506 0.28465387 -0.09390214 0.04218475

layers.2.weight f4 [32, 128]
000000 3d c9 a0 3a 3f 73 01 3e 32 30 ac 3c 6f 0b 23 3d
       0.0012267005 0.12641619 0.021019075 0.039805826
000010 36 a8 65 3d 2a dc 0d 3c 75 f2 89 bd ac 9f 65 3d
       0.05606862 0.008658448 -0.06735698 0.056060478
000020 14 2d dc 3d 81 7c 6a bd 14 7d 30 bc 2b 14 75 3d
       0.107507855 -0.057247642 -0.010772008 0.059833687
000030 3b c4 6e bc 5a 59 ae bb 39 c6 d2 3d e8 5e 34 bd
       -0.014573152 -0.00532071 0.10291714 -0.044035822
000040 66 14 ff bd 6c ef 1f bd 7f 2c 5b 3c 0b e2 4d 3d
       -0.124550626 -0.03904669 0.013377308 0.0502644
000050 1f 5d 25 3e 84 4c 12 bd df 95 f0 3d 16 2d 34 3c
       0.16148804 -0.035717502 0.11747336 0.010997077
000060 75 3b e5 bc 10 8f 87 3d 04 5d 04 3e 11 66 3d 3d
       -0.027982453 0.06619084 0.12926108 0.046239916
000070 d1 ac 20 bd 60 59 06 bd 01 73 82 bc b2 2e 0d 3e
       -0.03922731 -0.03280008 -0.015923979 0.13787344
000080 c9 a2 13 3e 8d e6 aa 3d 0b 21 be b9 08 f2 f4 bb
       0.14417566 0.08344755 -0.00036264243 -0.0074751414
000090 be 67 52 bc b4 0f aa bd f7 35 76 bc 2e ef 3b 3d
       -0.012842117 -0.083037764 -0.015027515 0.045882396
0000a0 c9 1b 41 3c 91 c6 5f bd b7 5e c4 3d 85 5d 96 3d
       0.01178641 -0.054632727 0.09588378 0.07342056
0000b0 bb ea 59 3d 88 ab fb 3d e5 5b d8 3d 5b 91 af bb
       0.053202372 0.12288576 0.105644025 -0.005357904
0000c0 3f 9b 54 b9 64 90 a2 bd d2 96 2f bb ca 7a 4a bd
       -0.00020275729 -0.079376966 -0.0026792777 -0.049433507
0000d0 2c a3 0b 3d 9d 23 8f 3d 0d 3b bd 3c d9 bb c3 bc
       0.03409116 0.069892146 0.023099447 -0.023893284
0000e0 e5 c6 7e bd 86 8d aa bd 1b 20 c0 bc 35 b0 fb 3d
       -0.0622014 -0.08327775 -0.02345281 0.12289468
0000f0 7a a7 8a 3d ca a1 7d bd 2f 81 cf 3d d1 5a db 3d
       0.06770225 -0.061921872 0.10132062 0.10710681
000100 f8 ee ba bc 44 83 3f bd cb 72 f5 bc 04 d6 25 3c
       -0.022819027 -0.046756044 -0.029961964 0.010121826
000110 0b 41 7b bd d9 b9 0e bd 21 64 8c bc bc 21 ae 3d
       -0.061341327 -0.034845207 -0.017137589 0.08502528
000120 09 5b 5c bd 75 4b db 3c 6e c3 2b 3d 17 25 f0 bc
       -0.053797755 0.02676938 0.041934423 -0.02931456
000130 61 0a d4 3c 5b 2e b8 3d 40 de 7d bc af 6c 83 bc
       0.025883855 0.089932166 -0.015494883 -0.016043035
000140 67 a9 62 bd dd 61 9f 3d 69 d9 bf 3c bc e4 b8 bc
       -0.055337336 0.07782338 0.023419099 -0.022570007
000150 9a 4f 9f bd 68 d6 b8 bc f6 9a 22 3d ba 10 27 bd
       -0.07778855 -0.022563174 0.039698564 -0.040787436
000160 ba c2 d7 bc 1a 95 94 3d da 0f be 3d 24 f7 71 3d
       -0.02633797 0.07255001 0.09280367 0.059073582
000170 8f d3 35 3d 46 fc 2a bc a0 18 74 bd 9c 4d c1 3d
       0.04439121 -0.010436123 -0.059593797 0.09438631
000180 98 3f 8d 3d 29 97 af 3d 66 bb da 3c 81 df 07 bc
       0.06896895 0.085737534 0.026700687 -0.008293034
000190 85 9f 47 3d ff d2 18 3c 9c a6 4f 3e f7 75 19 bd
       0.048736114 0.009327649 0.202784 -0.037466016
0001a0 47 88 88 bd d7 cc 99 3d 5e 24 e7 3b 81 81 58 bd
       -0.06666618 0.07509773 0.007053896 -0.05285788
0001b0 59 5d 84 3c ce 2c a8 bd 51 ea 4c 3e 76 78 72 bc
       0.016157793 -0.08211671 0.2001126 -0.014799228
0001c0 98 8c 8c bd 22 10 72 3d e7 36 c0 3c 99 5c d7 3d
       -0.06862754 0.059097417 0.02346368 0.105157085
0001d0 2c a3 56 3d 98 5f b3 3d 82 0a 28 bd fb 8f 6a 3d
       0.052401707 0.087584674 -0.041025646 0.057266217
0001e0 6e 6d be 3b 77 b1 af 3d 65 f5 36 3d 46 6c 9d 3d
       0.005811385 0.085787706 0.04466762 0.07686667
0001f0 84 71 7d 3d 83 2b ca 3d 97 83 8c 3d 91 4a cd bd
       0.061875835 0.098715805 0.06861036 -0.10023988
000200 26 69 84 3d a1 59 2d 3d fb e6 73 bd f4 40 7a bd
       0.06465368 0.042321805 -0.059546452 -0.0610971
000210 ef ba 12 3d 1c 3a 12 bd b2 3e cd 3d 10 3b bf bc
       0.035822805 -0.03569995 0.10021724 -0.023343593
000220 cb 09 4f bd bb 39 1f 3c bb 9f e0 3c 3c e0 a5 3c
       -0.05054645 0.009718354 0.027419915 0.020248525
000230 aa 68 78 3d ef c0 08 bd f3 d6 6b bd d2 56 98 3d
       0.06064669 -0.03338712 -0.05757804 0.07438435
000240 b3 7b b9 bb e5 00 ed 3c b0 30 5d bd 10 9b 98 3d
       -0.005660498 0.02893109 -0.05400151 0.07451451
000250 4a 79 05 be 30 e0 08 3c d4 a4 1d bc d0 ce 84 bd
       -0.1303455 0.008354232 -0.009621818 -0.06484759
000260 97 32 f4 3b 91 e7 b0 bd 11 b8 b8 bd 0d 10 74 bc
       0.00745232 -0.08637918 -0.09019483 -0.014896405
000270 d2 29 ca 3d 08 2a c4 3d d9 49 d1 3d 71 1a 22 bd
       0.09871258 0.09578329 0.102191634 -0.039575998
000280 70 af f0 bd 0c 4f 12 3d ca 59 55 bd 66 e5 67 3d
       -0.11752212 0.035719916 -0.052087583 0.056615256
000290 19 a1 a2 bd 94 5e af 3d 74 24 93 bd b7 63 6d 3c
       -0.07940883 0.08562961 -0.07184687 0.014489106
0002a0 e5 d3 83 3d 1e fe 9d bd 0a 59 6a bd b3 25 5b bd
       0.064369 -0.07714485 -0.05721382 -0.05350275
0002b0 99 d8 85 bb 4e f8 f2 bb f2 ed 83 3d bc e4 3f b8
       -0.0040846583 -0.007414854 0.06441869 -4.5750974e-05
0002c0 e2 35 ab bd 62 41 26 bd 5c 72 e9 bc ff 98 48 3d
       -0.08359887 -0.040589698 -0.028496914 0.048974033
0002d0 aa 91 e1 3c bd a8 71 bd b4 18 93 3d 5e d7 e4 3c
       0.027535278 -0.058998812 0.07182446 0.027934726
0002e0 f7 d9 a1 3d 56 4b 18 3c 36 81 3b 3c 04 0b 03 bd
       0.079029016 0.009295305 0.0114443805 -0.031992927
0002f0 9b 5a 3a bd f4 0f 30 3c a5 8e 04 bc c1 bd 3e bd
       -0.045496564 0.010745991 -0.00809065 -0.046567682
000300 71 f5 3e 3d 90 0b 9c 3d 4c 16 ed 3d 00 65 44 3d
       0.04662079 0.07619393 0.115765184 0.047947884
000310 ba 6d 00 3e 62 6f 85 bd c4 79 be 3d 0c dc d9 bc
       0.12541857 -0.06515385 0.09300569 -0.026594184
000320 9f c0 86 bd be 91 ec 3d cb 73 b6 bb 85 b7 bf 3c
       -0.06579708 0.115512356 -0.005568003 0.023402939
000330 13 06 b4 bc 79 2b 8e 3d 13 c6 ba bd 26 49 bd bd
       -0.021975553 0.069418855 -0.09119811 -0.092424676
000340 01 91 43 bc ef ff 40 bd ac a1 5c bd e6 c5 8c 3d
       -0.011936427 -0.047119077 -0.05386512 0.06873684
000350 1a 5c 0d 3e 01 2a 97 3c 0b 2f 99 bd 5f 3f bf bc
       0.13804665 0.018452646 -0.07479676 -0.023345647
000360 e6 49 24 3d bd 78 90 3b 29 60 85 bd 61 f1 af 3d
       0.040109538 0.0044089244 -0.06512482 0.08590961
000370 a6 5a 8a 3c af 24 e4 bb 1a e8 0b bd f7 cd 73 3c
       0.016888928 -0.006962381 -0.034156896 0.014880649
000380 3a c2 b9 3d 3e 95 df bc 15 17 93 3d cb ea 1f bc
       0.09070249 -0.027292844 0.07182137 -0.009760569
000390 63 1e 55 bd 58 44 20 bd b1 f6 0d be ed dc 16 3d
       -0.052030932 -0.039127678 -0.13863637 0.036831785
0003a0 57 4a da 3d 27 2d ab 3d 17 7f 19 3d fb a6 a0 bb
       0.106587104 0.083582215 0.037474718 -0.004902718
0003b0 3c 65 57 bd 13 b0 2c 3d 5e a4 35 bd 6a 1a 0e 3b
       -0.05258678 0.042160105 -0.044346206 0.0021683224
0003c0 53 21 65 3d 86 3b 9d 3d 22 5f b7 3c e9 7e b7 bc
       0.055939984 0.07677369 0.02238423 -0.022399383
0003d0 4d 28 32 3b a3 67 8b 3d 62 9a 6e 3d f1 51 13 3d
       0.0027184666 0.068068765 0.0582527 0.035966817
0003e0 2f 91 ab 3c ef 87 b1 3c 31 fe ba bd 99 8d 13 bd
       0.020943252 0.021671264 -0.091305144 -0.03602371
0003f0 03 e7 b4 bd c9 0c fa bd d1 60 6e 3d d0 2d 05 3e
       -0.088331245 -0.1220947 0.0581978 0.13005757

layers.2.bias f4 [32]
000000 94 c3 b4 3d 71 22 77 bd f7 ad bd 39 b4 c9 82 bc
       0.08826366 -0.06033558 0.00036178503 -0.01596532
000010 b0 cf 9a 3d 30 23 82 bd 26 bb 95 3d 7d 6f 44 3d
       0.075591445 -0.06354368 0.07311086 0.047957886
000020 0c 37 89 bd ba 26 2d bd 0f 07 71 bc 40 21 31 bd
       -0.066999525 -0.04227326 -0.014711156 -0.0432446
000030 2d a3 8d 3d a8 bd 82 bd c8 9a 6f 3d f9 86 08 be
       0.06915889 -0.0638383 0.05849722 -0.13332738
000040 81 60 3d 3d d7 93 d5 bd 5f e5 bd bd 9d d5 bd ba
       0.04623461 -0.10428589 -0.09272265 -0.0014483217
000050 93 6e b9 3d c9 99 89 bd 9f 5e 0e 39 e3 4c 2d 3e
       0.090542935 -0.06718785 0.00013577424 0.16923861
000060 f5 fb 29 bd 28 fe 93 bd 52 c9 6b 3d 78 3f 86 3d
       -0.04150005 -0.07226211 0.05756504 0.065550745
000070 78 a4 20 3b ff 31 43 bc 93 6f 35 3d 7d 4b 71 bc
       0.0024512094 -0.0119137755 0.04429586 -0.01472747
