runs/7_agents_50000_episodes_mlp/models/critic.pth (torch, 19272 bytes, 3 tensors)

fc1.weight f4 [128, 32]
0.11020498 -0.102027014 0.12509774 -0.0150219 -0.044188537 -0.1304589 -0.14345963 -0.014311448
0.13705036 0.05638011 0.11613769 0.05632176 -0.15851046 0.1512263 0.17045423 -0.22435944
0.09535635 -0.08236622 -0.12004197 0.13315406 0.12130544 -0.09944102 -0.024282802 0.15462448
0.1562568 -0.15579757 -0.045772053 -0.06077034 0.00785964 -0.12911943 -0.104721986 0.005773451
-0.23023956 0.1656012 -0.22478594 0.17313768 -0.049096633 0.08333885 0.057009738 0.06429063
-0.06372121 0.23176932 -0.21508883 -0.09767449 0.08386004 -0.015015155 -0.22201301 0.05746246
-0.1793987 0.10257187 -0.16964103 -0.22952595 -0.026774818 -0.076128855 -0.011138547 -0.12463115
-0.11679949 -0.009783695 -0.11471492 -0.008762236 0.014361627 0.06409317 0.0012960614 0.014073029
-0.17575715 0.1630529 0.06813362 -0.02953684 0.13053042 0.1343629 0.03091412 0.06519836
-0.11706358 0.120784044 -0.14166646 0.02990911 0.18716876 -0.15833734 -0.24423599 -0.11425562
0.13894743 -0.13093834 0.13387194 0.082259424 0.04594796 -0.013941774 -0.10087903 0.1652615
-0.027358467 -0.16502376 0.17603186 -0.14779785 -0.12807259 -0.034653123 -0.18742506 0.027321592
0.06740302 0.10396034 -0.16180095 0.037477188 -0.01968408 0.06749167 0.17381692 -0.0919483
-0.19439958 0.081716806 0.025906513 0.17537136 0.17723356 -0.12467605 0.020759169 -0.11154203
0.061833844 -0.048626907 -0.08641694 -0.20907405 0.13081 -0.12456118 0.15090793 -0.07026263
-0.059056114 -0.02485368 0.14751418 0.026588654 -0.17371047 -0.03271776 -0.12904961 0.09154642
-0.22068805 0.08497319 0.058697723 0.053806297 -0.06997167 -0.083497226 0.1708645 0.13024017
-0.13829476 -0.08098909 -0.086592644 -0.088887244 0.03186219 -0.025958143 -0.101856254 -0.13886751
0.04069959 -0.13531439 0.0989255 -0.038548116 -0.00016942881 -0.11856286 0.117583774 0.16826278
0.08602273 0.08617785 0.13758926 -0.0461341 -0.035678968 -0.13644905 -0.07237303 -0.10610856
0.017180562 0.049162522 0.119182564 -0.14057939 -0.1703304 0.08925194 0.04842846 -0.07689484
0.08823508 -0.19944151 0.15681668 0.061190967 0.11591857 0.017829774 -0.051754393 0.017346583
0.029617084 0.0018440365 -0.08394002 -0.037281904 0.17609322 0.11651241 -0.17430592 -0.050086215
-0.09597519 -0.068848945 -0.14897986 -0.12645441 0.1390607 -0.043827213 -0.043216202 -0.21051104
0.012487716 0.026583407 0.08073643 0.12231992 0.05097639 0.14673734 -0.14754213 0.025466722
0.0062657217 0.05686924 0.054820236 0.07893306 -0.049058083 0.21362582 0.13486315 -0.0068760244
-0.026418047 -0.20306146 -0.05611624 0.16361654 -0.1123285 -0.14849086 -0.16827343 0.2079361
0.084900826 -0.12393614 -0.0838083 0.115093224 0.15553011 0.06928856 0.0637431 0.15895395
0.010670994 0.21915911 0.041825425 0.06322544 -0.11119949 -0.1416016 0.11973276 -0.073123574
-0.13617782 -0.12882368 -0.13125205 0.17453636 -0.06303704 0.043851983 0.1857376 -0.1496296
0.11708511 -0.06479266 0.028499454 0.013131183 0.047720306 0.10379074 0.08941408 -0.12075841
0.07236447 0.16268289 0.09350807 -0.17704667 0.05511488 0.19273695 0.1231782 0.09325244
00000000: 26b3 e13d 8af3 d0bd 9f19 003e 6a1e 76bc
00000010: 0aff 34bd 0597 05be 15e7 12be 907a 6abc
00000020: ee56 0c3e d5ee 663d 99d9 ed3d a5b1 663d
00000030: 9150 22be 11db 1a3e 8e8b 2e3e 7bbe 65be
00000040: 314a c33d 9faf a8bd 90d8 f5bd 8a59 083e
00000050: fd6e f83d bca7 cbbd baec c6bc e155 1e3e
00000060: c801 203e 6689 1fbe 7a7b 3bbd 52ea 78bd
00000070: b8c5 003c e237 04be 7b78 d6bd 382f bd3b
00000080: ebc3 6bbe 5c93 293e 492e 66be 014b 313e
00000090: 8d19 49bd 8fad aa3d 0b83 693d ceaa 833d
000000a0: 4480 82bd f054 6d3e 3f40 5cbe 9009 c8bd
000000b0: d0be ab3d 2002 76bc 6157 63be c25d 6b3d
000000c0: 4bb4 37be 3311 d23d 61b6 2dbe da08 6bbe
000000d0: dd56 dbbc 72e9 9bbd 747e 36bc 9e3e ffbd
000000e0: 9234 efbd cb4b 20bc a8ef eabd 7b8f 0fbc
000000f0: 084d 6b3c 4843 833d 9be0 a93a 9092 663c
00000100: aff9 33be 57f7 263e a489 8b3d 3ef7 f1bc
00000110: c4a9 053e 6e96 093e 9c3f fd3c b886 853d
00000120: 08bf efbd a05d f73d 0311 11be f303 f53c
00000130: 2ba9 3f3e 2f23 22be 0019 7abe dafe e9bd
00000140: 3c48 0e3e b314 06be ba15 093e a177 a83d
00000150: ee33 3c3d 0a6c 64bc aa99 cebd 503a 293e
00000160: dd1e e0bc fdfb 28be b241 343e 5258 17be
00000170: 7625 03be 6ff0 0dbd 5bec 3fbe 88d1 df3c
00000180: 980a 8a3d 29e9 d43d 26af 25be ae81 193d
00000190: 8240 a1bc 1339 8a3d 10fd 313e 644f bcbd
000001a0: af10 47be 245b a73d e539 d43c 8d94 333e
000001b0: b77c 353e 2856 ffbd 220f aa3c 2670 e4bd
000001c0: 7c45 7d3d 022d 47bd 5dfb b0bd 8217 56be
000001d0: 0ef3 053e ef19 ffbd 9c87 1a3e dbe5 8fbd
000001e0: d3e4 71bd f299 cbbc f50d 173e 73d0 d93c
000001f0: 28e1 31be 0f03 06bd 9525 04be b07c bb3d
00000200: 0cfc 61be 6d06 ae3d 066d 703d fe63 5c3d
00000210: 4f4d 8fbd 9800 abbd 1af7 2e3e ae5d 053e
00000220: 249d 0dbe 9cdd a5bd 7c57 b1bd 840a b6bd
00000230: ee81 023d 2ca6 d4bc 039a d0bd 4933 0ebe
00000240: 9db4 263d db8f 0abe 7499 ca3d a1e4 1dbd
00000250: b3a8 31b9 16d1 f2bd c3cf f03d 144d 2c3e
00000260: af2c b03d 037e b03d 33e4 0c3e 1cf7 3cbd
00000270: 1c24 12bd 4db9 0bbe 5038 94bd 724f d9bd
00000280: 40be 8c3c a45e 493d fd15 f43d 0bf4 0fbe
00000290: 186b 2ebe b9c9 b63d ec5c 463d 0b7b 9dbd
000002a0: 98b4 b43d 653a 4cbe 8d94 203e 61a3 7a3d
000002b0: b766 ed3d bf0f 923c 6afc 53bd 6c1a 8e3c
000002c0: 879f f23c 99b3 f13a bfe8 abbd e9b4 18bd
000002d0: c851 343e 0f9e ee3d 407d 32be 3427 4dbd
000002e0: a48e c4bd ad00 8dbd 2d8e 18be 447d 01be
000002f0: ee65 0e3e 2a84 33bd 7903 31bd 3590 57be
00000300: 4799 4c3c 72c5 d93c 2459 a53d de82 fa3d
00000310: 9ecc 503d 5042 163e 4915 17be 969f d03c
00000320: af50 cd3b b8ef 683d 2f8b 603d a8a7 a13d
00000330: 21f1 48bd bac0 5a3e 9119 0a3e 4650 e1bb
00000340: a96a d8bc 58ef 4fbe 24da 65bd 188b 273e
00000350: 7c0c e6bd fd0d 18be df4f 2cbe 33ed 543e
00000360: 7ce0 ad3d 3bd2 fdbd b0a3 abbd ffb5 eb3d
00000370: 4943 1f3e 29e7 8d3d be8b 823d d3c4 223e
00000380: 65d5 2e3c 3f6b 603e 2351 2b3d 577c 813d
00000390: 8fbc e3bd 0300 11be 7336 f53d d0c1 95bd
000003a0: 3372 0bbe 5bea 03be f066 06be a9b9 323e
000003b0: 9019 81bd 239e 333d ff31 3e3e 8038 19be
000003c0: 51ca ef3d 04b2 84bd b077 e93c 2c24 573c
000003d0: 5e76 433d 3d90 d43d bb1e b73d 2f50 f7bd
000003e0: d333 943d 5896 263e 2981 bf3d b94b 35be
000003f0: 24c0 613d d65c 453e da44 fc3d 23fb be3d

fc1.bias f4 [128]
0.033554204 0.06489387 0.042226862 -0.077954985 -0.1567538 0.08300667 0.2022814 0.1564614
0.10003919 -0.14235443 0.1679397 -0.08955136 -0.08413324 -0.08801581 -0.062422812 0.022346046
0.1312333 0.01606353 -0.0840356 0.0032027601 -0.020551711 0.1456127 -0.06867906 -0.08165441
0.013934269 -0.11470826 -0.079818584 0.072872974 0.08112873 -0.10690395 -0.07968396 0.18189475
-0.04045449 0.18482344 0.13535886 0.11573471 -0.15607746 0.18376523 0.09866815 0.00081709627
-0.084434636 -0.096445695 0.14116478 0.07434781 -0.14997064 -0.1428921 0.04752628 -0.13660453
0.014535332 0.18125653 0.046448305 0.035524063 -0.077482514 -0.028064447 -0.10538849 0.049442224
-0.06844941 0.11508772 -0.013847848 -0.04451817 0.025705647 -0.05052427 -0.08102852 -0.17472559
0.15955181 -0.11925278 0.026930917 -0.06997619 -0.037675574 0.08734701 0.010859636 -0.06276142
0.13575645 0.0072328444 0.097118825 -0.0769431 0.16470566 0.21297443 -0.0631853 0.1595162
-0.10161809 -0.08213323 0.13982229 0.0785496 0.02365658 0.17257597 -0.045976102 -0.14921169
-0.14219369 0.10042443 0.0912058 0.02711576 0.123776406 0.18467732 0.09602008 0.09013709
0.07281272 0.040999055 0.15820214 -0.09686035 0.21961965 -0.07584032 0.16246074 -0.03503418
-0.011078752 0.09139084 -0.17856896 0.083945945 0.16512693 0.06689958 0.15380071 0.0661875
0.07375871 0.07334949 0.09229063 0.09416044 0.095295876 0.14193074 0.031864516 -0.042952374
0.11071179 0.13812155 -0.050900415 0.038582575 -0.10912628 0.17081694 0.10636405 -0.095473155
00000000: 2270 093d 14e7 843d 13f6 2c3d dda6 9fbd
00000010: 1184 20be 67ff a93d db22 4f3e 6b37 203e
00000020: 59e1 cc3d 5cc5 11be 62f8 2b3e b466 b7bd
00000030: 0c4e acbd a241 b4bd 10af 7fbd 0e0f b73c
00000040: 0662 063e aa97 833c db1a acbd 66e5 513b
00000050: 105c a8bc 7f1b 153e 9ba7 8cbd 6d3a a7bd
00000060: 8f4c 643c 2aec eabd ed77 a3bd 6d3e 953d
00000070: d226 a63d 75f0 dabd 5831 a3bd 9e42 3a3e
00000080: 9bb3 25bd 5b42 3d3e 839b 0a3e 5206 ed3d
00000090: c5d2 1fbe f42c 3c3e 8712 ca3d 6732 563a
000000a0: 11ec acbd 5285 c5bd 808d 103e aa43 983d
000000b0: e791 19be 4f52 12be ebaa 423d 0fe2 0bbe
000000c0: 9a25 6e3c 509b 393e 9440 3e3d ae81 113d
000000d0: 27af 9ebd 69e7 e5bc ecd5 d7bd ee83 4a3d
000000e0: 342f 8cbd 1cb3 eb3d 16e2 62bc af58 36bd
000000f0: a694 d23c 89f2 4ebd 48f2 a5bd 44eb 32be
00000100: 8d61 233e cd3a f4bd 3a9e dc3c ad4f 8fbd
00000110: b451 1abd fde2 b23d 9dec 313c 0f89 80bd
00000120: bd03 0b3e 7f01 ed3b 3ce6 c63d 5894 9dbd
00000130: 9aa8 283e f815 5a3e 4b67 81bd 3758 233e
00000140: 251d d0bd 7835 a8bd 932d 0f3e 9dde a03d
00000150: 72cb c13c c1b7 303e 7051 3cbd f3ca 18be
00000160: 399b 11be 53ab cd3d 1bca ba3d df21 de3c
00000170: 7c7e fd3d 0d1c 3d3e 2da6 c43d cb99 b83d
00000180: d61e 953d a0ee 273d beff 213e b85e c6bd
00000190: f9e3 603e 2b52 9bbd 1c5c 263e 0080 0fbd
000001a0: a783 35bc 1f2b bb3d c8da 36be daeb ab3d
000001b0: 0917 293e a602 893d ef7d 1d3e 508d 873d
000001c0: ce0e 973d 4238 963d df02 bd3d 30d7 c03d
000001d0: 7c2a c33d 4b56 113e 5e84 023d d4ee 2fbd
000001e0: ddbc e23d bc6f 0d3e f47c 50bd c308 1e3d
000001f0: 997d dfbd a3ea 2e3e 65d5 d93d 6e87 c3bd

fc2.weight f4 [1, 128]
0.13238177 -0.15902674 -0.13108462 -0.07960025 -0.030811189 0.0769624 0.076828614 0.07603408
0.16840206 -0.11614974 -0.095412254 -0.06460267 -0.088447325 -0.13827549 -0.07374472 -0.11817046
-0.028482603 -0.15978238 0.13183205 0.0037876263 0.086465076 -0.106308825 0.081215814 0.052387774
0.114357 -0.118886456 0.0671301 0.10895028 -0.0835024 -0.13886745 -0.04245705 0.06918932
0.062021177 -0.08216342 -0.05068284 0.016051957 -0.034253243 0.07919176 -0.116500884 0.051831815
0.10650729 0.14591728 0.07473371 0.081207514 -0.1166866 0.111328594 0.09383036 0.10264664
-0.09181792 0.036508795 0.11634415 -0.0647988 0.076130554 -0.121661015 -0.061014198 0.10921841
0.07059967 -0.15065311 0.090311594 -0.025420371 -0.05744574 -0.052098542 -0.08089483 -0.0009836652
-0.11450073 0.11398203 -0.03246265 -0.105828255 0.05306263 -0.14358275 0.04955345 0.13990042
0.056193005 0.11204837 0.13970128 -0.09569102 0.005052771 0.13418968 -0.1732813 0.08649145
-0.01686153 -0.09430336 -0.08709454 -0.08077482 -0.07358467 0.038010113 -0.028633114 -0.07060105
-0.11948818 0.13544995 -0.050647337 0.0786338 -0.11153503 0.061754435 0.10431721 -0.07334489
-0.10590351 -0.056557294 -0.056589495 -0.028005337 0.14930189 -0.022804925 0.07738645 -0.19403134
-0.04597358 0.15182355 -0.098081835 0.062496196 0.04639269 0.13635549 0.083303824 -0.10508351
0.12589496 0.13782258 0.13338345 -0.092738554 -0.1328549 0.080429696 -0.18418023 -0.05035002
0.10849653 -0.0111289555 -0.06827961 -0.06983607 0.05414964 -0.016779523 0.063094355 -0.09233116
00000000: 168f 073e e8d7 22be 0c3b 06be 7505 a3bd
00000010: bf67 fcbc 769e 9d3d 5258 9d3d c1b7 9b3d
00000020: 9771 2c3e eadf edbd 8067 c3bd 684e 84bd
00000030: df23 b5bd 1798 0dbe 7907 97bd 5b03 f2bd
00000040: 5954 e9bc fe9d 23be fbfe 063e d339 783b
00000050: 9a14 b13d 71b8 d9bd 7a54 a63d 9094 563d
00000060: 0134 ea3d be7a f3bd 827b 893d 5321 df3d
00000070: 4e03 abbd 4533 0ebe 72e7 2dbd 21b3 8d3d
00000080: eb09 7e3d 4c45 a8bd cf98 4fbd 657f 833c
00000090: 214d 0cbd 4a2f a23d 0498 eebd 994d 543d
000000a0: 7e20 da3d 576b 153e fd0d 993d 2050 a63d
000000b0: 62f9 eebd 3f00 e43d 222a c03d 6738 d23d
000000c0: 090b bcbd 3f8a 153d d745 ee3d 3cb5 84bd
000000d0: 56ea 9b3d 6929 f9bd 06ea 79bd e7ad df3d
000000e0: 8f96 903d cf44 1abe 49f5 b83d 623e d0bc
000000f0: 394c 6bbd 4865 55bd 30ac a5bd 54ee 80ba
00000100: 5c7f eabd 696f e93d 8ef7 04bd 7cbc d8bd
00000110: 3358 593d 5b07 13be 8ff8 4a3d 0e42 0f3e
00000120: a32a 663d 9e79 e53d da0d 0f3e a7f9 c3bd
00000130: b791 a53b 0569 093e a770 31be 6e22 b13d
00000140: 3121 8abc 1f22 c1bd 9f5e b2bd 456d a5bd
00000150: 8fb3 96bd 7eb0 1b3d fe8f eabc 4997 90bd
00000160: 38b6 f4bd 64b3 0a3e 9573 4fbd c20a a13d
00000170: 7a6c e4bd 38f2 7c3d 43a4 d53d d835 96bd
00000180: f0e3 d8bd 9fa8 67bd 63ca 67bd 736b e5bc
00000190: 98e2 183e 65d1 babc c97c 9e3d 27b0 46be
000001a0: cb4e 3cbd a277 1b3e 21df c8bd 03fc 7f3d
000001b0: 4306 3e3d c6a0 0b3e 329b aa3d 0636 d7bd
000001c0: 9cea 003e 5d21 0d3e ac95 083e b6ed bdbd
000001d0: 1d0b 08be 53b8 a43d be99 3cbe d33b 4ebd
000001e0: 6e33 de3d 3956 36bc 2ed6 8bbd 3706 8fbd
000001f0: 03cc 5d3d 3675 89bc 9d37 813d 1f18 bdbd
