runs/10_agents_50000_steps_mlp/models/actor.pth (torch, 26432 bytes, 4 tensors)

fc1.weight f4 [128, 38]
000000 46 65 d3 bd 08 e4 69 bd f6 75 0e be c4 f8 66 be
       -0.10322051 -0.057102233 -0.13912186 -0.22555834
000010 5d 4a cf bd e6 2a 86 be f9 5c 11 3e a7 55 40 3d
       -0.101216055 -0.26204604 0.14195623 0.046956684
000020 9f 82 c8 3d 1f e9 36 3e 72 c8 1a be c6 09 a7 bd
       0.09790539 0.17862366 -0.15115526 -0.08156161
000030 be 5c c7 3d 2c b5 ed 3d 8a c6 11 be 1c 3c 58 be
       0.09734486 0.116068214 -0.14235893 -0.2111668
000040 2e 6e 09 bd d4 ee a2 3d 64 b2 09 3d af 8d 11 be
       -0.03355234 0.07955709 0.033617392 -0.14214204
000050 5e ae c6 3d 65 57 9d 3d cf 94 bf 3d 9c 60 84 be
       0.09701227 0.07682685 0.09354555 -0.25854957
000060 46 b6 26 3e a1 3c ac bd d2 69 6e bd f2 e6 d5 3d
       0.1628047 -0.084100015 -0.058206387 0.1044444
000070 a8 1e 62 3d 3f 15 27 bc 25 c4 27 be 02 6e c0 bd
       0.055205017 -0.010197937 -0.16383417 -0.09395982
000080 2a 6a 01 bd 6a 4c 86 3d 6e 02 c5 bc 65 cc 10 3d
       -0.031595387 0.065575436 -0.02404901 0.035351176
000090 ec ad 0e be 95 4e d4 3d a0 ba e4 bd 22 79 e0 bd
       -0.13933533 0.10366551 -0.111684084 -0.10960604
0000a0 50 73 ff 3d 31 28 9f 3e e0 74 bf bd f8 26 23 3e
       0.12473166 0.3108535 -0.09348464 0.15932834
0000b0 60 5d e7 3c ae c8 96 bd 9e 4c cb bd 65 8d 9c bd
       0.028242767 -0.07362495 -0.09926723 -0.07644156
0000c0 7f 6c 1e 3e 4b f7 03 be 9f 86 10 3d b6 94 d4 3c
       0.15471075 -0.12887304 0.035284635 0.025949817
0000d0 f4 37 30 bd 11 26 e3 3b 66 d2 aa bd b8 88 45 3b
       -0.04302211 0.006932028 -0.083409116 0.0030141305
0000e0 36 86 de 3c 3c 7e 54 3a fb 93 75 be 0c 06 ad bd
       0.027163606 0.00081059686 -0.23982231 -0.08448419
0000f0 dd 1f 81 3d 95 4e 98 3d ce e6 a5 bc 1f 9d 81 3e
       0.063049056 0.07436863 -0.020251658 0.25315186
000100 10 11 4d 3a 82 36 22 be 9b 73 4c 3c 7d 6e 0f 3d
       0.0007822672 -0.15841106 0.012478734 0.03501748
000110 a0 e2 92 3c d2 03 b6 3c d0 72 df 3d 6b 51 a9 3d
       0.017930329 0.022218619 0.109105706 0.08267482
000120 f9 df a2 bd 13 37 9d 3d 16 25 dd bc b4 c9 79 be
       -0.07952876 0.0767652 -0.026995223 -0.2439335
000130 1b b4 f0 bd b9 14 b6 3a 82 74 ff bd 07 22 5d be
       -0.117531024 0.0013891674 -0.12473394 -0.21595012
000140 0c 38 1d 3e c4 62 1d bd 7a c2 3f 3c b8 14 c1 bd
       0.15353411 -0.03842427 0.011704082 -0.0942778
000150 43 60 a9 3d ed 8e 21 3e 4e d6 11 be a1 46 22 bd
       0.082703136 0.15777178 -0.14241907 -0.03961814
000160 04 2a 78 bd c1 23 b5 3d 1f 9b 3d be 29 a8 6b bd
       -0.060586944 0.0884471 -0.18516205 -0.057533417
000170 09 ba 0d be 6b 3f 46 bd e2 9a a0 bd a7 56 18 bd
       -0.13840498 -0.048400324 -0.078420416 -0.037192013
000180 bc ff f9 3d b1 88 1f bd 10 ce 55 bd 1f 0a be 3d
       0.122069806 -0.03894872 -0.05219847 0.09279274
000190 8c 85 c0 bd 2f 7b 09 3d b1 90 6d 3c 33 f4 91 bb
       -0.09400472 0.033564743 0.014499829 -0.0044541596
0001a0 d4 2f b8 3c a7 27 93 3d 72 52 4b bd ef a3 9b 3d
       0.022483744 0.071852975 -0.049639173 0.07599627
0001b0 20 a7 37 3e 19 0e f1 bd 4c eb eb bd df 2e 85 bd
       0.17934847 -0.11770267 -0.11519489 -0.065030806
0001c0 3e 54 8c 3d 40 3f 6c bb 38 6a 17 3e b8 bd bc 3b
       0.068520054 -0.0036048442 0.14786613 0.005759921
0001d0 90 25 56 bd de a6 d0 bc dd bd 6f bc ab ce 68 3d
       -0.052281916 -0.025470193 -0.014632669 0.05683772
0001e0 28 ce f6 3d ed 31 a9 bd ad 17 fe 3d 3e 2a 37 bc
       0.1205104 -0.08261476 0.124068595 -0.011179505
0001f0 9a 77 96 3d 07 f8 1b be eb 4f ef 3d 7b 84 41 3e
       0.07347031 -0.15231334 0.11685165 0.18898194
000200 2d e6 fa bd 19 cd 77 ba 60 27 42 be 8c 7e ca 3d
       -0.12250934 -0.0009452864 -0.18960333 0.09887418
000210 ec 5c 41 be c1 c2 41 3c e0 70 c4 3d 5c db 54 bd
       -0.18883103 0.011826218 0.09591842 -0.05196701
000220 42 ab 21 bc 46 8b 4c 3e c6 3d 54 bc c3 17 0c 3d
       -0.009867491 0.19975004 -0.012954181 0.03420235
000230 89 06 ec bd 54 eb 6b 3c 4e db 36 be f2 e0 68 3d
       -0.11524684 0.014399368 -0.17857096 0.05685515
000240 90 a6 e2 bd 92 12 9f 3d 12 12 28 3e 1e 3d 42 3c
       -0.110669255 0.07767214 0.16413143 0.011855392
000250 3d 8f d3 3c 60 d3 4e be b1 0a c4 3b d8 8c 8f bd
       0.025825137 -0.2019782 0.00598272 -0.07009286
000260 dc a7 cc 3d d5 01 02 be 42 f0 eb 3c fe 31 ce bd
       0.09992954 -0.12696011 0.028801087 -0.10068129
000270 ba 76 2b bd 75 59 9d 3c be c0 b4 bd 98 8b 25 be
       -0.041861273 0.019207695 -0.08825825 -0.16166532
000280 a0 f5 3f 3e a3 df 15 3e 48 cb f7 bd ec 65 25 be
       0.18746042 0.14636092 -0.1209932 -0.16152161
000290 31 a8 3c 3e 0b 05 cd bd 7d 5b 4a bd 3a 5b 4e bd
       0.18423535 -0.100107275 -0.049403656 -0.05037997
0002a0 1d 09 f1 bc df 4a e6 bd 4c 4f ee bd 8e c9 ba bc
       -0.02942329 -0.11244749 -0.116362184 -0.022801187
0002b0 29 6e 95 bd 1f c1 21 be 3f a6 5c bd 3a 19 09 3e
       -0.07296402 -0.15796326 -0.053869482 0.1338853
0002c0 4f 5f 03 3d 15 e2 0b 3e e4 a5 03 bd a1 eb 9a 3d
       0.032073315 0.13660462 -0.032140628 0.07564474
0002d0 0d 76 6c bd fd 82 d8 bb fa 3d 4d be 1e 94 e8 3d
       -0.05772977 -0.006607412 -0.20043173 0.11356376
0002e0 bd 99 f4 bc db 65 b4 bd bf 72 1e bd fd db 36 be
       -0.029858464 -0.0880849 -0.03868365 -0.17857356
0002f0 bf 80 a4 3d c2 12 c5 bd 8f 2f f2 3d 6f a4 00 be
       0.08032369 -0.096227184 0.11825477 -0.12562726
000300 89 0d e9 3d c2 78 aa 3d fb cf b6 bd 77 1e 38 3e
       0.11379535 0.08323814 -0.08926388 0.17980371
000310 15 e3 ea 3d 8e a5 a8 3d e4 ca 3f 3e f1 7d 2d 3e
       0.11469094 0.08234702 0.1872974 0.16942574
000320 31 94 3f 3e 78 6d 89 bd 74 0c 00 bd 12 f3 81 be
       0.18708874 -0.06710333 -0.031261876 -0.2538076
000330 c8 58 35 3e c5 9c 16 be 61 e4 b2 3c 61 ae 8b be
       0.17709649 -0.1470824 0.021837415 -0.27281478
000340 01 6e 6f bc dc cb 6d 3e c6 02 0a 3d 72 34 44 3e
       -0.014613629 0.23222297 0.03369405 0.19160631
000350 06 55 35 bd 6d 28 31 3e cc a7 69 be a9 c6 9b 3e
       -0.044270538 0.17300577 -0.22817916 0.30425003
000360 a2 40 4b 3c dd e7 e2 bd 2a c7 da 3d dc 58 05 3c
       0.012405546 -0.11079381 0.10682519 0.0081388615
000370 26 b7 63 3d 17 61 1a 3e 61 77 95 3d 0a 07 19 bc
       0.055594586 0.150761 0.0729816 -0.009340057
000380 54 3d ab bc d1 42 a1 3d 32 2b 54 3d e1 92 4e be
       -0.020903267 0.07874072 0.051799007 -0.20173217
000390 9f 4c 52 3d f8 6b 0a be 5e 47 a5 bd b2 6d 98 3d
       0.051342603 -0.1351775 -0.08070253 0.07442798
0003a0 30 c5 2e be 9d c7 c2 3d 9a 80 a8 bb 3b e6 0d be
       -0.17067409 0.095107295 -0.0051422836 -0.13857357
0003b0 86 2c b5 3d e3 88 95 3d 86 78 33 bc 56 d5 ba bd
       0.08846383 0.073015 -0.010954028 -0.09122722
0003c0 41 eb dc 3d fe b9 9c 3d f4 fc 12 be 12 5e dc 3d
       0.107870586 0.07652663 -0.14354306 0.1076013
0003d0 75 c8 ca bb 2c b1 27 bd 5c 2c 8f bd c6 86 bf bc
       -0.006188447 -0.04094045 -0.06990883 -0.023379695
0003e0 51 94 5d be 49 20 b9 bd 93 9b b2 3d ab 7b 7d 3e
       -0.2163861 -0.09039361 0.0872108 0.24754207
0003f0 91 22 8a bd b4 41 24 3a 6f ab fb bd 8c 19 98 3a
       -0.06744874 0.0006265894 -0.12288558 0.0011604293

fc1.bias f4 [128]
000000 3d 6f b6 bb ab 6f 09 3e 55 ca 2f bd d4 ff 51 be
       -0.00556746 0.13421504 -0.04291757 -0.20507747
000010 43 72 1a 3e 35 4e 9b bd bc 79 57 bd d2 7c 53 3e
       0.1508265 -0.07583276 -0.05260633 0.20653084
000020 d9 77 44 3e 13 23 36 3e 27 fb 9c bd 32 40 0c 3e
       0.19186343 0.17786817 -0.07665091 0.13696364
000030 2d 6d 67 3e 9a b3 ad bd d9 1b 06 bc 2b f1 59 3e
       0.22600241 -0.08481522 -0.00818535 0.21283405
000040 cb aa 95 3d f0 82 40 3e d0 35 38 3e d1 49 20 3d
       0.07307967 0.18799949 0.17989278 0.039132897
000050 a9 74 b5 bd 5a ac d0 3d 5b 2a 93 3d ab 7b 6c 3e
       -0.08860142 0.101891235 0.07185813 0.2309405
000060 15 7b 9c 3d 31 9b 16 be ff 82 c5 3c d0 6a e6 bd
       0.076406635 -0.14707638 0.024110315 -0.112508416
000070 63 00 f7 bd 52 0d 9e bc 49 5d 63 3e e1 98 88 3d
       -0.12060621 -0.019293461 0.22203554 0.06669784
000080 ac be 38 3e 10 64 41 3e 86 35 a9 3d 6c 0b 52 3e
       0.18041486 0.18885827 0.08262162 0.2051217
000090 6f 83 95 bd 47 76 e6 bd 79 84 78 3b 14 09 9f 3e
       -0.073004596 -0.11253028 0.0037920757 0.31061614
0000a0 a7 90 7d 3c 2a df 85 3e a9 de a6 bc fe 39 b2 bd
       0.015476382 0.26146823 -0.020369845 -0.087024674
0000b0 30 aa a8 3d 04 a0 92 3d 72 42 2f 3e cc 9f d6 3c
       0.08235586 0.07159427 0.1711519 0.026199244
0000c0 9a 5a 0a be ee 62 8b 3b a4 38 90 bd bc 61 0f 3e
       -0.13511124 0.0042537367 -0.07042053 0.14002126
0000d0 fc 8a 82 3d 01 72 b6 bd 05 e5 43 bd 1a b0 57 bd
       0.063741654 -0.08908463 -0.047825832 -0.052658178
0000e0 cf 6c fa bd 2a e5 14 3e ca 99 4b 3d a5 ae 29 be
       -0.12227785 0.14540544 0.04970721 -0.16570528
0000f0 a2 4c ff bd 74 b6 5b bd f6 3f af ba f6 d5 8a bd
       -0.124657884 -0.053640798 -0.0013370502 -0.06779091
000100 73 fc c5 3d b1 58 20 be 11 d9 99 bc bc e8 b1 3d
       0.096672915 -0.15658833 -0.018780263 0.08686969
000110 68 e9 88 bd c0 8a aa 3e d4 f8 c3 3d be e1 8c 3e
       -0.06685144 0.33308983 0.095689446 0.27515978
000120 04 d1 df 3d 84 39 49 3e 32 fc 5e bd f7 45 2e bd
       0.109285384 0.19650847 -0.05443973 -0.042547192
000130 cc da 15 be 87 a6 4c be 5f 81 43 3e ad 2c 16 be
       -0.14634246 -0.199854 0.1909232 -0.1466548
000140 0a cb 42 3e 7a 17 89 3e f9 90 74 be 4a 47 ba 3e
       0.19022766 0.26775724 -0.23883428 0.36382514
000150 29 e9 82 3e a3 96 21 3d 9d ee d4 bd 4c a1 21 be
       0.25568512 0.0394503 -0.10397074 -0.15784186
000160 df e2 cd bc 80 7e 47 3e 3d cd f7 3c 41 24 8e bd
       -0.025132595 0.1948185 0.030249232 -0.06940509
000170 1c d5 69 bd 14 4e 17 3c ee 4b 33 3e b0 5f f0 bd
       -0.057088003 0.009234924 0.17509434 -0.11737001
000180 7c da bf 3d 05 7c 50 be cd 38 8f 3e e0 6e 8a bc
       0.093678445 -0.2035981 0.27973023 -0.016898572
000190 87 b1 8d 3e f8 fe cb 3d 16 cb 0b be d0 ab b1 3d
       0.27674505 0.09960741 -0.1365169 0.08675349
0001a0 7c 60 05 bb 28 5d 69 3e 30 22 7e 3e 86 03 e9 bd
       -0.0020351699 0.22789443 0.24817729 -0.11377625
0001b0 47 d7 df 3c 63 4e 97 3e 40 c9 bd bd 10 6b 96 3c
       0.027324332 0.29551992 -0.09266901 0.018361598
0001c0 34 5a 57 3d ad e6 97 bd 57 6d 0a 3a c2 22 b5 bd
       0.05257626 -0.07417045 0.0005280575 -0.0884452
0001d0 6d 05 26 3e 21 04 5d be fb c2 64 3e f1 73 98 3d
       0.16213007 -0.21583606 0.22340004 0.07443989
0001e0 99 2c 49 bd a0 9b 81 bd 4c 84 9c 3e f6 11 b7 3d
       -0.049114797 -0.06328511 0.30569685 0.08938973
0001f0 2b 4d af 3e 16 0e 9f 3e d2 ae 01 be f7 64 47 3e
       0.34238562 0.31065434 -0.12664345 0.19472109

fc2.weight f4 [9, 128]
000000 f9 e7 74 3d 38 0f 8a 3d 96 e2 6f bd 50 72 2f be
       0.05979154 0.06741184 -0.0585657 -0.1713345
000010 fb 78 22 be 59 3f d8 3d 68 4c 7f be ec 6e 7c be
       -0.15866463 0.105589576 -0.2493149 -0.24651688
000020 ee e7 32 be 8c 97 ba bc dc 9a 2b bd 13 fb f2 3d
       -0.17471287 -0.022777341 -0.041895732 0.11864295
000030 4e 9d 30 3d e1 fc cd 3a 12 66 a5 bd 81 2a 17 3d
       0.043118767 0.0015715623 -0.08076109 0.03690577
000040 49 c9 c0 3b f1 37 10 bd b4 f4 2c 3e a3 44 4b bd
       0.00588337 -0.0352096 0.16890222 -0.049626004
000050 d8 86 78 3d df aa 8d 3a 7e 01 2c bb 08 be ab 3c
       0.060675472 0.001080837 -0.0026246007 0.020964637
000060 fd c8 23 bd d3 c7 c8 bc dc 9b ed 3d 79 58 f7 bc
       -0.0399866 -0.024509346 0.116019934 -0.030193554
000070 93 9b 76 bd 54 fd b7 3c 16 e5 d5 3c 44 2b c7 bd
       -0.06020696 0.022459663 0.026110213 -0.09725049
000080 04 ca 8a 3c 24 9d ad 3d 55 6f 62 3d 54 5c ab bb
       0.016942032 0.08477238 0.055281956 -0.005229512
000090 4e 80 9b 3d 06 cf 07 be 7f 0e fd bd 64 95 89 3d
       0.075928316 -0.13262567 -0.123562805 0.06717947
0000a0 2d 32 93 bd f2 dd 65 bc a6 9c fa bc fb d8 c3 3d
       -0.07187305 -0.014029967 -0.030592274 0.0956287
0000b0 59 86 22 3e e1 05 f7 bd db 7c 3e 3e ed 16 01 3e
       0.15871562 -0.12061668 0.18602316 0.12606402
0000c0 e2 ba c4 3b 35 2e d0 3b 6e 9a 5c 3d f0 be 7a 3d
       0.0060037235 0.0063531646 0.053858213 0.06121725
0000d0 b2 78 e1 3d 94 73 88 ba 6a e1 92 3d 15 49 53 be
       0.11009349 -0.0010410422 0.071719006 -0.20633347
0000e0 51 3e 0b 3d 50 14 14 bd 05 88 f0 3b 9d d9 97 bd
       0.033994976 -0.036152184 0.0073404335 -0.07414553
0000f0 31 f0 17 be 20 77 ab bd 13 1e bd 3c b7 43 71 bb
       -0.1483772 -0.08372331 0.02308563 -0.0036814043
000100 26 96 c7 3d 3c 51 2b 3e 1a bf 79 3c b3 46 88 3d
       0.097454354 0.16730207 0.015243316 0.0665411
000110 9c 00 bf 3b a9 c5 0e 3e 3f 24 08 be 9a 7b d1 bc
       0.00582893 0.13942589 -0.13295077 -0.025571633
000120 35 52 8c bd 58 19 d5 3d a8 6b c8 3c 2c f6 ae 3c
       -0.06851617 0.104052246 0.024465397 0.021357618
000130 9b b9 9c bd d5 6c 0b bd a0 99 9f bc 9f b2 61 bc
       -0.07652589 -0.034039337 -0.019482434 -0.013775497
000140 8f 10 0d 3c 98 a0 a4 bd 7a ab 9a bd 86 ff 14 be
       0.008609905 -0.08038443 -0.07552238 -0.145506
000150 61 9f 78 3c 70 c1 6b 3d b4 6c 9c bd af 79 0e 3c
       0.015174718 0.057557523 -0.07637921 0.008696004
000160 13 1c 1e 3b fc 76 22 bd 3a 86 13 3c fa 4c 35 bd
       0.002412562 -0.039664254 0.00900417 -0.044262864
000170 ef f2 77 3d 7e db 88 be dd b5 14 3d db 00 b7 3d
       0.060534414 -0.2672996 0.03630625 0.0893571
000180 c7 40 28 be e1 10 c4 bd 02 db 69 bc ea a7 ef bc
       -0.1643096 -0.09573532 -0.014273407 -0.029254872
000190 94 66 7c bd 85 58 c1 be ae d5 50 3c fc 20 29 be
       -0.061621264 -0.37762848 0.012746258 -0.16516489
0001a0 e9 97 5f 3d 7b 24 e4 3d b5 a1 d7 bd c3 e4 ba bd
       0.054588232 0.111397706 -0.1052889 -0.09125664
0001b0 8e cd 50 bd 9d 53 1e 3c 7b ef 7d bd d7 c8 fd 3d
       -0.050977282 0.00966349 -0.061995964 0.12391823
0001c0 f1 00 06 3d 19 e1 aa be 37 39 81 be 0a 4a 33 bc
       0.03271574 -0.3337486 -0.25238964 -0.010942945
0001d0 92 29 d2 3d b7 a2 f9 bc af a9 0f be f3 1e 44 3d
       0.10261835 -0.030473096 -0.14029573 0.047881078
0001e0 e7 60 bf bc 49 b3 6f bc 0f 15 f3 3d be 2b df 3c
       -0.023361636 -0.014630147 0.11869251 0.027242538
0001f0 9d 50 36 3c 76 1a cd 3d 76 76 7f bd 24 ba bb 3b
       0.011127618 0.10014813 -0.062368833 0.005728977
000200 25 22 09 be ae 18 9c 3c 06 60 ea bd f6 a6 56 bd
       -0.13391931 0.019054737 -0.11444096 -0.05240532
000210 aa c7 09 be 74 a8 84 3d cb d6 45 bd 98 c5 40 be
       -0.13455072 0.064774424 -0.048300546 -0.18825376
000220 03 00 d7 bd ad 94 98 3c 18 a6 9d bc 7f 2f c5 bd
       -0.10498049 0.018625582 -0.019244239 -0.096282
000230 01 dd 27 bd 24 c0 62 3d 27 3f 81 3c 17 fc a9 bd
       -0.04098225 0.05535902 0.015777184 -0.083000354
000240 a2 e2 41 bc c2 7e b3 bd 88 96 42 bd 35 47 51 3d
       -0.011833819 -0.087644115 -0.04750684 0.0510933
000250 59 22 f2 3b e4 da 2b 3d 7d ef 50 3d 82 c2 35 bd
       0.0073893485 0.041956797 0.051009644 -0.04437495
000260 dd 2d c2 bd ae ce f7 bc 92 68 23 3c de 1d 12 3d
       -0.09481404 -0.03024992 0.009973662 0.035673015
000270 2b 32 34 3d dc ca b6 3c be 2e fd bd 28 2c 1a be
       0.043993156 0.022313528 -0.12362431 -0.15055907
000280 50 49 6d 3d a6 e0 88 bc 51 7a 6f 3c 15 19 21 be
       0.057931244 -0.016708683 0.014616565 -0.15732224
000290 10 97 b2 bc 65 31 15 be b3 b6 19 be ef fb 54 3c
       -0.021800548 -0.14569624 -0.150111 0.012999519
0002a0 7f 61 06 be fb 0c cf 3b ae db 3d bd 75 8c 3c 3d
       -0.1312313 0.006318686 -0.04635208 0.046032388
0002b0 08 1b cc 3c e2 ab 2a 3d 8e 4a b5 3b 00 89 7e bd
       0.024915233 0.041667826 0.0055325693 -0.062142372
0002c0 ae 89 c0 3c cd a9 a7 bd d1 2c f7 bc a0 67 43 3d
       0.02350315 -0.08186684 -0.030172737 0.047706246
0002d0 63 be c1 bc 69 01 57 bd 39 57 f2 3b 10 d3 3f be
       -0.023650354 -0.05249158 0.0073956517 -0.18732858
0002e0 dc 72 ac bd ca 7a 3b 3d 6d 8a a3 bd 3f 03 95 3c
       -0.08420345 0.045771398 -0.07985387 0.018190024
0002f0 ed d6 af bc db fe c3 bd d5 56 43 bd 04 12 48 3d
       -0.02146479 -0.09570094 -0.04769023 0.048845306
000300 2f 56 e3 bd e7 c2 4c bd 2e df 60 bd e7 05 ae bc
       -0.111004226 -0.04999056 -0.05490034 -0.021243049
000310 c1 c2 69 3d 27 64 05 3d c6 1a b5 bd bf 67 6f 3d
       0.057070497 0.032566216 -0.08842997 0.05844855
000320 bc 0b d2 bd 8c e1 b9 bd ab fb 10 be ae 6e 31 bd
       -0.102561444 -0.09076223 -0.14158504 -0.043318443
000330 a5 37 f0 3b c5 eb a6 bc 45 60 57 bc e2 7c 94 bd
       0.007330852 -0.020376096 -0.013145511 -0.07250382
000340 c2 e3 04 be d5 f7 58 bd ff 43 05 be 20 2a 33 ba
       -0.12977508 -0.052970726 -0.1301422 -0.0006834585
000350 4b df 89 bd 97 ed 86 bd 02 b8 ab 3d 64 99 e4 bd
       -0.06732043 -0.065882854 0.08384706 -0.111620694
000360 6b d9 1d 3d 22 fc 34 3d fd 76 48 be 3c 9d db 3c
       0.038537424 0.044185765 -0.1957664 0.026808374
000370 a3 38 d8 bc e3 e7 2c be 31 02 bc bd ce e6 63 3d
       -0.026394194 -0.16885333 -0.091801055 0.055640034
000380 35 cd d0 bd 97 99 11 bd c5 15 d7 3c d4 27 b6 3c
       -0.1019539 -0.035546865 0.026255498 0.022235788
000390 a0 31 25 be a7 91 4c be a9 54 8d 3d fb ec 30 be
       -0.16132212 -0.19977437 0.06900913 -0.17277901
0003a0 a6 2e 2e 3d 87 a9 7e 3d d7 4d 20 be 2d e1 85 bd
       0.042524956 0.062173393 -0.15654694 -0.065370895
0003b0 71 7a b7 bd 4f 16 50 bd a5 f2 3b 3c 5a 29 47 bd
       -0.08958901 -0.050802525 0.011471425 -0.04862342
0003c0 af f2 b0 bd e6 7c 32 bd 40 99 29 be d8 fa 74 3c
       -0.08640038 -0.043576144 -0.16562366 0.014952384
0003d0 78 0b d0 3d b4 0e 55 bd 0e 2c bd bd 8d 73 7c bd
       0.101584375 -0.052015975 -0.092369184 -0.061633635
0003e0 cb 46 04 3d 05 aa 44 bd 47 a0 43 bd 58 e0 39 bc
       0.032294076 -0.048013706 -0.047760274 -0.011344992
0003f0 de 6b 85 bd db d2 91 3c 91 28 89 3d 31 8d b5 bd
       -0.06514715 0.017800739 0.066971906 -0.08864821

fc2.bias f4 [9]
000000 b5 94 56 bd 50 ea 0b bc 9c e0 f4 bd 4f 3f 2b bd
       -0.05238791 -0.008539751 -0.11956903 -0.041808423
000010 02 29 76 3e 66 15 c5 bd 9e 00 00 bd 0a 52 f0 bc
       0.2403908 -0.09623222 -0.03125059 -0.029335994
000020 cd a9 b9 bd
       -0.0906559
