runs/10_agents_50000_steps_mlp/models/critic_mlp.pth (torch, 23784 bytes, 4 tensors)

layers.0.weight f4 [128, 9]
00000000: e0f1 563d c916 c43d 21d1 803e 0b1c bf3e
00000010: b0da 15be 4720 66be 49a0 b63d 5ac6 adbd
00000020: e023 fabd 955a 63bc 7b27 18be 57a6 2abe
00000030: 06cb 4abe d8f6 7bbe 42e1 8dbe c6b5 283e
00000040: da9c 093d 6f2d f43d 5d08 72be cae6 48bd
00000050: 96aa 893e 44bc bb3e d003 263e 404a 57bd
00000060: 1d9d 95be 96c4 f5bd 8bfa 273b 970b c1be
00000070: ff07 32be 638a 43be 98fc 8f3a 833a cf3c
00000080: 7b41 59be e38c cf3c 299d 703e 27bf cf3d
00000090: 720a 85be be65 a03e e5d1 2c3d ec0e 4a3c
000000a0: 44ba b5be 9d43 ab3b 2a19 99be 0daa a63c
000000b0: 2611 34be b893 183e 6c1d 5d3e 6750 c33d
000000c0: b278 723e 4085 5b3e cd96 ffbd fbe3 e13d
000000d0: 7e5e 1d3e d8b5 843e d653 31be f8a4 4dbd
000000e0: 31eb 99be e139 4a3e 51d0 04be e4d0 233e
000000f0: d808 fbbd 2f42 993e 27ad b9bd 1611 8f3d
00000100: 504f 8a3e c15d 053e e73e 94be ad70 3fbe
00000110: 7fb3 12bc e35b 793c 7635 c8bd 1b32 983e
00000120: 1654 443e 9445 893e 8f64 0f3e 9aa2 9dbe
00000130: 42f7 6c3e 8c69 cf3d d2cb 71be 6391 973d
00000140: f789 84be 122e 8f3e a998 1a3e b286 75bd
00000150: 8eaa d53e 163a b2bd c84d 50be ee16 fe3c
00000160: 158e 74be 164e ddbd 4fec 733e 3016 52be
00000170: 7d1e 60be b0f5 86bd 8b0f 4ebe de90 25be
00000180: 745f 793e 00c9 7cbc f1fc 65be 49fd 963e
00000190: 237a 23be 679e e53d 8430 a23e cf05 06be
000001a0: 66a3 01be e550 46be d8d7 d93d f2fd 8d3e
000001b0: f39d 043c bcec 4c3e b0f1 3e3e 80f6 67be
000001c0: 0fa4 0a3e ddc5 aebc c7cc 8dbe 1679 d9bd
000001d0: 7e73 17be 44a7 64bd 0f70 373e 5da6 523e
000001e0: dc0f 8fbe b74a 763e 8704 763e 2cab 293d
000001f0: 83f7 1bbe 1cfd b53e d93a 5ebe 0834 f93d
00000200: 8698 c93d e405 d1bd 7070 28be 6a33 a5be
00000210: 17d6 613e 651f 973e 406a 63bd ce59 01bd
00000220: 4fb3 76be d0cb 133e c4ef e53d 9512 b2be
00000230: 73a1 a3be afc0 76bd 84db d13e 57c2 7c3c
00000240: bc98 9c3c ff8e d23d 3555 613e 9939 72be
00000250: ef5a a8be 8b82 9f3d e3ea c03d 62ba 1bbe
00000260: 42c7 01be 6b2e 74be 6849 903e 3fff ab3e
00000270: d393 0ebe 3111 af3d 8711 813e 93d9 873e
00000280: 8a40 113d 8a5f 99bd 9a4c dabd 385f 243e
00000290: f4cf 3bbe 725a 873e f2ce 58be 54ec b63d
000002a0: 342b 293d 39c4 31be 09d0 12bd ddec bebe
000002b0: 72da 2ebd 3e0e 20be cc9a b13d f4f9 a3be
000002c0: fae9 9dbe 4c25 493e a4b1 24be 5889 a33e
000002d0: 1422 8ebe d240 acbd 3532 9e3e 515b 803e
000002e0: 6457 e13c 7c5f 39be c63f dcbd 0105 753e
000002f0: 4f46 823d 01da 563d 52bb 9b3e 82a3 93bc
00000300: b00a 30ba f0d0 023e 326a 5dbe 8be4 aabe
00000310: ea13 d43d d45e 5a3e 5c95 123e 7b2b cebd
00000320: b056 643e 6536 3cbb 8c41 ac3e 7c26 5a3e
00000330: 5c8a 9b3e 763f 5b3d 2eb6 40be 54a3 9bbe
00000340: b683 0d3d cea6 64be 9276 88be 63f5 903e
00000350: eb5c 063d 560a 273c 5f5d a1be ab1d c4bb
00000360: e601 5c3e e190 93bd 4215 35bc 6669 09bc
00000370: 884f 803e d51f b13e e5e2 79be 76ac d5bd
00000380: 5ffb c63d c07f 883e 0379 283e 17a8 4dbd
00000390: 85cc 05be f4fd 003c 6754 5b3e 4961 e13b
000003a0: b70f 6dbe 885e c03d c5ae a13e 53a0 8bbe
000003b0: 248d 2bbe e348 58be ae3d 593e 82f7 fcbd
000003c0: f01f 903d 28bf 613d eb6d 0b3e 7304 853d
000003d0: 4a12 f53d 65b4 a03e e0ec a43e 981e 7a3e
000003e0: 8803 d4bc 0095 193e 4a0a 373e b865 873e
000003f0: 285e fbbd 7628 923d 92f2 95bd b228 3b3e
0.052476764 0.095746584 0.25159553 0.37326083 -0.14634204 -0.2247325 0.08917291 -0.08485098
-0.12213874 -0.013876577 -0.1485881 -0.16665016 -0.1980401 -0.24605882 -0.2771092 0.16475591
0.03359685 0.11922728 -0.23636003 -0.049048223 0.2688796 0.36667073 0.16212392 -0.052561045
-0.2922143 -0.120003864 0.0025631513 -0.37704155 -0.17385863 -0.19095759 0.0010985313 0.025296455
-0.21216385 0.025335735 0.23497452 0.10143881 -0.25984532 0.31327623 0.04219236 0.012332659
-0.35493672 0.005226566 -0.2990201 0.020344758 -0.17584667 0.149001 0.21593255 0.0953682
0.23678854 0.2143755 -0.12479935 0.11029812 0.15368077 0.25919986 -0.17317137 -0.050206155
-0.3006225 0.19748642 -0.12970091 0.15997654 -0.12257546 0.29933307 -0.09066229 0.06985681
0.27013636 0.13024046 -0.2895424 -0.18695326 -0.008953928 0.015219661 -0.09775822 0.29725727
0.19172701 0.26810896 0.14003204 -0.30788118 0.23141196 0.10127553 -0.23612908 0.07400777
-0.2588651 0.27964836 0.15097298 -0.05994291 0.41731685 -0.08702485 -0.20342171 0.031016793
-0.23882325 -0.10805909 0.23820613 -0.20516276 -0.2188663 -0.0658983 -0.20123117 -0.16168544
0.24352819 -0.0154287815 -0.2245977 0.29490116 -0.1596456 0.112118535 0.3167764 -0.13088153
-0.12659988 -0.19366796 0.10636872 0.27732807 0.008094299 0.20012182 0.18646884 -0.22652626
0.13539146 -0.021334583 -0.27695295 -0.106187984 -0.1479015 -0.05582358 0.1791384 0.20571275
-0.27941787 0.24051939 0.24025165 0.041423008 -0.15231137 0.3554467 -0.21702136 0.12168127
0.09843545 -0.10206202 -0.16449142 -0.32265788 0.22054325 0.2951614 -0.05552125 -0.031579785
-0.24091838 0.14433217 0.11227372 -0.34779802 -0.31959113 -0.06024235 0.4098779 0.015427194
0.019115798 0.102811806 0.2200516 -0.23654784 -0.32881877 0.07788571 0.09419801 -0.15207818
-0.12673667 -0.23845832 0.28181005 0.33593175 -0.13923578 0.08548201 0.25208685 0.26533183
0.03546194 -0.07488926 -0.10659142 0.16051948 -0.18341047 0.26436192 -0.21172693 0.08931795
0.041300967 -0.17360009 -0.03584293 -0.37290087 -0.042688794 -0.15630433 0.08672103 -0.32026637
-0.30842572 0.19643134 -0.1608339 0.31940722 -0.27760375 -0.08410801 0.3089768 0.2506967
0.027507491 -0.1810283 -0.10754351 0.2392769 0.063610666 0.052454 0.30416352 -0.018022303
-0.000671546 0.12775016 -0.21622542 -0.3337749 0.10355361 0.21325237 0.14314789 -0.10066887
0.22298694 -0.0028718945 0.33643758 0.21303743 0.30378997 0.053527318 -0.18819496 -0.30398047
0.034549437 -0.22329256 -0.26652962 0.28312215 0.032803457 0.010195335 -0.3151655 -0.005984982
0.21485099 -0.07205368 -0.011052432 -0.008386945 0.25060678 0.34594598 -0.2440296 -0.10433285
0.09715914 0.26659966 0.16452412 -0.05020913 -0.130663 0.007873047 0.21418916 0.0068780524
-0.23150526 0.093930304 0.3157865 -0.27270755 -0.1675306 -0.21121554 0.21214935 -0.12351896
0.070373416 0.05511394 0.13616149 0.06494989 0.11966379 0.3138763 0.3221197 0.24425733
-0.02588059 0.14998245 0.17875019 0.26444793 -0.12273818 0.071366236 -0.07321657 0.18277243

layers.0.bias f4 [128]
00000000: 40ce 22be 208d a73e 64bc 6a3e f409 bc3e
00000010: 96f0 68be 12f0 e6bd 28d9 813d 1abd 543e
00000020: 5c86 3a3e 2f7f bd3d 24e3 1a3e 58dc 033e
00000030: c5fa 3a3e cb5d b73e 3886 303d b9bd 3cbe
00000040: d151 813e a363 67be e17e c8bd 04f8 cd3d
00000050: bc19 5bbe 232b 37be 4744 d73e 0024 46bc
00000060: 9301 6abe d206 8ebd 4a98 f43d 7ea8 693e
00000070: 3fc3 203e c233 143d b912 483e ea5f a83e
00000080: 64d5 38be fd0f 023d 5e64 a33e 3d83 febd
00000090: f39a 853e bc9f 293e 9308 423c b13e 0ebd
000000a0: 80f4 893e 063f 47be d955 02be f29f 943c
000000b0: ab6c d83d 5c3b 9cbe 139e c93e 4ad7 b23e
000000c0: 09e0 4ebe 0a50 f8bd 3dba 9f3d cc87 8b3e
000000d0: 05cb c0bd 657c 2cbe 4b39 2d3d 58a9 c7bd
000000e0: 3521 1b3b 9b60 5c3e 8bbe 9f3e 83b7 97bc
000000f0: 2961 cc3d 8e2e 60be f192 5dbe d735 44be
00000100: 51b7 913e 3ac4 ad3e defe a63d 99f1 92bc
00000110: 156a 0a3e 5479 31be 7e45 883e 4605 fabd
00000120: 0a75 693d 6c1f a13c fc96 82be 5ed9 2d3e
00000130: 5cf5 6bbd 8ae3 ea3d aad5 a53e cf4b 373e
00000140: 5fc2 bf3b 3e58 9a3c 91a8 30be f29c 9e3e
00000150: 8037 a63d 67a4 84bd e031 58be fc68 a6be
00000160: bf4c 3abe 39b7 00be 99bf 45be 7c06 893e
00000170: f022 413d 54a1 293e 1f05 c03d 3d0c eabd
00000180: 7f87 793e 6694 313e a295 2f3e 8e73 4a3e
00000190: 8b11 58bd b228 73be c31f a03e 5d3f 423e
000001a0: 814c 7c3e 28c7 0cbd 2405 2ebe 5353 a53e
000001b0: 8ee8 9f3d 708c 853e 6a4a 31bd f380 09be
000001c0: a944 b03d 014f 01be e7e9 603e 54a2 9cbe
000001d0: bb74 4dbe 6876 80be e4fd 4cbe 8880 92be
000001e0: 9a40 15be 16ef 1b3e 09e3 4fbd f0a9 2e3e
000001f0: 63f4 36be f0e3 313e 4d94 83bd ab98 1dbe
-0.1589899 0.32724857 0.22923428 0.36726344 -0.22748026 -0.112762585 0.063402474 0.20775262
0.18215317 0.09252774 0.1512571 0.12877023 0.18259723 0.35813746 0.04309675 -0.18431748
0.25257733 -0.22596602 -0.09789825 0.10057071 -0.21396536 -0.17887549 0.4204428 -0.012093544
-0.22852163 -0.069348946 0.11943109 0.22818181 0.1569948 0.036182173 0.19538392 0.32885677
-0.18050152 0.03175353 0.31912512 -0.124273755 0.2609478 0.1656484 0.011842865 -0.034727756
0.2694435 -0.19457635 -0.12728061 0.018142674 0.10567602 -0.30514038 0.39378414 0.34929878
-0.2020265 -0.12124641 0.07799194 0.27252042 -0.09413723 -0.16844328 0.042290967 -0.09749097
0.0023670916 0.21521227 0.3120006 -0.018520122 0.09979469 -0.21892759 -0.21638085 -0.19161163
0.28460172 0.3393877 0.08154081 -0.017937468 0.1351703 -0.1733144 0.26615518 -0.12208037
0.056996383 0.019668303 -0.25505817 0.1697745 -0.05760704 0.11469181 0.32389575 0.17900012
0.0058520283 0.018840905 -0.17251803 0.30979115 0.081160545 -0.0647667 -0.21112776 -0.32501972
-0.18193339 -0.12569894 -0.1931137 0.2676276 0.04715246 0.16565448 0.09375977 -0.114281155
0.24368094 0.17341766 0.17146924 0.19770643 -0.052751105 -0.23745993 0.31274232 0.18969484
0.24638559 -0.034369618 -0.16994148 0.32290134 0.07808028 0.26083708 -0.043283857 -0.13428096
0.08606846 -0.12627794 0.21964227 -0.30592597 -0.2006406 -0.25090337 -0.20018727 -0.28613687
-0.14575425 0.15227923 -0.050753627 0.17057014 -0.17866664 0.17372108 -0.064247705 -0.1539027

layers.2.weight f4 [32, 128]
00000000: 332d 09bd 8a2e 97bb 4546 0bbe 1efa bbbc
00000010: 25c7 fc3c d7a3 96bd 8318 06bc a290 cabd
00000020: 4aad adbd ba45 b5bd ab52 7dbd f08d 93bc
00000030: 46d2 6d3d e76c 74bc e6fe 1dbd a3f9 01bd
00000040: a54a 99bd 495b 1e3d 2948 793d 184a 693d
00000050: bf16 0bbe 6c9f cebc f658 a3bd bb1c 60bd
00000060: 0030 4fbd b29d 7abd b219 8a3c e0e6 64bd
00000070: 5fba f7bc f146 37bd 30d2 17bd 2622 0c3d
00000080: 3457 efbd 34a7 a7bc 3dc1 cbbd 5401 c6bd
00000090: 1005 8d3d 582d c3bd 03e2 8cba cc71 1fbd
000000a0: 5cb5 bfba 8a0f 19bd d25c 963d bf5c 66bd
000000b0: 0f35 c3bc 5737 343d 4a50 a2bd 97fd b3bd
000000c0: 5f07 8fbd 950a 193d 6448 87bd 7943 3b3d
000000d0: d8f9 35bd becc aebd d190 acbd f3e3 593d
000000e0: 7187 bf3c c929 b43c c2b6 0abe 2e78 98bd
000000f0: 69b5 a83d 8fbe 913d 2446 e4bd 6fe7 253d
00000100: b7a1 0d3d a5a2 5fbd ce93 98bd 0c88 8bbd
00000110: b38a 8d3d 420c 73bd 9e1d 0cbd 71ec bbbb
00000120: 4772 273d 5c5b f3bd fe35 16bd 178b 1ebd
00000130: 7a98 9a3c d77d 5ebd 6a91 e4bc 13d8 ecbd
00000140: b9e8 abbc f859 eebd 0527 103d f6e8 07bd
00000150: afd9 413d fd28 c33d 0061 9ebd 966a 77bd
00000160: 9c0e a1bc 9df8 a7bc 257c 19bb eed5 2cbd
00000170: 7abf c0bc a52a fc3c f392 c43d 71b6 863d
00000180: 9366 633b 424b c33d a9b7 10bc 8f51 84bd
00000190: b5d8 dc3c a48f 56bd 53e8 9e3d 9b00 d5bd
000001a0: 67e6 5d3d ffdf 1dbe 478c 50bd 8525 6ebd
000001b0: 213e d3bd 0751 f63b fc28 923d 8fea 5ebd
000001c0: 169d a23b 88eb b1bb 1370 02ba ad65 653d
000001d0: c7c0 34bd 1f33 dabc 3930 c33d b4b3 763d
000001e0: ced0 ca3c 0f33 80ba 326a 3ebc ed0a cfbd
000001f0: 28ef 0abc 63d1 bfbd b220 aa3d d3eb 2b3d
00000200: 7a0f 1cbd 1013 7dbd 3f9f a7bc a2b7 47bd
00000210: 2096 8a3d d03e a73c 66ad 9c3d c3b7 4f3c
00000220: 2afa 9a39 0e65 44bd c89d 1c3d 70ea dc3b
00000230: 2466 1c3d 50bc ddbc 1a1f 193c eec3 4d3d
00000240: 7907 803d e5bd 02bd 932d 81bc 183c 1fbd
00000250: 12bd 023d 24d8 d1bd e16b 623d 94f3 02bb
00000260: 2f43 823d 8147 86bd 534b 08bd a044 94bd
00000270: 1d42 93bd 1065 15bc e526 563d fd48 f7bb
00000280: 6556 7e3d 5d02 fe3c 1366 76bd dd57 243b
00000290: 13f3 82bd b476 a73d a823 55bd 4c49 273d
000002a0: b790 2e3d 37c9 9a3d b744 57bd 4c95 1e3b
000002b0: 390c 703d d87f 98bd d6f1 8a3d 1865 b5bd
000002c0: f2be 043a 3384 033e 8da6 803d b391 6dbc
000002d0: 249e 77bd cde5 54bd cd16 033d 032d 893c
000002e0: 349d e43b 6911 463d addb a73d 3400 54bd
000002f0: b127 3fbd 742f e0bb 653d a1bd c475 a93d
00000300: 3ea6 51bd 33a7 c7bc e7a9 28bd bb1c 98bd
00000310: 43f1 83bd 8e6b e1bc 5f8b b93d dd6b 5d3c
00000320: db08 273d 0982 ae3d 3784 8abd 9e4f 6bbd
00000330: 83ba d13d c72b c13d c4b9 c4bc d925 93bc
00000340: ccfc efbd efb7 c5bc 33a3 e63d dfdc 903d
00000350: c196 f6bb 52b0 163e af7a 383d 8a8c 20bd
00000360: 7479 aebd 8143 94bd a7f0 c63c 9f26 ad3d
00000370: 7982 ab3d f056 b13d 13f9 2f3d f7c9 cbbd
00000380: 6c8e e93d e7a5 593d cb06 b4bd 5622 c0bd
00000390: 5e52 653d a592 003d 00b1 9abd fa60 ae3d
000003a0: 8c6c a9bc 5bb8 b73d 45e4 af3d db02 0cbe
000003b0: dbbf e63c 42d1 043e ffd4 303d 03e7 26bc
000003c0: 86bc 533d e71c cdbb 04ca 5b3d feda 8039
000003d0: 6870 1bbd 95a1 673c e303 893c d453 67bd
000003e0: 100e 4d3d 35a1 923c 21ba 96bc dc89 1fbd
000003f0: 936d afb9 d35a 84bd 6657 053d 3fca 0c3c
-0.03349037 -0.004613702 -0.13601024 -0.022946414 0.030856678 -0.07355469 -0.008184555 -0.09890868
-0.08480318 -0.0885119 -0.061846416 -0.018012017 0.05806186 -0.0149185425 -0.03857317 -0.031732213
-0.074849404 0.038661275 0.060859833 0.056955427 -0.13582896 -0.025222503 -0.07975952 -0.0547149
-0.050582886 -0.061185546 0.016857956 -0.055884242 -0.030240236 -0.04474539 -0.037065685 0.034212254
-0.116865546 -0.02046547 -0.09948967 -0.09668222 0.06885731 -0.09530133 -0.0010748509 -0.038926885
-0.0014626193 -0.037368335 0.07341923 -0.056240793 -0.023829011 0.04399809 -0.0792547 -0.08788603
-0.06983828 0.037363607 -0.06605604 0.045718644 -0.044427723 -0.08535145 -0.08426059 0.053195905
0.023380013 0.021992581 -0.13546279 -0.074447975 0.08237726 0.07116424 -0.11146191 0.040503915
0.03457805 -0.05459847 -0.074500665 -0.06813058 0.069112204 -0.05933786 -0.034207933 -0.005734973
0.040880468 -0.1188266 -0.036672585 -0.038706865 0.018871535 -0.05431923 -0.02790137 -0.115646504
-0.020984994 -0.11638254 0.035193462 -0.033181153 0.04732674 0.09529302 -0.07733345 -0.060404383
-0.019660287 -0.02050429 -0.0023419943 -0.042196207 -0.023528803 0.030782053 0.09598341 0.06577767
0.003469859 0.09535839 -0.0088328505 -0.064608686 0.026958803 -0.05238308 0.07759156 -0.10400506
0.054174807 -0.15417479 -0.05091503 -0.05814125 -0.103145845 0.0075169834 0.071367234 -0.05442291
0.0049625738 -0.005429689 -0.0004975807 0.05600517 -0.04412916 -0.026635705 0.09530682 0.060229972
0.024757769 -0.0009780842 -0.011621999 -0.10109506 -0.008479871 -0.09366109 0.083070174 0.041972946
-0.038100697 -0.061785758 -0.020461677 -0.04875911 0.06766915 0.020415694 0.076502606 0.01267809
0.00029559556 -0.047947936 0.03823641 0.0067418143 0.038183346 -0.027067333 0.009345794 0.05023568
0.06251425 -0.03191938 -0.015768802 -0.03887567 0.031918593 -0.10246304 0.055278663 -0.001998161
0.063604705 -0.06556607 -0.03327496 -0.07239652 -0.071903445 -0.009118333 0.052283186 -0.0075465427
0.06209411 0.031006986 -0.06015594 0.0025076785 -0.06394019 0.08176938 -0.052035958 0.040841386
0.04261848 0.0755791 -0.052555766 0.0024197875 0.058605406 -0.07446259 0.06784408 -0.08857173
0.00050638535 0.12843399 0.06281767 -0.014500069 -0.06045355 -0.051976968 0.032004166 0.016745096
0.006976748 0.048356447 0.08196197 -0.051758006 -0.046668712 -0.0068415944 -0.07873038 0.08274415
-0.05118393 -0.024371719 -0.041177657 -0.07427355 -0.064425014 -0.027517106 0.09059786 0.013514486
0.04077993 0.08520896 -0.06763499 -0.057448976 0.102406524 0.09432178 -0.024014361 -0.017962383
-0.11718139 -0.024135558 0.112615965 0.07073378 -0.0075252955 0.14715698 0.045038875 -0.03919653
-0.08519259 -0.07239438 0.024284674 0.08454632 0.08374495 0.0865916 0.042962145 -0.09950631
0.11404118 0.053136732 -0.08790358 -0.09381549 0.055986755 0.03138985 -0.07553291 0.085145906
-0.020681642 0.0897071 0.08588461 -0.13672964 0.028167656 0.1297045 0.04317188 -0.010186913
0.05169346 -0.006259549 0.053659454 0.00024577224 -0.037948996 0.014137645 0.016725486 -0.05647643
0.05006224 0.017899135 -0.0183993 -0.038949832 -0.0003346024 -0.06462636 0.032554053 0.008593141

layers.2.bias f4 [32]
00000000: a553 53bc baf4 9f3b 803f ce3d 29b4 c33d
00000010: 6119 23bd 09ad 80bc 8813 c7bd b56e 22be
00000020: 8092 593d 9641 ee3b a22f 853b 4355 9b3b
00000030: 2645 fdbd 3e30 48bc 9314 78bd 6c87 ca3d
00000040: dbab b23d fe83 9d3d a7ea 693a e909 43bd
00000050: 51bd 25bc 8909 09bb 6146 f73d 2e51 1a3a
00000060: db0e a43d 3640 c93c b69c e4bc 785a 3c3d
00000070: 1e5e b63b 5b45 26bc a329 a33c a25d fa3d
-0.01289836 0.0048814686 0.100707054 0.09555847 -0.039819125 -0.01570751 -0.09720522 -0.15862544
0.05311823 0.007271002 0.004064516 0.0047403886 -0.12366705 -0.012218533 -0.060566496 0.09889111
0.08724185 0.07691191 0.00089232106 -0.047616873 -0.010115937 -0.0020910224 0.120739706 0.00058867305
0.08010646 0.024566751 -0.027906757 0.045984715 0.005565419 -0.010148372 0.019917315 0.1222489
