runs/10_agents_50000_steps_graph/models/actor.pth (torch, 26432 bytes, 4 tensors)

fc1.weight f4 [128, 38]
0	0x3d6a2f23	0.05717386
1	0x3dab6432	0.0836872
2	0x3e19bc50	0.15013242
3	0xbbc1a483	-0.005909504
4	0x3c05efcf	0.008174851
5	0xbe21057d	-0.1572475
6	0x3df85cab	0.1212705
7	0xbe50cb3f	-0.20390032
8	0xbd73d763	-0.05953158
9	0xbcfd3e31	-0.030913444
10	0x3d549534	0.051900104
11	0x3d23ea7f	0.040018555
12	0x3cb55091	0.022133144
13	0xbe416ea5	-0.18889864
14	0x3e858134	0.26075137
15	0xbda3be12	-0.079952374
16	0x3dd55dda	0.104182914
17	0xbd455ad9	-0.048182342
18	0xbe9d42db	-0.3071507
19	0xbda8c8d8	-0.08241433
20	0x3d1a93a6	0.037738465
21	0x3c400112	0.011719005
22	0x3e058602	0.13039401
23	0xbbed4481	-0.0072408323
24	0x3da3f4e4	0.080056936
25	0x3e1d0c38	0.15336692
26	0x3e245645	0.16048534
27	0x3d982ddf	0.07430624
28	0xbd9b7fd4	-0.07592741
29	0xbdea96e7	-0.114545636
30	0xbea44eea	-0.32091457
31	0x3dacb41f	0.08432793
32	0xbde6385f	-0.11241221
33	0x3ddec69e	0.10877727
34	0xbd50c6ef	-0.050970968
35	0x3e594a01	0.21219636
36	0xbd5348d4	-0.051583126
37	0x3c27ce06	0.010241991
38	0x3df9a681	0.12189961
39	0xbe0fa03d	-0.1402597
40	0x3e4a81d5	0.1977609
41	0x3e170ca5	0.14750917
42	0x3e15d232	0.14630964
43	0x3e827ad6	0.2548434
44	0x3e8fe416	0.28103703
45	0x3e4908b9	0.19632234
46	0x3cdac749	0.026706355
47	0x3d3d4e5a	0.0462173
48	0x3e4622de	0.19349238
49	0x3d1b3c25	0.037899155
50	0xbd1e7b7a	-0.038691975
51	0xbe0a2c98	-0.13493574
52	0xbe55be36	-0.20873341
53	0xbe171a00	-0.14756012
54	0xbe759027	-0.23980771
55	0xbd7dc3de	-0.06195437
56	0x3e728105	0.2368203
57	0xbdc5f926	-0.09666662
58	0xbdcf8fbb	-0.10134836
59	0xbc928a57	-0.017888231
60	0xbd299667	-0.0414032
61	0x3e2e05ae	0.16994354
62	0x3e29aaaa	0.1656901
63	0x3d914b67	0.0709446
64	0xbde25cc2	-0.110528484
65	0x3e101d74	0.14073735
66	0x3e2b438e	0.16724989
67	0xbe0ee527	-0.13954602
68	0x3dbff20e	0.0937234
69	0xbde0bfd9	-0.10974092
70	0x3d97e6c3	0.07417061
71	0xbda49aaa	-0.08037312
72	0xbc3bdbc4	-0.01146597
73	0x3cf1a1b9	0.02949606
74	0xbde69e72	-0.1126069
75	0x3dd0d592	0.10196985
76	0x3b9946f9	0.00467765
77	0xbd8c39e0	-0.06846976
78	0x3d553299	0.052050207
79	0x3ceb4b8a	0.028722543
80	0x3e2ebfb4	0.17065316
81	0xbe0ba2f5	-0.13636382
82	0xbdf58d27	-0.11989813
83	0x3da10b0b	0.078634344
84	0xbe856465	-0.26053157
85	0xbdfc321b	-0.12314244
86	0xbda5a45d	-0.080879904
87	0xbd2b6fd7	-0.041854706
88	0xbe5a0294	-0.21290046
89	0x3dc8b9dc	0.09801075
90	0x3e29d657	0.1658567
91	0x3e10f4bd	0.1415586
92	0xbd01273e	-0.031531565
93	0xbe50c0c1	-0.2038603
94	0x3dbd7363	0.09250524
95	0x3daffe82	0.085934654
96	0x3e600905	0.2187844
97	0x3d9194a0	0.07108426
98	0xbd1e11f4	-0.03859134
99	0xbe8c4664	-0.27397454
100	0xbe494448	-0.19654953
101	0xbe267737	-0.16256414
102	0x3cf85eec	0.0303187
103	0xbd8455a6	-0.06461649
104	0xbe8c57ef	-0.27410838
105	0x3e687d73	0.22704105
106	0x3d2ec040	0.042663813
107	0xbe746b65	-0.23869093
108	0x3de43df1	0.11144627
109	0xbdb397f5	-0.08769218
110	0xbe08f2a6	-0.13373813
111	0x3b9d49b2	0.004800045
112	0x3e899022	0.26867777
113	0xbda552a8	-0.08072406
114	0x3d04af4a	0.03239373
115	0xbdb49963	-0.08818319
116	0x3d9c2bab	0.076255165
117	0xbdece993	-0.11567988
118	0x3d9b849d	0.07593653
119	0xbe2dfae5	-0.1699024
120	0x3d0f825f	0.03503644
121	0xbe3d0a80	-0.18461037
122	0x3ca67e23	0.020323819
123	0xbd2f9042	-0.042862184
124	0x3e3f4d84	0.18681914
125	0x3e8b20ea	0.2717355
126	0xbe731168	-0.23737109
127	0x3d7fcd68	0.06245175
128	0xbd318b67	-0.043345835
129	0x3e0f70a2	0.1400781
130	0x3dfa9a68	0.12236482
131	0xbdd960c6	-0.10614161
132	0xbdb365e5	-0.08759669
133	0x3d435ae4	0.047694102
134	0x3dc628c4	0.09675744
135	0x3de02caa	0.10946019
136	0xbd95770a	-0.072980955
137	0x3e251786	0.16122255
138	0xbe167b0b	-0.14695375
139	0xbe5efc79	-0.21775998
140	0xbde426d5	-0.11140219
141	0x3d33d2fb	0.04390238
142	0xbda05ece	-0.078305826
143	0x3c70fa72	0.014708148
144	0xbe07d725	-0.13265665
145	0xbe162548	-0.14662659
146	0x3dd0d34a	0.1019655
147	0x3e8e646e	0.27810997
148	0x3dbb1194	0.09134212
149	0x3db8ea94	0.09029117
150	0xbd807c64	-0.06273726
151	0xbe1e79af	-0.15476106
152	0x3de573f9	0.11203761
153	0x3df39946	0.11894469
154	0x3cb2404f	0.02175918
155	0xbdaa69fe	-0.08320998
156	0x3e8d8217	0.27638313
157	0x3d70b449	0.058765683
158	0xb837e1ba	-4.3840824e-05
159	0xbd013f58	-0.03155455
160	0xbd9e5413	-0.0773088
161	0xbe0705d6	-0.1318582
162	0x3e017513	0.12642317
163	0x3d21663b	0.039404135
164	0xbe2c54f6	-0.16829285
165	0x3bd975ea	0.006636371
166	0xbd4b8aee	-0.04969304
167	0x3e35d9cb	0.17758863
168	0x3d65a294	0.05606325
169	0x3c8e2acc	0.017354392
170	0x3e64780d	0.2231142
171	0x3da682da	0.08130427
172	0x3cee4814	0.029087104
173	0x3e3229bf	0.17398737
174	0xbdcb27d7	-0.09919708
175	0x3decb527	0.115579896
176	0xbe4999ac	-0.19687527
177	0xbdd01391	-0.10159982
178	0xbd63bcbf	-0.055599924
179	0x3c3c2a23	0.011484656
180	0xbb9805fc	-0.0046393853
181	0x3e5d5e88	0.21618092
182	0x3e77c8dc	0.24197716
183	0xbd62166b	-0.05519716
184	0x3e09b16c	0.13446587
185	0xbdc9b750	-0.09849417
186	0x3e0f69e5	0.1400524
187	0xbdabce88	-0.08389002
188	0x3cb87802	0.022518162
189	0xbd52bbbd	-0.051448572
190	0xbdbaec96	-0.091271564
191	0xbcf80d86	-0.030279886
192	0x3ce99673	0.028514123
193	0xbd93ce3d	-0.07217071
194	0x3d362656	0.044470154
195	0xbe78b27f	-0.24286841
196	0x3d826c54	0.06368318
197	0x3d6afb6b	0.057368677
198	0xbc33e6d3	-0.010980326
199	0x3cb2f57c	0.021845572
200	0x3e48935c	0.19587463
201	0x3d3e02aa	0.04638926
202	0xbd591c9e	-0.053005807
203	0xbc95d9f6	-0.018292408
204	0x3e1e835e	0.154798
205	0x3de91fcb	0.11383017
206	0x3d88ebb0	0.06685579
207	0xbe041a43	-0.12900643
208	0xbe6105ef	-0.2197492
209	0x3db4b3dd	0.08823369
210	0xbc8714fa	-0.016489495
211	0x3e039891	0.12851168
212	0x3e020f38	0.12701118
213	0x3cfb3485	0.030664692
214	0x3c675d24	0.014121328
215	0x3ca42cbb	0.02004086
216	0xbd9530e2	-0.07284714
217	0xbdf5651e	-0.11982177
218	0xbe1108aa	-0.14163461
219	0x3e1b636e	0.15174648
220	0xbe20f138	-0.15717018
221	0xbe03d128	-0.12872756
222	0xbda08245	-0.07837347
223	0x3e5ab06d	0.21356364
224	0x3e52632b	0.20545642
225	0x3e825d66	0.25461882
226	0xbd887203	-0.06662371
227	0x3e45d563	0.19319682
228	0xbd2db514	-0.042409018
229	0x3e26fe08	0.16307843
230	0x3cb1482a	0.021640856
231	0xbd7b773f	-0.06139302
232	0xbd6a2c2b	-0.057171028
233	0xbe233f53	-0.15942125
234	0x3dc25759	0.094893165
235	0xbe79fe89	-0.24413504
236	0xbcf02638	-0.0293151
237	0x3e07ce15	0.13262208
238	0xbe08b095	-0.1334861
239	0x3e19beb4	0.15014154
240	0x3e07bfc7	0.13256751
241	0x3c4ecba4	0.012621794
242	0x3e8822ce	0.26589054
243	0x3dcaebe3	0.09908273
244	0x3d8116fd	0.06303213
245	0x3cb7f5f0	0.02245614
246	0xbe93ee6f	-0.28892848
247	0x3dd670d1	0.10470737
248	0x3c755c1b	0.014975573
249	0x3df84553	0.121225975
250	0x3c258e31	0.010104702
251	0x3d4ac995	0.04950865
252	0x3df7a454	0.1209189
253	0xbcbda27e	-0.023148771
254	0xbdfb02a1	-0.12256361
255	0xbe2403bb	-0.16017048

fc1.bias f4 [128]
0	0x3dd118fd	0.10209844
1	0x3e8bd991	0.27314427
2	0xbcba5caa	-0.022749264
3	0x3ec5535f	0.3854017
4	0x3cbf57c8	0.023357287
5	0x3dbc6518	0.091989696
6	0x3c909f69	0.017654138
7	0xbd6b47d2	-0.05744154
8	0x3e89c083	0.26904687
9	0x3e3b303e	0.18280122
10	0x3e048c0a	0.12944046
11	0xbd440717	-0.047858324
12	0xbca547d6	-0.020175856
13	0x3d072165	0.032990832
14	0xbd320ea9	-0.043471012
15	0xbd80a152	-0.062807694
16	0x3eaf5202	0.34242254
17	0x3caa4f46	0.020789754
18	0x3e9caa30	0.30598593
19	0x3ac484c8	0.0014993185
20	0x3ea621e6	0.32447737
21	0xbe517d24	-0.20457894
22	0x3df5be3b	0.11999174
23	0xbdbddf92	-0.09271158
24	0x3d452d58	0.048138946
25	0x3d7c28f0	0.06156248
26	0x3e2e1e27	0.1700369
27	0x3e53708f	0.20648406
28	0x3e9fd2da	0.31215554
29	0x3cbc8381	0.023011925
30	0x3db200ee	0.086915836
31	0x3e7c9763	0.24667124
32	0x3ea59384	0.32339108
33	0x3db7f01b	0.08981343
34	0xbe34c550	-0.17653394
35	0x3e86b0fa	0.26306897
36	0x3e16476e	0.14675686
37	0xbe519072	-0.20465258
38	0xbd24bdd4	-0.040220097
39	0x3db8211f	0.08990692
40	0xbe0a59d3	-0.13510828
41	0xbca1a5b8	-0.019732341
42	0x3d1d47b5	0.038398463
43	0xbe2e5435	-0.1702431
44	0xbd71eab7	-0.059061732
45	0xbce80572	-0.028322909
46	0x3e656bb2	0.22404364
47	0x3d89c059	0.067261405
48	0x3df60dbc	0.120143384
49	0xbdacabdd	-0.08431218
50	0xbd27585c	-0.04085575
51	0x3dd28b59	0.10280485
52	0x3e148cff	0.1450691
53	0x3e18bf42	0.14916709
54	0x3e92659c	0.28593147
55	0x3e80221b	0.2502602
56	0x3e14a4cb	0.14515989
57	0xbd7ab317	-0.06120595
58	0xbdca5e95	-0.09881321
59	0x3e562111	0.20911051
60	0x3d4fd50d	0.05074029
61	0xbe04ee8f	-0.12981628
62	0x3d50a4d1	0.05093843
63	0x3d9c2e0d	0.07625971
64	0x3dc019dc	0.09379932
65	0xbe1bc649	-0.15212359
66	0xbd2980cf	-0.041382607
67	0x3ec5f5eb	0.38664183
68	0x3e8a7479	0.27041987
69	0x3b634962	0.003468119
70	0x3d8f36fa	0.06992908
71	0x3cec1bcb	0.028821846
72	0x3e53d296	0.20685801
73	0x3ddfc13b	0.10925528
74	0x3e8dd138	0.27698684
75	0xbe580599	-0.21095885
76	0x3e8f3ff9	0.27978495
77	0x3d833f84	0.06408599
78	0xbda90fc7	-0.082549624
79	0x3cce26f0	0.025165051
80	0x3dc4af21	0.09603716
81	0x3e7a0808	0.24417126
82	0x3d11def0	0.035613
83	0xbe06e6b0	-0.13173938
84	0xbe80e5ea	-0.2517541
85	0x3ebd1be3	0.36935338
86	0xbd579208	-0.0526295
87	0x3c840622	0.016116206
88	0xbd6cf43b	-0.057850104
89	0x3c9bac54	0.01900307
90	0x3e907d4f	0.28220603
91	0x3c7974ff	0.015225648
92	0xbe82599e	-0.25458997
93	0x3e81d5f1	0.25358537
94	0x3db4dfc4	0.088317424
95	0x3c2941d8	0.01033064
96	0xbcd93ef2	-0.026519272
97	0x3e1a043d	0.1504068
98	0xbe8ea6a5	-0.27861515
99	0x3d914e8b	0.07095059
100	0x3e422379	0.18958844
101	0xbde9c19e	-0.11413883
102	0xbd3fdec9	-0.046843324
103	0xbd7c56de	-0.06160628
104	0x3d8b7dd2	0.06811108
105	0xbdabeaad	-0.0839437
106	0xbe863d20	-0.2621851
107	0x3da69563	0.08133962
108	0x3e001e33	0.1251152
109	0x3e5e6cc8	0.21721184
110	0xbc567335	-0.013088991
111	0x3dc6ef3a	0.097135976
112	0xbe246385	-0.16053589
113	0xbc8809f5	-0.01660631
114	0x3ce77e9f	0.02825862
115	0x3dea0b05	0.11427883
116	0x3d6f2e19	0.05839357
117	0x3e2018c9	0.15634455
118	0xbe1be1d5	-0.15222867
119	0xbe25de42	-0.16198066
120	0x3daca4e9	0.084298916
121	0xbde9beea	-0.11413367
122	0x3da4d080	0.08047581
123	0xbe0b2322	-0.13587621
124	0xbcca7638	-0.024714574
125	0x3e67e71c	0.22646755
126	0xbe083f33	-0.13305359
127	0xbbcf7786	-0.006331387

fc2.weight f4 [9, 128]
0	0x3dd71cd3	0.10503545
1	0xbe0dc657	-0.13845192
2	0x3a908bb8	0.0011027968
3	0xbca7c3cf	-0.020479111
4	0xbe4dac45	-0.20085247
5	0x3ddc6b52	0.10762657
6	0x3da48935	0.08033983
7	0xbe7f3fa1	-0.24926616
8	0xbea07506	-0.31339282
9	0xbca9e7d0	-0.02074042
10	0xbe3c7f9f	-0.18408059
11	0x3e16469e	0.14675376
12	0x3dcf0a5c	0.10109398
13	0x3be6617a	0.007030663
14	0xbe073d4d	-0.13206978
15	0x3d5305bb	0.051519137
16	0x3e2a1a6e	0.16611645
17	0x3e00e086	0.12585649
18	0xbc8639d4	-0.016384996
19	0xbdad531f	-0.0846312
20	0x3daa75ba	0.08323236
21	0xbb51e1b2	-0.0032025394
22	0x3d8e1475	0.069374956
23	0x3d4c8059	0.04992709
24	0x3dfb63ed	0.12274919
25	0xbd2c20de	-0.042023532
26	0x3d8685c4	0.065684825
27	0x3d4a83e5	0.04944219
28	0x3e23b363	0.159864
29	0x3e355bb2	0.1771076
30	0xbb55b020	-0.00326062
31	0xbe14ace6	-0.1451908
32	0xbd4c166c	-0.04982607
33	0xbc8aa3d0	-0.016923815
34	0xbc0ee507	-0.008721597
35	0xbe0bffab	-0.13671748
36	0xbd265a59	-0.040613506
37	0x3de3a0c0	0.11114645
38	0xbdb569ae	-0.088580474
39	0x3d57eefe	0.052718155
40	0xbe535a46	-0.20639905
41	0xbd62b60c	-0.055349395
42	0x3dad54ce	0.08463441
43	0x3bb14a96	0.0054105027
44	0x3d98ff43	0.07470562
45	0x3dd03de1	0.101680525
46	0x3d8d03e7	0.0688551
47	0xbd8f3463	-0.06992414
48	0xbd630030	-0.0554201
49	0xbd57f4c9	-0.05272368
50	0xbdee7a80	-0.11644459
51	0xbd5f7e78	-0.05456397
52	0x3e1ae155	0.1512502
53	0xbc0eda44	-0.008719031
54	0xbe7bd62e	-0.24593422
55	0xbecf6c00	-0.40512085
56	0x3de22c88	0.1104365
57	0xbc37072d	-0.011171144
58	0xbe99e483	-0.30057153
59	0xbe9b031f	-0.3027582
60	0xbcf8941a	-0.030344058
61	0x3cecbf9e	0.028899964
62	0xbd46b2b9	-0.048510287
63	0xbd7c1435	-0.06154271
64	0x3b7d8ac5	0.003868745
65	0x3c42725f	0.0118680885
66	0xbcf83089	-0.03029658
67	0xbcf9044f	-0.030397562
68	0x3c6897d3	0.014196354
69	0x3db3dc96	0.08782308
70	0xbd1a32ef	-0.03764623
71	0xbce3e46b	-0.02781888
72	0x3dcb81d6	0.099368736
73	0x3dd5fdd6	0.10448806
74	0xbd3dcc19	-0.04633722
75	0xbb26c66d	-0.002544786
76	0xbe848f27	-0.25890467
77	0x3c0fa178	0.0087665245
78	0x3b9aac31	0.004720234
79	0x3da50813	0.08058181
80	0xbc2db3d9	-0.010601961
81	0x3e4dc2b1	0.200938
82	0xbdb5c8a3	-0.08876159
83	0xbd5aaab3	-0.053385448
84	0x3d9208c6	0.0713058
85	0x3d32e03f	0.04367089
86	0xbe202961	-0.15640785
87	0xbd41a5bd	-0.0472772
88	0xbe400b51	-0.18754317
89	0xbd29d511	-0.04146296
90	0xbe10c3ec	-0.14137238
91	0xbbdb3709	-0.0066899103
92	0x3d116d7a	0.035504796
93	0xbd1fc22b	-0.039003532
94	0xbb7edfed	-0.0038890794
95	0xbd9e5d62	-0.07732655
96	0xbe829463	-0.25503835
97	0xbe4c4d45	-0.19951351
98	0x3dad7e3b	0.08471342
99	0xbc3f944f	-0.011693074
100	0xbddc288a	-0.1074992
101	0x3d996ab3	0.074910544
102	0xbdd3a2c0	-0.103337765
103	0x3dcbbe31	0.099483855
104	0x3d454f9d	0.04817163
105	0x3a920ec1	0.0011143313
106	0xbd0bfadf	-0.034174796
107	0x3cc54e64	0.024085231
108	0x3dc1e773	0.094679736
109	0xbe25aeb4	-0.16179925
110	0xbe1240ca	-0.14282528
111	0xbe807e8c	-0.25096548
112	0xbcc11c9a	-0.023573209
113	0xbd7255ba	-0.059163786
114	0x3d9e0c31	0.07717169
115	0xbf13a614	-0.5767529
116	0x39dbea00	0.0004194528
117	0x3da45662	0.08024289
118	0x3dab21fe	0.08356093
119	0xbdba3d60	-0.090937376
120	0xbde25fa2	-0.11053397
121	0xbd01f7dc	-0.031730518
122	0xbce7fafe	-0.028317925
123	0xbddbd70f	-0.107343785
124	0x3d205bc2	0.039150007
125	0xbe89306b	-0.26794752
126	0xbb16a1b5	-0.0022984568
127	0xbda523bb	-0.08063456
128	0x3e0a9d4c	0.13536566
129	0xbd72570c	-0.059165046
130	0xbe9feea2	-0.3123675
131	0xbdb421b0	-0.08795488
132	0xbe80196d	-0.25019398
133	0x3d943f72	0.07238664
134	0x3d8004ec	0.06250939
135	0xbd68c7db	-0.056831222
136	0xbd33406e	-0.043762617
137	0x3de14cf2	0.11001004
138	0x3d804389	0.06262881
139	0x3e0fafa4	0.14031845
140	0x3c525b91	0.012839214
141	0xbd232274	-0.03982778
142	0xbe1ed677	-0.155115
143	0x3d1d6515	0.038426477
144	0x3d9f5555	0.07779948
145	0x3c9595db	0.018259933
146	0x3dbaeca8	0.0912717
147	0xbdc698cb	-0.09697112
148	0x3d15fefb	0.03662012
149	0xbc2d5803	-0.010580066
150	0x3d6e2142	0.058137186
151	0xbbd2adb1	-0.006429397
152	0x3d305008	0.043045074
153	0xbceac354	-0.028657593
154	0xbc847133	-0.016167259
155	0x3d82b9c4	0.06383088
156	0x3c83f7e3	0.016109413
157	0x3d84bc2f	0.06481206
158	0xbe4280a7	-0.1899439
159	0xbe33aaa5	-0.17545564
160	0xbc343d98	-0.011001013
161	0x3d28cb87	0.041209724
162	0xbd8e2321	-0.06940294
163	0xbeb65218	-0.35609508
164	0xbe910310	-0.2832265
165	0x3dbb6ac0	0.0915122
166	0xbe0abf4c	-0.13549536
167	0x3df300b4	0.118653685
168	0xbd66d257	-0.05635294
169	0xbd924ad4	-0.071431786
170	0x3d813f57	0.06310909
171	0x3bb7e7d3	0.0056123524
172	0x3dea40dc	0.11438152
173	0xbd05c162	-0.032655127
174	0xbe01636d	-0.12635584
175	0xbe492a46	-0.19645032
176	0xbd3c3866	-0.045952223
177	0xbe6436dd	-0.22286554
178	0xbebbe010	-0.36694384
179	0xbcd6cfac	-0.026222073
180	0x3e37f0de	0.17962977
181	0x3d20afb9	0.039230082
182	0xbc764231	-0.01503043
183	0xbea66f82	-0.3250695
184	0x3d82b553	0.06382241
185	0x3c6280be	0.01382464
186	0xbc074be9	-0.0082578445
187	0xbd5781d3	-0.052614044
188	0xbce5d701	-0.028056623
189	0xbdac2d0b	-0.08407029
190	0xbd55dab1	-0.052210514
191	0xbd407780	-0.046988964
192	0x39fa6505	0.0004775898
193	0x3e0d6486	0.13807878
194	0xbbbc0846	-0.005738291
195	0xbd2076d8	-0.03917584
196	0xbcbc4160	-0.022980392
197	0xbd979aa7	-0.074025445
198	0x3d50d35d	0.05098282
199	0xbdba71be	-0.09103726
200	0x3d391b1a	0.04519186
201	0xbbaed926	-0.0053359447
202	0x3dbd8026	0.09252958
203	0x3d97abda	0.07405825
204	0xbdc878b6	-0.09788649
205	0xbcbe06ad	-0.023196543
206	0xbd906aba	-0.070516065
207	0xbc663bf0	-0.014052376
208	0xbdd176c4	-0.10227731
209	0x3e2e3d90	0.17015672
210	0x3d88f277	0.066868715
211	0xbdba5f1a	-0.091001704
212	0xbdcb2c72	-0.09920587
213	0x3a241c18	0.000626029
214	0x3b5e7b1e	0.0033947895
215	0x3e27099d	0.16312261
216	0xbdb3ac1a	-0.0877306
217	0x3d805a9f	0.062672846
218	0xbe627fd8	-0.22119081
219	0xbd8efe10	-0.06982052
220	0x3d7e388b	0.062065642
221	0xbcb22414	-0.021745719
222	0x3d7b488c	0.061348483
223	0x3d90d41d	0.070717074
224	0xbe9e4f02	-0.30919653
225	0xbd1fe4be	-0.039036505
226	0xbd8b3685	-0.06797508
227	0x3e187bc3	0.14890961
228	0xbed8fb8f	-0.42379424
229	0xbd0ab7d7	-0.03386673
230	0xbe535456	-0.2063764
231	0x3d1f1fd2	0.038848706
232	0x3e0255af	0.12727998
233	0xbd6ff04d	-0.058578778
234	0x3d66fd7f	0.056394096
235	0x3cc09037	0.023506267
236	0x3d91f0f0	0.07126033
237	0xbc55c5d4	-0.013047654
238	0xbd9cabeb	-0.07649978
239	0xbdfe1034	-0.12405434
240	0x3ab4b711	0.0013787468
241	0x3cac4fc0	0.021034122
242	0x3e1393f5	0.1441191
243	0xbeba9672	-0.36442906
244	0xbd625d1b	-0.055264574
245	0x3d4c2888	0.04984334
246	0x3d8379ab	0.06419691
247	0x3b803c1c	0.0039134156
248	0xbbc64418	-0.006050598
249	0xbcc86773	-0.024463391
250	0xbe80d907	-0.2516558
251	0xbe994dc6	-0.2994215
252	0x3dde8c0f	0.10866558
253	0xbe8ae7a0	-0.2712984
254	0x3daae8e4	0.083452016
255	0x3c52fe64	0.012878034

fc2.bias f4 [9]
0	0x3c938b4b	0.018010756
1	0x3cd15a4e	0.025555756
2	0xbdb6e0bd	-0.08929584
3	0xbd3e3054	-0.046432808
4	0x3e952d6a	0.2913621
5	0xbe5c14ba	-0.21492282
6	0xbe852d6f	-0.26011226
7	0xbc06d053	-0.008228379
8	0xbe2b3170	-0.16718078
