runs/10_agents_50000_steps_graph/models/critic.pth (torch, 19272 bytes, 3 tensors)

fc1.weight f4 [128, 32]
0	0x3c2d1bf7	0.010565749
1	0x3e83f590	0.25773287
2	0x3e4576d2	0.19283608
3	0xbdc9b11e	-0.098482355
4	0xbca6fdab	-0.02038463
5	0xbe9e5b80	-0.30929184
6	0xbe5338bf	-0.20627116
7	0xbe1b07c9	-0.15139689
8	0x3e1d61e9	0.15369381
9	0xbdaee5bb	-0.08539911
10	0xbca4f99a	-0.02013855
11	0xbe4afbfa	-0.19822684
12	0x3dd5f95b	0.104479514
13	0x3d1ceffd	0.03831481
14	0x3e1e6660	0.1546874
15	0xbd5ef381	-0.054431442
16	0xbdbb44bb	-0.09143969
17	0x3e85bb0f	0.26119277
18	0x3e38161a	0.17977181
19	0xbd2ddb71	-0.042445604
20	0xbd2846fa	-0.041083314
21	0x3e273955	0.16330464
22	0x3dcfbdbb	0.1014361
23	0xbe222036	-0.158326
24	0x3e170b96	0.14750513
25	0x3c6eec62	0.014582725
26	0xbd1581c4	-0.036500707
27	0x3cd72112	0.026260886
28	0x3dac4e07	0.0841332
29	0x3d88ce12	0.0667993
30	0x3cf7919a	0.030220795
31	0xbd8797c1	-0.06620742
32	0x3db98478	0.090584695
33	0x3e53e0b5	0.20691188
34	0x3d3fa725	0.04679026
35	0xbd0895fe	-0.03334617
36	0xbdcc6888	-0.09980875
37	0xbe66ecb0	-0.22551227
38	0xbdf9dc32	-0.12200202
39	0xbe00596e	-0.12534115
40	0x3c1623ff	0.009163856
41	0x3d2f7974	0.042840436
42	0xbc14c793	-0.009080785
43	0xbd3861ba	-0.045015074
44	0x3cbc0557	0.022951765
45	0xbe22cbb5	-0.1589802
46	0x3e177f25	0.14794596
47	0x3e7bf51d	0.24605222
48	0xbe83a3b4	-0.25710833
49	0x3e0e1c95	0.1387809
50	0x3c007127	0.007839478
51	0xbd0378f7	-0.032097783
52	0xbe8e2ca6	-0.2776844
53	0x3e092d9d	0.13396306
54	0x3e1c3806	0.15255746
55	0xbd938bab	-0.07204374
56	0xbc051fcf	-0.00812526
57	0xbc9184a0	-0.017763436
58	0x3d2ef04d	0.042709637
59	0x3d1e0c61	0.038586024
60	0x3d5b99a7	0.05361333
61	0xbc74f393	-0.014950651
62	0x3e04e63c	0.12978452
63	0xbdcbf36c	-0.099585384
64	0x3e8f2ffc	0.27966297
65	0x3e563a0d	0.20920582
66	0xbdb5e1f4	-0.08880988
67	0xbdda9112	-0.10672201
68	0x3cd859e4	0.02641005
69	0xbdb28645	-0.08717016
70	0xbe62aa05	-0.2213517
71	0xbd97322f	-0.07382619
72	0x3e88b96d	0.2670397
73	0x3da33f30	0.079710364
74	0xbdbb6f66	-0.09152107
75	0xbd039074	-0.032120183
76	0x3e1a03cf	0.15040515
77	0xbd7a34bc	-0.061085448
78	0x3e11039d	0.14161535
79	0x3e276104	0.16345602
80	0xbe48f721	-0.19625522
81	0x3db69360	0.08914828
82	0x3e820e21	0.25401405
83	0x3d8307a2	0.0639794
84	0xbe1ab116	-0.15106615
85	0xbde635ba	-0.11240716
86	0xbadbce65	-0.0016769884
87	0xbc447a05	-0.011991982
88	0x3be7cf09	0.007074241
89	0xbdd1f499	-0.102517314
90	0x3db1523a	0.086582616
91	0xbe177dac	-0.14794034
92	0xbe0341f8	-0.12818134
93	0x3e0e1014	0.13873321
94	0xbb6f7199	-0.0036536215
95	0xbe478306	-0.19483575
96	0x3da65d79	0.08123297
97	0xbdb7fc7d	-0.08983705
98	0xbda30e1a	-0.07961674
99	0xbe138305	-0.14405449
100	0xbbbe328c	-0.0058043655
101	0xbd3878d6	-0.045037113
102	0x3d1f0679	0.038824532
103	0x3df9541d	0.121742465
104	0xbe5032cf	-0.20331882
105	0x3e122906	0.14273462
106	0xbd90b3b6	-0.07065527
107	0xbdca4a1a	-0.09877415
108	0xbc8d3a88	-0.017239824
109	0x3e2832e2	0.1642566
110	0xbdd64e98	-0.10464209
111	0xbe804142	-0.25049788
112	0x3e841af3	0.2580181
113	0xbd8850e1	-0.066560514
114	0x3d515b6b	0.051112574
115	0xbded00c4	-0.11572412
116	0xbddb3d66	-0.1070507
117	0xbdc19493	-0.094521664
118	0xbc8e18cc	-0.017345808
119	0xbe845255	-0.25844064
120	0xbdd612af	-0.10452782
121	0xbdb7aab5	-0.08968107
122	0x3e04aff7	0.1295775
123	0x3e12b32c	0.14326161
124	0xbd14ddaa	-0.036344208
125	0x3c1eb25a	0.009686077
126	0xbd744548	-0.059636384
127	0x3d88d394	0.0668098
128	0x3d5df1f5	0.054185826
129	0x3e523475	0.20527823
130	0xbcbd1b6a	-0.023084361
131	0x3e37471d	0.17898221
132	0x3cd126a7	0.025531126
133	0xbdae4876	-0.085099146
134	0x3bd84e17	0.006601106
135	0xbda33c94	-0.07970539
136	0x3d848b8d	0.0647193
137	0x3df2dec4	0.118588954
138	0xbdab0785	-0.083510436
139	0x3dcc7731	0.099836715
140	0xbe231681	-0.15926553
141	0xbdd346a1	-0.10316206
142	0x3e587389	0.21137823
143	0x3e6db2fd	0.2321281
144	0xbe9f1c06	-0.31076068
145	0x3dad8106	0.08471875
146	0x3e5326be	0.20620248
147	0xbdda8e51	-0.10671676
148	0x3da5932a	0.0808471
149	0x3cfb07b3	0.03064332
150	0x3dc0de4a	0.09417398
151	0xbd8b4100	-0.06799507
152	0x3cacaf86	0.02107979
153	0x3e678905	0.22610863
154	0x3dcc8497	0.09986227
155	0x3cd51c70	0.026014537
156	0x3d8bdcd7	0.06829231
157	0x3e1f0cd2	0.15532234
158	0xbde648c4	-0.11244348
159	0xbd507c12	-0.050899573
160	0x3c817803	0.015804296
161	0xbe67e788	-0.22646916
162	0xbe6f5c67	-0.23375092
163	0x3d9d9abd	0.076955296
164	0xbb984fe8	-0.0046481974
165	0x3dab707a	0.083710626
166	0x3e358e30	0.17730021
167	0x3e78eca6	0.24309024
168	0xbda7fac0	-0.08202124
169	0xbd1344f7	-0.035954442
170	0xbd4c0664	-0.049810782
171	0x3e060cf5	0.1309088
172	0x3e3210c0	0.17389202
173	0x3d220d48	0.039563447
174	0xbe26e4bf	-0.16298197
175	0xbe66a4b4	-0.22523767
176	0x3cacb8ac	0.021084152
177	0xbdaf1065	-0.08548049
178	0xbd9ee75a	-0.077589706
179	0x3db988a6	0.09059267
180	0xbc0305a1	-0.0079969475
181	0x3d0d43ed	0.034488607
182	0x3e44c9c0	0.19217587
183	0x3cb72ef3	0.022361254
184	0xbc8205d4	-0.01587192
185	0xbe714721	-0.2356229
186	0x3e84c2bb	0.25929818
187	0x3e80c8d2	0.25153214
188	0x3e1e2241	0.15442754
189	0xbe47cd1f	-0.19511841
190	0x3e03df61	0.12878181
191	0xbddfc44a	-0.10926111
192	0x3e061e1d	0.13097425
193	0x3e019a4a	0.12656513
194	0xbe2b0f64	-0.1670509
195	0xbe534d7f	-0.20635031
196	0xbc33f3ba	-0.010983402
197	0xbcbdeb92	-0.023183618
198	0x3c3d23f7	0.011544219
199	0x3da3f652	0.08005966
200	0x3e79bfc5	0.2438956
201	0xbe11467b	-0.14187042
202	0xbced65da	-0.02897923
203	0x3d89c7c3	0.06727555
204	0x3defa844	0.11702016
205	0xbe036096	-0.12829813
206	0xb9993bb3	-0.00029226913
207	0x3e2cd852	0.16879395
208	0xbc6ecf64	-0.014575813
209	0x3b726869	0.0036988503
210	0x3d6665da	0.056249477
211	0xbe5248ae	-0.20535538
212	0xbe16307a	-0.1466693
213	0xbe4fe03a	-0.2030038
214	0xbe28197e	-0.16415974
215	0x3dc95128	0.098299325
216	0xbe3b2bfc	-0.18278497
217	0x3e8d2cf4	0.2757336
218	0x3db702e5	0.08936099
219	0xbbbce606	-0.0057647256
220	0x3e24e23e	0.1610193
221	0x3e237027	0.15960751
222	0xbc437036	-0.011928609
223	0xbd24bed4	-0.04022105
224	0x3de9cd7b	0.114161454
225	0x3e09a26b	0.13440864
226	0xbd13e212	-0.03610427
227	0x3e2b2972	0.16715029
228	0x3d4d8587	0.05017617
229	0xbdd19a88	-0.102345526
230	0xbe62975f	-0.22128056
231	0x3d7adfc6	0.061248563
232	0x3e8d206e	0.27563804
233	0xbe3047e6	-0.17214927
234	0x3d9a0cd9	0.07521982
235	0xbc4c2d69	-0.0124619985
236	0x3d0d7c07	0.03454211
237	0xbc06680b	-0.008203517
238	0x3e2afae3	0.16697268
239	0x3d99055d	0.07471726
240	0xbd86fd79	-0.06591315
241	0x3e58e34a	0.21180454
242	0x3e742883	0.23843579
243	0xbe7e4e3f	-0.24834536
244	0xbc78db44	-0.015188996
245	0xbdd16272	-0.10223855
246	0xbe5aaff2	-0.2135618
247	0xbe0fb23e	-0.14032838
248	0xbe59a6d4	-0.21255046
249	0x3dc54093	0.09631457
250	0x3caf3e70	0.021392077
251	0x3cb491ed	0.02204224
252	0xbe05fb34	-0.13084108
253	0x3d5306bd	0.051520098
254	0xbdcdd8d6	-0.10051124
255	0xbda6fb33	-0.08153381

fc1.bias f4 [128]
0	0xbd1e56ce	-0.038657002
1	0x3e8be886	0.2732584
2	0x3e0e75d6	0.13912138
3	0x3db17fe2	0.0866697
4	0x3dd451d1	0.10367168
5	0xbd66bed1	-0.05633432
6	0x3c881ed7	0.016616268
7	0x3e7137fd	0.23556514
8	0x3cbcd5cd	0.023051167
9	0x3dd6bf3e	0.10485695
10	0x3c8b066d	0.016970837
11	0x3da01fc6	0.0781856
12	0xbcdc43d2	-0.026887808
13	0x3ca23e04	0.019804962
14	0x3e491b9b	0.19639437
15	0xbc0c0a7d	-0.0085474225
16	0x3df4e17c	0.1195707
17	0x3e2fa8d9	0.17154254
18	0xbdf366fb	-0.11884876
19	0xbd111957	-0.035424557
20	0xbe1524cc	-0.14564818
21	0xbdf949dd	-0.121722914
22	0x3c7ab9db	0.0153031
23	0xbdd43400	-0.10361481
24	0xbe448ed2	-0.19195107
25	0xbd32e0b5	-0.04367133
26	0x3dc4451a	0.095834926
27	0x3d05d6eb	0.032675665
28	0xbdc14226	-0.09436445
29	0xbda43db0	-0.080195785
30	0x3c308f4b	0.010776351
31	0x3d781d9d	0.060575116
32	0x3d0c8530	0.034306705
33	0xbdde87bc	-0.10865733
34	0xbd23c1a7	-0.039979603
35	0x3de7fca8	0.11327487
36	0x3e291821	0.1651311
37	0x3cf3fae5	0.029782722
38	0x3e29852a	0.16554704
39	0x3e300c9d	0.17192312
40	0x3e191df0	0.14952826
41	0xbccf8d3e	-0.025335904
42	0x3e45ee98	0.19329298
43	0x3e6c4e01	0.23076631
44	0x3db569ac	0.08858046
45	0x3d82caec	0.063863605
46	0xbd84611e	-0.06463836
47	0xbc40b866	-0.011762714
48	0x3dad19ea	0.08452208
49	0x3d9f2ccb	0.077722155
50	0x3cf9d1a6	0.030495476
51	0x3d908299	0.070561595
52	0x3d734a44	0.059396997
53	0x3cdbe2b4	0.026841499
54	0xbd5a0e47	-0.053236272
55	0x3d9266b1	0.07148493
56	0x3e41c2c2	0.1892195
57	0x3dceaace	0.10091172
58	0xbc851579	-0.01624559
59	0xbdc224f2	-0.09479703
60	0x3e54d9c8	0.20786202
61	0x3e5cb799	0.21554412
62	0x3dfc1104	0.12307933
63	0x3dc7f7ab	0.09764036
64	0x3e78df53	0.24303941
65	0x3e25101c	0.16119426
66	0x3d8490f5	0.06472961
67	0x3dc66d38	0.096888006
68	0x3ade3130	0.0016951915
69	0x3e3b60a4	0.18298584
70	0x3e43575d	0.19076295
71	0xbcf3d8cb	-0.02976646
72	0x3e02d337	0.12775885
73	0xbd4ee5c9	-0.05051211
74	0xbd55cd5e	-0.052197807
75	0xbdf7f7a2	-0.12107779
76	0x3c904b3f	0.017614005
77	0xbdbae21b	-0.091251574
78	0x3d5f62eb	0.054537695
79	0x3dd89c68	0.10576707
80	0xbd301ea3	-0.042997967
81	0xbd3a3918	-0.045464605
82	0x3e212e8e	0.15740415
83	0xbdab099a	-0.08351441
84	0x3d42f4e4	0.047596827
85	0x3df3f64f	0.11912214
86	0x3cfed7df	0.031108795
87	0x3dc2d615	0.09513489
88	0xbded4bf1	-0.1158675
89	0xbe4673dd	-0.19380136
90	0xbdf8df3e	-0.12151955
91	0xbdbc97b1	-0.0920862
92	0xbdd87a52	-0.10570206
93	0xbdf37077	-0.11886685
94	0x3dcafbf4	0.099113375
95	0xbd3c5f58	-0.045989364
96	0x3e532d60	0.20622778
97	0x3c76ce9c	0.015063908
98	0x3e222e7f	0.1583805
99	0xbdb95f40	-0.090513706
100	0x3e107e6f	0.1411073
101	0xbdaa0fb5	-0.08303777
102	0xbe21e1e9	-0.15808834
103	0xbde79401	-0.113075264
104	0x3e211e7e	0.15734288
105	0x3e256307	0.16151057
106	0xbc5dc3c1	-0.013535441
107	0x3d76e759	0.060279224
108	0x3d1354d9	0.03596959
109	0x3e49c32f	0.19703363
110	0xbe46c579	-0.19411267
111	0x3e1fdb4e	0.15611002
112	0x3d97f7ec	0.07420334
113	0xbd9f2a90	-0.0777179
114	0x3dc3e976	0.095660135
115	0x3c582ccf	0.013194277
116	0x3e0eaad4	0.13932353
117	0xbdbd7fff	-0.09252929
118	0xbd2cdf89	-0.042205367
119	0x3cde1763	0.027110761
120	0x3d309dcf	0.043119248
121	0xbcfb2af5	-0.030660132
122	0x3e0297f1	0.12753274
123	0x3e2568ba	0.16153231
124	0x3e76aa79	0.24088468
125	0x3d06cea4	0.03291191
126	0x3de981e3	0.11401727
127	0x3ca9a1b2	0.020706985

fc2.weight f4 [1, 128]
0	0x3e009246	0.12555799
1	0x3e303e27	0.17211209
2	0x3e5948db	0.21219198
3	0xbdeb15de	-0.1147878
4	0x3dd0c95c	0.10194656
5	0xbe3d9c3f	-0.18516634
6	0x3dbce355	0.09223048
7	0x3e3c8cec	0.18413132
8	0xbe1de409	-0.1541902
9	0x3defd42e	0.11710392
10	0x3e1a26c3	0.15053849
11	0x3de8e0b2	0.11370982
12	0x3df026cc	0.1172615
13	0x3e0714f6	0.1319159
14	0x3e2d4c7f	0.16923712
15	0xbe0b5371	-0.13606049
16	0x3df274f1	0.11838711
17	0x3e1fe32b	0.15614001
18	0xbe49de15	-0.19713624
19	0xbe924083	-0.28564844
20	0xbe29f341	-0.165967
21	0xbe128f3e	-0.14312455
22	0x3e4b99e9	0.19882931
23	0xbe65a428	-0.22425902
24	0xbe53356b	-0.20625846
25	0x3e4b76db	0.19869559
26	0xbe9ff714	-0.31243193
27	0x3d93b9b5	0.07213155
28	0xbd9e419b	-0.07727357
29	0xbe5370dc	-0.20648521
30	0xbe4c621e	-0.19959304
31	0x3e62b390	0.2213881
32	0x3de4ec6f	0.11177909
33	0xbe0c698d	-0.1371214
34	0xbde2c8f6	-0.110734865
35	0xbe5bdd56	-0.21471152
36	0xbd78a9d7	-0.060708847
37	0xbdf5fdd9	-0.12011308
38	0x3e4d32be	0.20038888
39	0xbe508d98	-0.20366514
40	0xbe0f2e2a	-0.13982454
41	0xbe605528	-0.21907485
42	0x3e80747a	0.25088865
43	0x3e271773	0.16317539
44	0x3dc5f154	0.0966517
45	0x3e20b042	0.15692237
46	0xbe2c9a25	-0.16855676
47	0xbe9a640e	-0.3015446
48	0x3de6107c	0.11233613
49	0x3e02af1f	0.12762116
50	0x3e4556a8	0.19271338
51	0x3e8a2d3e	0.26987642
52	0xbe31606d	-0.1732194
53	0xbe30bdaf	-0.17259859
54	0x3e0764dc	0.13222069
55	0xbe3640f5	-0.17798217
56	0x3dbf1c9e	0.0933163
57	0x3e073187	0.13202487
58	0x3df31896	0.11869924
59	0xbe5e1b8a	-0.21690193
60	0x3e005e08	0.1253587
61	0x3e1b3fbc	0.15161031
62	0xbe50c166	-0.20386276
63	0xbe7e1482	-0.2481251
64	0x3e2dcea1	0.16973354
65	0x3c389c12	0.011267679
66	0xbeaec466	-0.34134215
67	0xbdc58a32	-0.09645499
68	0xbe8d735d	-0.27627078
69	0x3e184d0c	0.14873141
70	0x3dfa3072	0.122162715
71	0x3da83c2b	0.08214601
72	0x3e1eac89	0.15495504
73	0xbe65a506	-0.22426233
74	0xbe45738c	-0.19282359
75	0xbe6b281e	-0.22964522
76	0x3dad4402	0.08460237
77	0xbe22d388	-0.15901005
78	0x3e13719b	0.14398806
79	0xbe28d401	-0.16487123
80	0xbe1b38a6	-0.15158328
81	0xbdf61171	-0.120150454
82	0xbe3d7c2e	-0.18504402
83	0x3df64dc8	0.12026554
84	0xbe20abd7	-0.15690552
85	0x3e491d7f	0.19640158
86	0x3da568cd	0.0807663
87	0xbd7b4588	-0.061345607
88	0xbdb5e699	-0.08881874
89	0xbdd85383	-0.105628036
90	0xbdadd84d	-0.08488522
91	0xbe92ef51	-0.2869821
92	0xbe8ca1ea	-0.2746728
93	0xbe32957c	-0.17439836
94	0x3df2ab52	0.11849083
95	0xbe5cd181	-0.21564294
96	0x3df4747a	0.11936279
97	0x3e47b871	0.19503953
98	0x3da9a08f	0.08282577
99	0x3e0f02c1	0.13965894
100	0xbe050494	-0.12990028
101	0xbe759166	-0.23981246
102	0xbdf9ba45	-0.12193731
103	0xbe879d55	-0.26487222
104	0xbe705746	-0.23470792
105	0x3e4b6588	0.1986295
106	0x3e16eb7f	0.14738272
107	0xbe375589	-0.17903723
108	0x3e65c0f4	0.22436887
109	0x3e490639	0.1963128
110	0xbe65d921	-0.2244611
111	0xbdc078e6	-0.093980595
112	0xbdb8713b	-0.09005972
113	0xbd0f1e17	-0.034940805
114	0xbe768ce5	-0.24077184
115	0xbe1845c3	-0.14870362
116	0xbe8959ee	-0.26826423
117	0xbd308d1d	-0.043103326
118	0x3e24995b	0.16074125
119	0x3d908389	0.07056338
120	0xbda4368d	-0.08018217
121	0xbe83874f	-0.2568917
122	0x3e64fead	0.22362776
123	0xbe27f654	-0.1640256
124	0x3e1fd71e	0.15609404
125	0x3e7d4088	0.24731648
126	0x3e657b1f	0.22410248
127	0x3e23fc41	0.16014196
