runs/3_agents_50000_episodes_graph/models/actor.pth (torch, 26432 bytes, 4 tensors)

fc1.weight f4 [128, 38]
00000000: 4745 dcbd 8633 0ebe 6095 d43c db69 413e
00000010: f3ef cabd 3123 a03e e4b3 e2bd 07ec 403c
00000020: a748 c0bd 6973 433e 08c8 f2bd 2f7f 043e
00000030: 85f1 693e 9997 f9bd d8fc 7a3d 94eb 963e
00000040: c7a2 183d deef 5bbd 9231 733d 25e3 6b3e
00000050: 933d 15be 416a d33d 3c39 283d 3bcb f43d
00000060: c2ff 80bd 6637 6d3e 9290 a93d b112 0e3e
00000070: 317a bb3d 8c70 09be 980c fd3c 13c4 643b
00000080: 2e60 683d eb2a d6bd 25d5 d53d 814d 753e
00000090: 78b4 64bd 8b24 d23d 0dba 77bd 5a66 66bd
000000a0: 4006 bcbd d29c 363e 9ab3 e5bd ee2f 0ebc
000000b0: 3c39 933c e319 db3d 0578 4a3c 9e77 b6bd
000000c0: 807a bcbd ee2e f13c 6e03 7cbd bce3 983b
000000d0: 096a f8bd 2009 16bd 1901 a03c 18a1 17bd
000000e0: 36c8 69be a99d 513e 7b64 15be 054f 58bd
000000f0: f80a 2cbd 99cb 01bd 6a19 dfbd aa25 abbd
00000100: b3b9 333e af66 003d b95f c53d 8eee 13be
00000110: 1231 bd3d 9882 6d3e c2b3 b63c d37c 133e
00000120: f872 f0bd fd4c 453d 4a5c c83d 9f2e e53d
00000130: dad0 85bd 33a9 313e f623 e0bd faf5 05be
00000140: d7e4 fd3d 15e0 febc 5843 fcbd eb47 08bd
00000150: 7e88 8cbc 6204 afbd 0c51 bc3d 3c2a 053e
00000160: a14b 3a3d 650f 95bd a4dd d53d a77f ab3d
00000170: f0c9 903d ba2f 0ebd 807c 583d cefb 0fbe
00000180: f634 62bd 81de 0d3e 65ed 8abd 3801 b03c
00000190: 5246 ef3d 526f 08be 0fcc 173e e6d0 d1bb
000001a0: 8fe3 0dbe 3153 443e b4da cabd 3f28 bbbc
000001b0: 0f37 133d cbae 3abe 2734 3cbe 47ef 3dbe
000001c0: eb4b 83be c4ed ed3b 3be2 be3d ce7e d23d
000001d0: d24a e03d e43b 943d a48f acbe 0230 13bc
000001e0: 89c4 1e3e 084e e7bd 58a8 debd 5198 1d3e
000001f0: 48dc 02be 1fcd a7be 46c6 b13d 13bd a7bd
00000200: b39e a3bd 1541 0e3e f109 013e 1dd0 693e
00000210: 4e35 13bd 6010 b63d 24b7 ffbd 42ed 24be
00000220: e7a0 8ebc 7696 9ebe 3181 1dbe bfa2 7abe
00000230: 5545 a83d acf7 a93d 626b 683e ceb8 e0bd
00000240: 9826 263c f249 c33c f0fd 8f3e 5769 6b3e
00000250: cc02 f7bd 16c7 4bbd 3b02 203e f6be 4c3e
00000260: 1d75 db3d 1391 0c3d f36a 97bd dcff efbd
00000270: e311 ab3e fb9c ac3d 0913 ccbd 8939 06be
00000280: 2532 4c3e 3b67 fb3d cf93 aa3e 1256 183e
00000290: 7909 b23c 3920 8b3d 2bd7 f23a 105a 37bc
000002a0: 9555 103c fb91 833c ddbd ba3d 0ada 1dbe
000002b0: a001 d1bd 2cfb 23bc bb80 1dbe 1f11 b4bd
000002c0: d5a7 553d 7da6 773d d99f e73d f28a 913d
000002d0: 175e a8be 597e 53bd c9bc 0e3d b266 6a3e
000002e0: 7f1c 5abe 2552 6b3d 4f54 b7bd 3b80 10be
000002f0: e2ca 19be 5455 0dbe f3f0 293d 69b4 c63d
00000300: a5c3 7f3d 9072 303e daad f3bd 1abb 813e
00000310: d6e2 dabc 8b86 323c 9a92 103d f1ef 9abd
00000320: a817 dfbd a4dd b63d a3e5 323e 77af 12bd
00000330: a357 e73d ecef f23d d4ed 073d 152f 0a3e
00000340: 3431 993d 234d 18bc 89d3 233e 65cc f03d
00000350: 70b8 5fbe 4275 823d 20ac f9bd bc8e 323e
00000360: 8061 c3bd 0a15 d7bd 40e0 033e f9cc 1a3e
00000370: 3c46 303e ced9 5b3d 3a23 38be 04c2 16be
00000380: 10e2 9a3e 0091 483e 1f3a 82bd e1ae 1c3e
00000390: 448b d2bb 6384 043e f64f 703d 65c5 af3d
000003a0: 2089 933e 82bd 853c dfff 343c e139 51be
000003b0: a52b 073e bb46 f13b 3899 793d 3679 dbbc
000003c0: 9dde c13d bf52 8a39 c140 453b f598 89be
000003d0: 14de abbd 9d06 27be fad3 263e 2c18 58bc
000003e0: ce67 d7bd 220d 513e 26bf 1d3c d9eb 603e
000003f0: 6b2a 8e3d c25d 003e 3527 173e a359 96bd
-0.10755401 -0.13886842 0.025950134 0.18888037 -0.09909048 0.3127685 -0.11069468 0.011775023
-0.09388857 0.19086994 -0.11854559 0.12939142 0.22846039 -0.12187118 0.061276287 0.29476607
0.03726461 -0.053695552 0.059373446 0.23035868 -0.1457427 0.10323001 0.041070208 0.11952826
-0.06298782 0.23165664 0.08279528 0.13874318 0.091541655 -0.1342184 0.030889794 0.0034906908
0.05673235 -0.10457405 0.10441045 0.23955347 -0.05583617 0.10260876 -0.060480166 -0.056249954
-0.091808796 0.1783326 -0.11215897 -0.0086784195 0.017971627 0.10698297 0.012357716 -0.08909534
-0.092030525 0.029441323 -0.06152671 0.00466582 -0.121295996 -0.036629796 0.019531773 -0.037018865
-0.2283028 0.20470299 -0.14589112 -0.052809734 -0.042002648 -0.031688306 -0.10893519 -0.08356793
0.17551307 0.031347927 0.09637398 -0.1444647 0.09237875 0.23194349 0.022302512 0.14403085
-0.117406785 0.048169125 0.09783228 0.11190533 -0.06533976 0.173497 -0.10944359 -0.13082114
0.12397163 -0.03111271 -0.12317532 -0.03327171 -0.017154928 -0.08545758 0.09195146 0.13004392
0.04548228 -0.07278327 0.10442665 0.08373957 0.070697665 -0.034713484 0.052853107 -0.140609
-0.05522629 0.1385441 -0.06783561 0.021484956 0.116833344 -0.13323715 0.14823936 -0.0064030765
-0.13856338 0.1917236 -0.099049956 -0.02284634 0.03594118 -0.1823074 -0.1837927 -0.18548308
-0.25643858 0.00726101 0.09320494 0.10278092 0.10951771 0.07237986 -0.3370334 -0.008983614
0.1550466 -0.1129418 -0.10871953 0.15390135 -0.12779343 -0.32773682 0.08680396 -0.0819036
-0.07989254 0.13892014 0.12601449 0.22833295 -0.035939507 0.08889842 -0.12486103 -0.16106132
-0.017410709 -0.30974168 -0.15381314 -0.24476145 0.08216349 0.08299193 0.22697213 -0.10972749
0.010141037 0.02383897 0.28123426 0.22989403 -0.1206108 -0.04975041 0.15625851 0.19994721
0.10715697 0.03431804 -0.07393446 -0.11718723 0.33412084 0.08428379 -0.09964568 -0.13107885
0.19941004 0.12275549 0.33315894 0.14876583 0.021733033 0.06793255 0.001852726 -0.011190906
0.008809467 0.01606082 0.09118245 -0.15415207 -0.10205388 -0.0100086145 -0.15381138 -0.08792328
0.05216201 0.06046151 0.113097854 0.0710658 -0.32884285 -0.051634166 0.03484801 0.22890738
-0.21299933 0.057451386 -0.089516275 -0.14111416 -0.150188 -0.13802081 0.041489553 0.09702379
0.06244244 0.17231202 -0.11898394 0.2533806 -0.026719492 0.010896335 0.03529606 -0.075652964
-0.10893184 0.08928993 0.17470412 -0.035811868 0.11296012 0.11862168 0.033185795 0.13494523
0.07480088 -0.009295735 0.15998663 0.11757735 -0.21847701 0.063700214 -0.12191033 0.17437261
-0.09540081 -0.1050206 0.12878513 0.15117253 0.17214292 0.05367451 -0.17982188 -0.14722449
0.30250597 0.19586563 -0.06358742 0.15301086 -0.006425293 0.12941127 0.058670007 0.08582572
0.28815556 0.016325716 0.011047333 -0.20432235 0.13200243 0.007363168 0.060937136 -0.026791196
0.09466288 0.00026383062 0.003009841 -0.2687451 -0.083919674 -0.16311117 0.162918 -0.013189357
-0.10517846 0.20415166 0.009628093 0.21964969 0.06941684 0.12535766 0.1476105 -0.073413156

fc1.bias f4 [128]
00000000: d37c ea3d 6e64 e43d b149 4a3e 52e1 253e
00000010: f8f9 2b3d 2a14 7e3e 52b8 113d 7e69 a43d
00000020: eaf5 063e 760f 55bd b2e5 72be 9f90 8e3d
00000030: 1083 eebc 085f d53d 8d7f b23d b910 2b3e
00000040: beba 14be 7580 c13d f02b 893e c3c4 56be
00000050: bf71 0bbe 54b7 a1bc f31b 82bd 3fbe 31bd
00000060: 57a5 333e 8173 d03d 7dac 753e 5848 e33d
00000070: ddcf 9d3e cf27 cabd 7266 793e 187d 313e
00000080: 3320 08be 5487 393e 7506 6f3e 225b 16be
00000090: 7d03 6c3e d4d2 863e 5576 41bd 76c4 b1bb
000000a0: d104 e43d 0adf 253e d294 253d 657b 8a3e
000000b0: 646e 1d3d f8da 4d3e 3beb 49bd 6c6d 443e
000000c0: b06a 113e 2660 fc3d 70e8 4d3d cd7b 783d
000000d0: ce47 003d 27ce 203e f78b 20be c079 48be
000000e0: 4b95 403e 7b69 d9bd eede 5a3b 7b5d 153e
000000f0: 715a b03d 3669 7c3e 3cdb 2dbe 3ad8 b73d
00000100: f1a9 3d3e cdb5 84bd c762 9ebd 0373 493e
00000110: db4b 4cbd 97ff fbbd 4b2e 993c 8577 e0bd
00000120: ead4 343e 6934 043d 26c6 6a3c 1610 ad3e
00000130: d9b2 6b3d b38e 083d 6f6f a03e b0fb d5bd
00000140: f865 9f3d 8c06 133e c3dc bebd 2124 993e
00000150: 8472 9c3c 8ab9 2c3e ca67 973d c7b0 a43c
00000160: f883 90be 1a63 1a3e 9438 ab3e fe0b 543e
00000170: aabf e63d b223 323c 8688 54bd 7948 5c3e
00000180: 7c35 0bbe be0e 023e 3ba6 1bbe 3c96 3ebd
00000190: 97f7 fdbd a1d6 223d 9a34 0d3e bad8 eabd
000001a0: 75a4 7f3d 7b1a 483d c4c6 983d da4a d23d
000001b0: a028 bf3d 216b f53d c379 3bbe ce5c aa3d
000001c0: f799 413d 37cd c43d 68a0 7e3d f4f9 21be
000001d0: ce32 c13d 082a 92bd e630 e7bd f26f 40bc
000001e0: 06eb efbd d2c4 673e d705 fcbd e25b dd3d
000001f0: 204a 493e 17aa cdbd 2223 a83e c439 1dbe
0.114495896 0.11151968 0.19754674 0.16199234 0.041986436 0.2481238 0.035576172 0.080279335
0.13179746 -0.052016698 -0.23720434 0.06961178 -0.02911523 0.104185164 0.08715735 0.16705598
-0.14524361 0.09448329 0.26791334 -0.20973496 -0.1361761 -0.019740738 -0.06352987 -0.043394323
0.17543541 0.101782806 0.2399158 0.11097783 0.3082265 -0.09870874 0.24355486 0.17332876
-0.13293533 0.1811803 0.23342307 -0.14683202 0.23048206 0.26332724 -0.04723199 -0.0054250313
0.11133731 0.16198364 0.04042513 0.27047268 0.038435355 0.20103061 -0.0492966 0.19182366
0.14200854 0.12323026 0.050270498 0.06066494 0.03131848 0.15703641 -0.15678392 -0.19577694
0.18806951 -0.10615822 0.0033397037 0.14586441 0.08611 0.2464951 -0.16978163 0.08976789
0.18521859 -0.06479988 -0.07733684 0.1967278 -0.04987703 -0.12304609 0.018698832 -0.109602965
0.17659345 0.032276545 0.014329469 0.33801335 0.05754361 0.033339214 0.31335017 -0.10448396
0.07783121 0.14357966 -0.09319451 0.29910377 0.019097574 0.16867653 0.07392843 0.020103825
-0.28225684 0.15076867 0.33441603 0.207077 0.11267026 0.010872768 -0.05188801 0.21512021
-0.13594621 0.12700936 -0.1520013 -0.046529993 -0.1240074 0.039755467 0.13789597 -0.114671186
0.062412698 0.04885338 0.074597865 0.10268183 0.093339205 0.11983324 -0.18308167 0.08318482
0.047265973 0.09609454 0.062164694 -0.15818006 0.09433518 -0.07136923 -0.112886235 -0.01174544
-0.11714749 0.22633675 -0.12305801 0.10808541 0.19657183 -0.10042208 0.32839304 -0.15354067

fc2.weight f4 [9, 128]
00000000: c441 01be 488f 993c d78d 0fbc 5acc 073e
00000010: 0a8d e1bd 136a 84be a584 a8bd 6856 ab3d
00000020: e40e c7bd 57c3 ddbe 2886 843c c75c 5e3d
00000030: c7f2 b63c 9c15 95be 858d 59be 4699 babe
00000040: 8e73 db3d b963 c23d 2c53 97bd 8784 833d
00000050: 303b 87bd 9b3c bd3d 2a2c e03d 99ea 133a
00000060: 6d88 6cbd 841e 2f3d d70e d5bd 73bc 82bc
00000070: 657d babe 2ed0 0bbb 6a00 0fbe 3669 803b
00000080: 46b0 cd3d dd62 493b b376 07be fb4d 67bd
00000090: 85e2 aabc 32cd b2be 816e 63bd e864 b6bd
000000a0: b9d8 ec3d 33b5 593c 20a1 95bd d4a2 c1be
000000b0: d2cf b03d 7b58 85bd 53ee 763d 84b7 18be
000000c0: e370 83be 97dc c2bc 2903 4ebd 046c 7f3d
000000d0: 9275 fd3d 3038 22bd f1fd 833d fd90 27be
000000e0: 9d6c 9fbd 0789 d9bd b388 4a3d 98a5 3c3d
000000f0: ec0c 963d 37eb c1bc ea8d 7b3c cfb1 8f3d
00000100: a513 b3be aa53 3d3d c5f1 073d e5b0 3c3d
00000110: 2944 cd3d ebef 67bd eb4b 3ebd 3457 dc3c
00000120: 6e2c 193d ded1 153d e158 843c feb2 203d
00000130: 4aca d5bd 7da6 a83d c0b2 af3b 7158 003e
00000140: eb63 20be 7e9f ed3d dae3 93bd 81bd 093e
00000150: 0290 933b a7a1 8cbd 421c e43d d6b6 8cba
00000160: b165 cab9 8734 acbe cc4a cbbe a524 be3b
00000170: 0a7c 87bd 13d3 453d fc0c 943d d820 373d
00000180: 21c7 7ebd 26b9 84bd ea84 fcbb d1f6 39be
00000190: b9f4 473d a3b7 a5bd f5e8 c7bb c079 2ebd
000001a0: a126 013e 6530 01be 73f9 a9be e238 65be
000001b0: 6ced 123e aac7 24bc ccad 503d 3184 033e
000001c0: cbba 99be 607c 60bd e8a2 37bd 3f26 7f3d
000001d0: c347 883d 1ab6 aabc 7cb6 c33b 9c68 7a3c
000001e0: 96dd b5bd 367e 213c 3017 c1bd e579 a5bd
000001f0: 9e14 3ebd 76b9 743d d8af ac3d c9b0 8d3d
00000200: 26ed 9f3d 7f00 c33d dbf2 6cbe dd7a 063e
00000210: 5218 92be 4c8e 853d c521 10be 3ba9 973c
00000220: 2746 993c c144 64bd 2dd6 2d3d a145 92bc
00000230: be12 203d 8177 fabe 7f76 a1bd 78e4 09bd
00000240: 74ce e63d 3cfa 19bd 12f9 053e e2b6 21bc
00000250: 118e ccbb 8346 a03d 0ba8 d1bc 6b47 ec3c
00000260: 77c7 a13b 55fa 3f3d e950 5ebc 4429 efbd
00000270: 0671 cdbe fdbf c2bd a5e9 c5be 5ac3 58be
00000280: 68dc 11be b1ff ecbc 990d 8fbe bc00 c83c
00000290: 04b6 f6bd 979f 5fbe 7382 eb3d 0540 053e
000002a0: 069c 233d e662 9e3d ff0e 4d3c fc9e 57be
000002b0: d535 15ba acce aebe 77bb a63d 73bc d9bd
000002c0: 5f16 aebd a401 8bbc b0ff e63d 0862 843d
000002d0: 540b 973d 1e27 173e d1d7 af3d 048b 34bd
000002e0: b65f a03d 76cf b4bd 6e4e cf3c cf91 36bc
000002f0: b080 e03d 0e9a eb3d 61a0 e3bd 5d23 78bc
00000300: d64b fcbd 5f8c 9fbc 0f74 ebbd 94e8 013e
00000310: 3bb8 f73a 5555 003c db3a a83d a8ed 463d
00000320: a542 6e3c 27ae 29bd 7718 7b3d a26e e8bb
00000330: b3d7 a8bb 31c8 1dbd cbed c03d 3990 c8bd
00000340: 95c2 08be 9d96 3a3d d40e a53d 24ab 223e
00000350: b4ea 7dbc 2985 a2be df7a 6bbd ebee f33d
00000360: f93c 123d 1006 92be 9521 90be 8ce5 993d
00000370: f696 a3ba 97ed 3a3d 5de0 eb3d 1b02 02bd
00000380: 0b2e 2e3d 18a7 42bd 42b4 8abd 9ab7 b8bd
00000390: 7928 9f3d bf09 62be ea55 773c 88fa ea3d
000003a0: d755 033c 60ba 0fbe 7b5c 35be f86d 6d3b
000003b0: 3498 643d f0dc 3f3d beee c83d 43e0 ed3d
000003c0: 22be 47be a741 d63d 6ca3 d4bd 784e bfbc
000003d0: bb5f b1bd db03 e33d 7805 933d 358d 713d
000003e0: d8f7 95bd 58d1 9ebc 5e96 a33d 3d3d 3a3d
000003f0: 0366 83be 0ee5 9e3c 7c43 d13d e2ed df3d
-0.12622744 0.01874508 -0.008761845 0.13261548 -0.11013229 -0.25862178 -0.08228425 0.0836609
-0.09719637 -0.43313095 0.016177252 0.054287698 0.022332562 -0.2911805 -0.21245392 -0.36445063
0.107154 0.09491677 -0.07388911 0.06421762 -0.06603086 0.09240075 0.109459236 0.0005642563
-0.057747293 0.04275371 -0.10403221 -0.015959 -0.36423793 -0.0021333802 -0.13965002 0.003918792
0.10043387 0.0030729093 -0.13228874 -0.056470852 -0.020859966 -0.34922177 -0.055525307 -0.08905965
0.11564774 0.01328783 -0.07306123 -0.3781954 0.086333886 -0.06511017 0.060285877 -0.14913756
-0.25672063 -0.023786826 -0.050295983 0.06235887 0.123759404 -0.039604366 0.0644492 -0.16363902
-0.07784388 -0.10621839 0.049446773 0.04605636 0.073266834 -0.02367173 0.015353659 0.07016336
-0.34975925 0.046222366 0.033189554 0.046067137 0.10022766 -0.056625288 -0.04645912 0.02689705
0.037395887 0.036577098 0.016155662 0.0392332 -0.10438974 0.0823488 0.005361885 0.12533738
-0.15663116 0.11602686 -0.072211936 0.13451196 0.004503251 -0.0686677 0.11138202 -0.0010735642
-0.00038604208 -0.33633825 -0.39705503 0.005802708 -0.066154554 0.048297 0.07229039 0.044709057
-0.062201623 -0.06480627 -0.0077062743 -0.18160559 0.04881737 -0.080916665 -0.0061007687 -0.04259658
0.12612392 -0.12616117 -0.33198127 -0.2238498 0.14348382 -0.010057369 0.050946996 0.12843396
-0.30025324 -0.054806113 -0.044833094 0.062292334 0.066543125 -0.020838786 0.0059726816 0.01528373
-0.08880155 0.009856751 -0.09428251 -0.0807989 -0.04640638 0.05974718 0.08431977 0.06918485
0.07808904 0.09521579 -0.23139517 0.13132806 -0.2853418 0.065212816 -0.14075382 0.018513313
0.018710209 -0.05572963 0.042440582 -0.017855467 0.039080374 -0.489193 -0.078839295 -0.03366515
0.112698466 -0.037592158 0.13083294 -0.009870263 -0.0062425216 0.07825949 -0.025592824 0.028842648
0.004937108 0.046869595 -0.013569095 -0.11677793 -0.40125293 -0.09509275 -0.3865482 -0.2116827
-0.14244235 -0.028930517 -0.27940062 0.024414413 -0.120464355 -0.21838222 0.114994906 0.13012703
0.039943717 0.07733707 0.012515782 -0.21056741 -0.00056919205 -0.34142053 0.08141225 -0.10631647
-0.08500361 -0.016968556 0.11279237 0.064640105 0.073752075 0.14761016 0.085860856 -0.044077888
0.078307554 -0.088286325 0.025305953 -0.011143162 0.10962045 0.11503993 -0.11114574 -0.01514515
-0.12319152 -0.019476114 -0.11496746 0.12686378 0.001889951 0.007832845 0.08214351 0.04856649
0.0145422565 -0.04142585 0.06130263 -0.0070932666 -0.0051526665 -0.038520996 0.094203554 -0.09793133
-0.13355477 0.045553792 0.08059469 0.15885597 -0.015497852 -0.31742218 -0.057490226 0.11910804
0.03570268 -0.2852025 -0.2815062 0.07514486 -0.0012480903 0.04563674 0.11517403 -0.03174029
0.04252438 -0.047522634 -0.06772663 -0.09019394 0.077713914 -0.2207403 0.015096167 0.11473566
0.008016071 -0.1403594 -0.1771106 0.0036228877 0.055809215 0.04684156 0.098111615 0.1161504
-0.19506124 0.10461741 -0.10382733 -0.023352847 -0.08660837 0.1108472 0.071787775 0.058972556
-0.07322663 -0.019386932 0.07987665 0.045468558 -0.25663766 0.019396331 0.1021795 0.109340444

fc2.bias f4 [9]
00000000: db06 f3bd 617e b2bd eed4 41be a2ef a7bc
00000010: e2c4 8b3e 93e3 bebb aa48 1f3d 3841 c7bd
00000020: 3fd0 1bbd
-0.11866542 -0.08715511 -0.18928882 -0.020500008 0.27298647 -0.005825469 0.038887657 -0.09729236
-0.038040396
