runs/3_agents_50000_episodes_graph/models/actor_gnn.pth (torch, 9172 bytes, 10 tensors)

layer.w1.weight f4 [32, 9]
0	0x3e150c90	0.14555573
1	0xbe1ecade	-0.15507075
2	0xbcbb3dc5	-0.022856602
3	0xbdb5f9b5	-0.088855185
4	0xbee0f645	-0.4393789
5	0xbdebc940	-0.11512995
6	0xbdd21ab0	-0.102589965
7	0xbe6eee0b	-0.23332994
8	0xbd370ba8	-0.04468885
9	0xbe9e325e	-0.30897802
10	0xbe32ecde	-0.1747317
11	0x3e0ea1b8	0.13928878
12	0xbe97a721	-0.29619697
13	0xbe16e82d	-0.14737006
14	0x3eac8fd3	0.3370348
15	0xbef44d15	-0.4771506
16	0xbe83105f	-0.25598428
17	0xbc30f8e0	-0.010801524
18	0xbd9999c0	-0.075000286
19	0x3d57f808	0.052726775
20	0x3e6e9d31	0.23302151
21	0x3e36d8ef	0.17856191
22	0x3e6320de	0.22180507
23	0xbeef208c	-0.4670452
24	0xbe1bb554	-0.1520589
25	0xbd7a8258	-0.06115946
26	0xbe9ca5f2	-0.30595356
27	0xbbb68500	-0.005570054
28	0xbe88c28c	-0.26710927
29	0x3ea14bdf	0.31503198
30	0xbdb5b97a	-0.088732675
31	0xbe08a96e	-0.13345882
32	0x3ec2d083	0.38049707
33	0xbc4ca945	-0.012491529
34	0xbe9ba4ce	-0.30399173
35	0xbe8801bf	-0.26563832
36	0xbe9a638e	-0.3015408
37	0xbd27df88	-0.04098466
38	0xbcd169ed	-0.025563205
39	0xbdc96425	-0.09833554
40	0x3ed83281	0.4222603
41	0xbee36e8b	-0.44420275
42	0xbe2430fd	-0.16034313
43	0xbea16f66	-0.31530303
44	0x3db0ad00	0.08626747
45	0x3e768d92	0.24077442
46	0x3e8381c5	0.25684944
47	0xbdd7799d	-0.10521243
48	0xbd676da5	-0.05650105
49	0x3ec36891	0.38165715
50	0x3eb4578d	0.35223046
51	0x3e38b483	0.1803761
52	0xbe0bc83b	-0.136506
53	0x3e79fc6a	0.24412695
54	0xbe17e97b	-0.1483516
55	0x3e889d43	0.2668248
56	0x3e30dc4a	0.17271534
57	0x3e2a970d	0.16659184
58	0x3d44b175	0.0480208
59	0x3efe90ff	0.49719998
60	0x3a8a7a7e	0.001056507
61	0xbdda7e0c	-0.10668573
62	0x3cae4cf0	0.021276921
63	0x3d1936f8	0.037405938
64	0xbe11a5c6	-0.14223394
65	0xbe87f28b	-0.26552233
66	0xbe2e1eb4	-0.170039
67	0xbd1d562f	-0.03841227
68	0xbedacbc7	-0.42733595
69	0x3e81bf89	0.25341442
70	0x3ea558f1	0.3229442
71	0xbe0d985e	-0.13827655
72	0x3e65205a	0.22375622
73	0x3e32fe9e	0.17479941
74	0x3d398b64	0.04529895
75	0xbe9b89ff	-0.3037872
76	0x3f079a0c	0.5296943
77	0x3e40975a	0.18807736
78	0x3d8fb2ad	0.070165016
79	0x3e8db661	0.27678207
80	0xbe70a010	-0.23498559
81	0x3e869259	0.2628353
82	0xbe21b73e	-0.15792558
83	0x3e816217	0.2527015
84	0x3d665a0c	0.05623822
85	0xbef05791	-0.46941808
86	0x3eafc2c9	0.34328297
87	0xbd7c9e10	-0.061674178
88	0x3e96b719	0.29436567
89	0xbe883944	-0.2660619
90	0x3ea34f45	0.31896415
91	0x3e015148	0.12628663
92	0xbe24a8c9	-0.16080011
93	0xbdecb7b7	-0.11558478
94	0xbe207912	-0.15671185
95	0xbe95556a	-0.29166728
96	0xbeb3a6e6	-0.3508827
97	0x3e7e0efa	0.248104
98	0x3e40695a	0.18790188
99	0x3e145776	0.14486489
100	0xbdb65ec0	-0.08904791
101	0xbe9619d8	-0.29316592
102	0x3e842d04	0.25815594
103	0xbe9c7cb9	-0.30563906
104	0x3cc6dfc2	0.024276618
105	0x3c4e3d03	0.0125877885
106	0x3d6cf898	0.057854265
107	0x3d91e4f0	0.071237445
108	0x3e1f2a02	0.15543368
109	0xbe42f30e	-0.1903803
110	0xbe2d6eaf	-0.16936754
111	0xbe5a955c	-0.21346039
112	0x3e9b3bb2	0.3031898
113	0x3b3b6d11	0.0028598944
114	0x3dd20b4e	0.102560624
115	0xbe7e88eb	-0.24856918
116	0xbe7e12d3	-0.24811868
117	0xbdfe4d5c	-0.12417099
118	0xbe006a56	-0.12540564
119	0x3d9ddd33	0.07708206
120	0x3d6773b5	0.05650683
121	0xbf083a4c	-0.53213954
122	0x3dc92dfe	0.098232254
123	0x3e864369	0.26223305
124	0xbe8509c3	-0.2598401
125	0xbdad4a36	-0.0846142
126	0xbea01520	-0.31266117
127	0x3d63d708	0.05562499
128	0xbe38f6a5	-0.18062837
129	0xbe8527b3	-0.2600685
130	0x3eaac8c0	0.33356285
131	0x3e4a50d6	0.19757399
132	0xbec8bee5	-0.3920814
133	0xbea695ef	-0.32536265
134	0x3e845a31	0.2585006
135	0xbe0ac0ce	-0.13550112
136	0xbe81c948	-0.25348878
137	0x3e0e9cd8	0.13927019
138	0x3e41c379	0.18922223
139	0x3f1261eb	0.5718066
140	0x3dff54f9	0.12467379
141	0xbaf20516	-0.001846465
142	0x3d44ec58	0.048076957
143	0xbe7cba68	-0.24680483
144	0x3d985da0	0.074397326
145	0x3b832240	0.0040018857
146	0xbea41aea	-0.32051784
147	0xbe83fa76	-0.25777024
148	0xbd93b274	-0.072117716
149	0xbecbb0d8	-0.3978336
150	0x3e43ebf3	0.19132976
151	0x3e69fd0e	0.22850439
152	0xbe96a89c	-0.29425514
153	0xbe96206b	-0.29321608
154	0xbe99e072	-0.3005405
155	0xbe34caa2	-0.17655423
156	0x3e1ed57b	0.15511124
157	0x3ea89907	0.3292925
158	0x3e7eb07b	0.2487201
159	0x3ea8342c	0.32852304
160	0x3d4b3898	0.04961452
161	0x3e5547be	0.20828149
162	0xbcc78690	-0.024356157
163	0x3e92c117	0.2866294
164	0xbe8dfa57	-0.27730057
165	0xbd4134ac	-0.047169372
166	0x3e2b613d	0.16736312
167	0xbef9635f	-0.48708627
168	0x3ea50faf	0.32238528
169	0xbe371500	-0.17879105
170	0x3dd28c10	0.10280621
171	0x3e68756a	0.2270104
172	0x3e55264a	0.20815387
173	0x3e56abe1	0.20964004
174	0xbdd1adb7	-0.102382116
175	0x3e866ff0	0.26257277
176	0x3f0b5a63	0.54434794
177	0x3da357e2	0.07975747
178	0x3de250ac	0.11050543
179	0xbdaa39ac	-0.08311781
180	0xbe8c09be	-0.27351183
181	0xbe8bec63	-0.27328786
182	0x3dbd7e24	0.09252575
183	0x3e78faa5	0.24314363
184	0xbdae4de6	-0.08510952
185	0xbe89cc95	-0.26913896
186	0xbe0b1a9d	-0.13584371
187	0xbdd6be9c	-0.104855746
188	0x3dcd8210	0.10034573
189	0x3e74d38a	0.23908821
190	0xbcd27880	-0.025692225
191	0x3e11b72d	0.14230032
192	0x3dba4b4d	0.09096394
193	0xbcfb87ab	-0.03070434
194	0xbec82e23	-0.390977
195	0x3dd7b4b8	0.10532516
196	0x3e2ca2f6	0.1685904
197	0x3ea08031	0.31347802
198	0xbea819ff	-0.32832333
199	0xbe38994b	-0.18027227
200	0x3d40551e	0.046956174
201	0xbce1bb24	-0.027555056
202	0xbece0247	-0.40236112
203	0x3eabb1d6	0.33534116
204	0x3da8b084	0.08236793
205	0x3ea95071	0.33069184
206	0xbe9c7a20	-0.30561924
207	0xbe59fd0b	-0.21287934
208	0xbd285358	-0.041095108
209	0x3e101e1d	0.14073987
210	0xbe8727b5	-0.26397482
211	0x3f05ea1f	0.52310365
212	0x3e1bf4b5	0.15230067
213	0x3e380f2c	0.17974538
214	0x3d681b18	0.056666464
215	0x3e3bd432	0.18342665
216	0x3e84be1d	0.25926295
217	0x3d7b40c0	0.061341047
218	0xbe7c6824	-0.24649101
219	0x3da3145c	0.079628676
220	0x3d81c3bd	0.06336162
221	0x3ec8746c	0.39151323
222	0x3cd3a50c	0.025835536
223	0x3e507962	0.20358804
224	0xbd7a2aa0	-0.061075807
225	0x3d0921e8	0.0334796
226	0xbde19716	-0.110151455
227	0x3e45bcad	0.19310255
228	0x3e4a1e8f	0.1973822
229	0x3ebb4263	0.36574087
230	0xbee8bfd2	-0.45458847
231	0x3e95fe17	0.29295418
232	0xbe5a9260	-0.213449
233	0x3e5db7de	0.21652171
234	0x3cd5c690	0.026095659
235	0x3e5b9602	0.21443942
236	0x3dde44cb	0.10852965
237	0xbe75ece8	-0.24016154
238	0xbef7cfc2	-0.48400694
239	0xbe9e5f6e	-0.30932182
240	0x3db31128	0.08743507
241	0xbe596a8e	-0.21232054
242	0xbdeecafc	-0.1165981
243	0xbe904b18	-0.28182292
244	0xbd4fd2a0	-0.050737977
245	0xbcb8a3cb	-0.02253904
246	0xbe356cb9	-0.17717256
247	0xbeb4053f	-0.35160252
248	0xbe809015	-0.25109926
249	0xbe8f5a83	-0.27998742
250	0x3e409eba	0.1881055
251	0x3ea12da3	0.3148013
252	0xbe226cf0	-0.15861869
253	0xbe02c790	-0.1277144
254	0x3e3b4c21	0.1829076
255	0xbe096e57	-0.13420998

layer.w1.bias f4 [32]
0	0x3e11179d	0.14169164
1	0xbe4f270c	-0.20229739
2	0x3e4a4f6a	0.19756857
3	0x3da3a2c8	0.079900324
4	0x3e126dd7	0.14299713
5	0xbdcdbe0f	-0.100460164
6	0xbe7ce7d4	-0.2469781
7	0x3e406a47	0.18790542
8	0xbdf3e049	-0.119080134
9	0xbe7897d3	-0.24276666
10	0xbe5322bc	-0.20618719
11	0x3d1f3f5a	0.038878776
12	0x3e3d1a74	0.18467122
13	0x3e2325d3	0.15932398
14	0xbe56b5b5	-0.20967753
15	0x3ec3e37a	0.38259488
16	0xbdbd35d8	-0.092387855
17	0xbe101e3c	-0.14074033
18	0xbe7310a1	-0.23736812
19	0xbe3e82c0	-0.18604565
20	0x3eb346dd	0.35015002
21	0xbeed09f7	-0.46296665
22	0x3e9dd601	0.30827335
23	0x3e5a3a4e	0.21311304
24	0xbea9fae3	-0.33199224
25	0xbe6b74b4	-0.22993737
26	0xbdfd8f58	-0.12380856
27	0x3c4368f0	0.0119268745
28	0xbe5025a6	-0.20326862
29	0xbd848b21	-0.06471849
30	0x3df6fb50	0.12059653
31	0x3db6b3c5	0.08921007

layer.w2.weight f4 [32, 9]
0	0xbecb7226	-0.39735526
1	0x3d9851b6	0.0743746
2	0xbc56e023	-0.013114962
3	0x3e6f8a00	0.23392487
4	0x3e2af5ef	0.16695379
5	0xbc7efabc	-0.015562709
6	0x3e3b4de8	0.18291438
7	0x3e58e6db	0.21181814
8	0x3e4ac8dc	0.19803184
9	0x3d42dcfc	0.04757403
10	0x3e2188fc	0.15774912
11	0x3e8d2550	0.2756753
12	0xbe08a456	-0.13343939
13	0x3e1b460b	0.15163438
14	0xbe606255	-0.2191251
15	0x3e1307ea	0.14358488
16	0xbf08a710	-0.5337992
17	0x3e3c2084	0.18371779
18	0x3e454f12	0.19268444
19	0xbe21eac3	-0.1581221
20	0xbe932e1a	-0.2874611
21	0xbe3dcbc1	-0.18534757
22	0xbd586ec0	-0.052839994
23	0xbe6e8b4d	-0.23295327
24	0xbdd53d19	-0.10412044
25	0xbe6251a0	-0.2210145
26	0x3e28f03f	0.16497897
27	0xbe3f1cd2	-0.18663338
28	0xbdb239eb	-0.08702453
29	0x3d83cb0d	0.06435213
30	0x3e56e21c	0.20984691
31	0x3ebb0781	0.36529163
32	0xbdd70b3f	-0.10500192
33	0x3e8ba0be	0.27271074
34	0xbe418373	-0.188978
35	0xbdff40d6	-0.12463538
36	0x3ed2adae	0.41148132
37	0xbed246d1	-0.41069654
38	0xbeb28e8b	-0.34874377
39	0xbd9f9d68	-0.07793695
40	0x3eeb2243	0.45924577
41	0xbe578ba1	-0.21049358
42	0x3e0b5d21	0.13609745
43	0xbe0f49f3	-0.13993053
44	0xbe9d670a	-0.30742675
45	0x3ed0581b	0.4069222
46	0x3e1c5470	0.15266585
47	0xbe4a86d5	-0.19777997
48	0xbe4036df	-0.18770932
49	0xbe22641d	-0.15858503
50	0x3e6fbb6e	0.23411343
51	0x3e837a3d	0.25679198
52	0xbe80ca0e	-0.25154155
53	0xbe8a77b2	-0.27044445
54	0xbd58454a	-0.052800454
55	0x3e81d11b	0.25354847
56	0xbe8c3da1	-0.2739077
57	0x3dcd32c9	0.10019452
58	0x3e85d2a2	0.26137263
59	0x3e5552cf	0.2083237
60	0x3d4d7b5b	0.05016647
61	0x3e8c037c	0.27346408
62	0x3e29e506	0.16591272
63	0xbe549696	-0.20760569
64	0x3d08fc91	0.03344399
65	0xbd954177	-0.07287877
66	0x3cc85e04	0.024458893
67	0xbed7e45f	-0.4216642
68	0xbec987bd	-0.39361373
69	0xbe8b0e41	-0.27159312
70	0x3e00ca06	0.12577066
71	0xbd238eb5	-0.039931018
72	0x3ec51d07	0.3849871
73	0x3b9282c4	0.004471155
74	0xbe90fc17	-0.2831733
75	0x3e690fac	0.22759885
76	0xbe447d17	-0.19188343
77	0x3d87c498	0.06629294
78	0xbe795fe1	-0.24352981
79	0xbe908e7c	-0.28233707
80	0xbe00b43f	-0.12568758
81	0xbc1abe1c	-0.00944474
82	0x3ea24db6	0.31699914
83	0x3e7f34ef	0.24922536
84	0xbe8c02ea	-0.27345973
85	0xbe6953d1	-0.2278588
86	0x3e99240c	0.29910314
87	0x3e2f10be	0.1709623
88	0x3d0b36b8	0.03398773
89	0x3e218ee3	0.15777163
90	0x3d01c82e	0.031685047
91	0xbdf2761d	-0.118389346
92	0x3e117bfb	0.14207451
93	0x3d757e62	0.05993498
94	0xbea07f7d	-0.31347266
95	0xbee10bea	-0.43954402
96	0x3e90fa25	0.28315845
97	0xbe238683	-0.15969281
98	0xbdc5e6aa	-0.09663136
99	0xbf0becbb	-0.546581
100	0x3e734a0c	0.23758715
101	0x3e91ab13	0.28450832
102	0x3e46efc2	0.19427398
103	0xbecc6288	-0.39918923
104	0xbd20110d	-0.03907876
105	0xbe2a4a1a	-0.1662983
106	0xbe1d3480	-0.15352058
107	0xbe32b2f3	-0.17451076
108	0x3c21101b	0.0098305
109	0x3e5182d4	0.20460063
110	0xbd8c14de	-0.068399176
111	0x3cf33aca	0.029691119
112	0x3de4618b	0.11151417
113	0xbe82e91e	-0.2556848
114	0xbe3a2a4f	-0.18180202
115	0x3dfb9f58	0.12286252
116	0xbe6c6f8a	-0.23089424
117	0xbe47e732	-0.19521788
118	0xbda55167	-0.08072167
119	0xbe4db0fa	-0.20087042
120	0xbe012cda	-0.12614766
121	0xbe132077	-0.14367853
122	0xbe222d22	-0.1583753
123	0xbe0c96ff	-0.13729475
124	0xbe223176	-0.1583918
125	0xbe0fafcc	-0.14031905
126	0x3eff201b	0.49829182
127	0x3ef37ccd	0.47556153
128	0x3e2e27f7	0.17007433
129	0xbe0bf836	-0.13668904
130	0x3dc4b9b4	0.096057326
131	0x3e986446	0.29764003
132	0xbd12ae91	-0.03581101
133	0xbe951e5d	-0.29124728
134	0xbdc45c06	-0.095878646
135	0x3eb536bb	0.3539332
136	0x3e163dff	0.14672087
137	0x3e136225	0.14392908
138	0xbe076ba0	-0.1322465
139	0x3de790b2	0.11306895
140	0x3d116eb2	0.035505958
141	0xbe6f3bc6	-0.23362646
142	0x3e655b96	0.22398219
143	0x3dcbe304	0.09955409
144	0x3e0ed373	0.13947849
145	0xbdf33c34	-0.11876717
146	0xbe0017ef	-0.1250913
147	0xbbf6962a	-0.007525225
148	0xbe7970a6	-0.24359378
149	0xbe97bbf7	-0.29635593
150	0xbd94f2ff	-0.0727291
151	0x3c94df9c	0.018173032
152	0x3c9c7224	0.019097395
153	0xbe39696b	-0.1810662
154	0x3ed6a5c6	0.4192335
155	0xbe5232ce	-0.20527193
156	0x3df63660	0.1202209
157	0x3d996f50	0.07491934
158	0x3ea3b785	0.31975952
159	0xbe806aad	-0.25081387
160	0x3e6447f8	0.22293079
161	0x3ea5c5b8	0.3237741
162	0x3e8d3fa0	0.27587605
163	0xbeb67e03	-0.35643014
164	0xbeab2911	-0.3342977
165	0xbe496ca3	-0.19670348
166	0xbc2227d3	-0.00989719
167	0xbed3a9e2	-0.41340548
168	0x3e7a4272	0.2443941
169	0x3ecf638f	0.40505645
170	0x3e852258	0.26002765
171	0x3e81cbe9	0.25350884
172	0x3e77a1f3	0.24182872
173	0xbe2280b0	-0.15869403
174	0x3df9f8cb	0.122056566
175	0x3ebe0883	0.3711587
176	0x3da072e6	0.07834415
177	0x3dd08750	0.10182059
178	0xbeaed220	-0.34144688
179	0x3e0e10da	0.13873616
180	0xbe35279e	-0.17690894
181	0xbdd1bc24	-0.10240963
182	0xbdfed6a3	-0.124432825
183	0x3e7891d5	0.2427438
184	0x3e51e76d	0.20498438
185	0xbe8a964e	-0.27067798
186	0x3e840474	0.25784647
187	0xbe81d9d9	-0.25361517
188	0x3e810196	0.25196522
189	0x3e3b1b6c	0.1827218
190	0x3df0e242	0.11761905
191	0xbe8f649d	-0.2800645
192	0x3e91cd29	0.28476837
193	0x3d9dea50	0.07710707
194	0x3d1a44f9	0.037663434
195	0x3e8574d3	0.26065692
196	0xbed8d481	-0.42349628
197	0x3ea13b5d	0.31490603
198	0xbef42572	-0.47684819
199	0xbe188091	-0.14892794
200	0x3ddcb978	0.10777563
201	0x3eb8bba5	0.3608066
202	0xbd97b70a	-0.07407959
203	0x3c67c913	0.014147061
204	0xbe5f5b67	-0.21812211
205	0x3e60f22a	0.21967378
206	0xbe8d7a93	-0.2763258
207	0xbe0e1934	-0.13876802
208	0x3e809133	0.25110778
209	0xbe9fd34e	-0.312159
210	0x3e934db7	0.2877023
211	0xbda91868	-0.08256608
212	0xbc287c47	-0.010283536
213	0x3e33c561	0.17555763
214	0x3e481206	0.19538125
215	0xbe84ef7f	-0.2596397
216	0x3d1b223f	0.037874456
217	0x3f037c85	0.51361877
218	0xbe6f5d5c	-0.23375458
219	0xbdf432dd	-0.11923764
220	0xbe1ee0a5	-0.15515383
221	0x3eb0612f	0.34449145
222	0xbe1cc267	-0.15308534
223	0xbe8da110	-0.27661943
224	0x3d43e572	0.047826238
225	0x3e48a272	0.19593218
226	0xbe615039	-0.22003259
227	0xbe81ff84	-0.25390255
228	0x3c101e74	0.008796323
229	0xbe92891a	-0.28620225
230	0xbeb1fb70	-0.34762144
231	0x3e907e7c	0.282215
232	0xbe35b3e8	-0.1774441
233	0xbdeebbc7	-0.116569094
234	0xbea6a140	-0.325449
235	0xbe4baadd	-0.19889398
236	0xbe72311d	-0.23651548
237	0xbe05daf5	-0.13071807
238	0xbed93422	-0.42422587
239	0x3e45e53b	0.19325726
240	0x3e979a9b	0.29610142
241	0x3b0ec93a	0.002178742
242	0x3ea3077b	0.31841645
243	0xbe90b82c	-0.28265512
244	0x3d04308b	0.032272857
245	0x3d96d626	0.07365064
246	0x3e501ab3	0.20322685
247	0xbeaa54e5	-0.33267894
248	0xbeb150ab	-0.34631857
249	0x3cd25c0f	0.025678663
250	0xbdba6c3f	-0.091026776
251	0x3e8c7ce5	0.27439037
252	0xbbe456fb	-0.0069683767
253	0x3f08d295	0.5344632
254	0x3e1980f2	0.14990595
255	0xbe6bf905	-0.23044212

layer.w2.bias f4 [32]
0	0x3e6d1d6f	0.2315576
1	0xbd79aea5	-0.06095757
2	0x3eafe6be	0.3435573
3	0x3d83af1c	0.06429884
4	0xbdf7afda	-0.12094088
5	0x3c8671e2	0.016411725
6	0x3d4d3197	0.05009612
7	0x3c2f84bc	0.010712799
8	0xbe1cf26a	-0.15326849
9	0xbceab851	-0.028652342
10	0xbec6a2b1	-0.38796
11	0x3e5e58b6	0.21713528
12	0xbe02d74c	-0.12777442
13	0x3e68fde4	0.22753102
14	0xbd0281e0	-0.03186214
15	0xbd8b254c	-0.06794223
16	0xbeae57fd	-0.34051505
17	0x3ec25a04	0.379593
18	0x3e90852a	0.28226596
19	0xbd8a46d7	-0.06751793
20	0x3e5861b6	0.21131024
21	0x3dfe2796	0.12409894
22	0xbe21f471	-0.15815903
23	0xbdfe2ade	-0.1241052
24	0xbe9618e5	-0.29315868
25	0x3e6b82fc	0.22999185
26	0x3e144a21	0.14481403
27	0xbeb6e7df	-0.3572378
28	0xbe6c3d3b	-0.23070233
29	0x3e80edf7	0.25181553
30	0x3c8b0326	0.016969275
31	0x3e3d1b26	0.18467388

layer.w3.weight f4 [32, 9]
0	0xbe5fb1c0	-0.2184515
1	0xbe8bffe2	-0.2734366
2	0xbba7e2cb	-0.0051234714
3	0xbe59c0d3	-0.21264963
4	0xbd8a9dde	-0.06768392
5	0xbe5ddfcb	-0.21667401
6	0x3e61c128	0.2204634
7	0xbe05d6e8	-0.13070261
8	0x3df7e6f0	0.12104595
9	0xbe3a2e23	-0.18181662
10	0xbe2312ae	-0.15925094
11	0x3e9b6c18	0.30355906
12	0x3e25ef5f	0.16204594
13	0xbe7bc105	-0.2458535
14	0xbd9ebea7	-0.07751208
15	0x3e98eac7	0.2986662
16	0x3aecdb00	0.0018070638
17	0x3e446fc6	0.19183263
18	0xbcb352c0	-0.021890044
19	0xbe393088	-0.1808492
20	0x3e4d7ece	0.20067903
21	0x3eab95a3	0.335126
22	0xbe7e29e3	-0.24820666
23	0x3d2e1775	0.04250284
24	0xbdf51838	-0.1196751
25	0x3e987457	0.2977626
26	0x3deb172c	0.11479029
27	0xbe6cc9ee	-0.23123905
28	0xbe4b4743	-0.19851403
29	0x3e3b8706	0.18313226
30	0xbe23394a	-0.15939823
31	0xbe694ec9	-0.2278396
32	0x3e47538d	0.19465466
33	0xbd8ef92a	-0.06981118
34	0x3e99fa17	0.30073616
35	0xbe1b6f90	-0.15179276
36	0xbe169c2e	-0.14708015
37	0x3ddcfa80	0.107899666
38	0x3e24c864	0.16092068
39	0xbe6de807	-0.23233043
40	0x3decf8f4	0.115709215
41	0x3c6123ed	0.0137414755
42	0x3d4b0a3c	0.049570307
43	0x3e89520d	0.26820412
44	0xbe5cb1d8	-0.21552217
45	0x3d9368c4	0.07197717
46	0xbe8a243a	-0.26980764
47	0x3eae81f3	0.34083518
48	0x3e86693c	0.26252162
49	0x3e17c129	0.14819779
50	0x3d107ab3	0.035273265
51	0x3e9761ea	0.2956689
52	0x3d086088	0.033295184
53	0x3e5ab5f2	0.21358469
54	0x3afdf900	0.0019376576
55	0x3e69839a	0.22804108
56	0xbdb61892	-0.08891405
57	0xbdba6704	-0.0910168
58	0x3e866b5b	0.2625378
59	0x3e6ecc2d	0.23320074
60	0x3d9bdb37	0.07610171
61	0xbe118afb	-0.14213173
62	0xbe4d55ae	-0.20052215
63	0xbca70b70	-0.020391196
64	0x3e3222a6	0.1739603
65	0xbe45dff5	-0.19323714
66	0xbc2866e1	-0.0102784345
67	0xbe48b44d	-0.1960003
68	0xbe5da951	-0.2164662
69	0x3e8776ee	0.26457924
70	0xbe81d45c	-0.2535733
71	0x3e1ed5a2	0.15511182
72	0xbd2836c0	-0.04106784
73	0x3e41b606	0.18917093
74	0xbe38e9b9	-0.18057908
75	0x3e1bfed0	0.15233922
76	0xbe754803	-0.23953252
77	0xbe87de12	-0.26536614
78	0x3bf2bd34	0.0074078087
79	0x3ea922ed	0.3303446
80	0x3e0ad430	0.13557506
81	0x3c823380	0.015893698
82	0x3d9f6bf0	0.07784259
83	0xbd6756f9	-0.056479428
84	0x3e614cff	0.22002028
85	0xbe3ca509	-0.18422331
86	0xbe02c472	-0.1277025
87	0xbec74315	-0.38918367
88	0x3c7ab280	0.015301347
89	0x3e90cebd	0.2828273
90	0x3e594eda	0.21221486
91	0xbdda573c	-0.1066117
92	0xbd90125d	-0.070347525
93	0xbde49d61	-0.1116283
94	0x3e8d4d96	0.27598256
95	0xbd5ed6cb	-0.05440406
96	0x3e79a9de	0.24381205
97	0x3e8f818b	0.2802852
98	0x3db5449c	0.08850977
99	0xbdd1c650	-0.10242903
100	0xbcb043f0	-0.02151677
101	0x3dab2dab	0.0835832
102	0x3e636e7f	0.2221012
103	0xbe4fa2a2	-0.20276883
104	0x3e5c166c	0.21492928
105	0xbe11fbd6	-0.14256224
106	0xbe556158	-0.20837915
107	0xbe95ad4b	-0.29233775
108	0x3ea172a9	0.3153279
109	0xbe6bfa50	-0.23044705
110	0xbe1976c0	-0.14986706
111	0xbdf3f55b	-0.11912032
112	0xbe1e9877	-0.15487848
113	0xbd78db34	-0.060755923
114	0x3eaeebd2	0.34164292
115	0xbe8b334f	-0.27187583
116	0x3d29bc38	0.041439265
117	0x3deace6c	0.11465153
118	0xbe90dc94	-0.28293288
119	0x3e89b3ac	0.2689489
120	0x3e33725e	0.17524096
121	0x3e56be77	0.20971094
122	0x3dcf05eb	0.10108551
123	0x3ea3a8e9	0.31964806
124	0xbe286e23	-0.16448264
125	0x3e9506df	0.29106805
126	0xbe2a58e0	-0.16635466
127	0x3e5a3446	0.21309003
128	0xbdfeb4a4	-0.12436798
129	0xbc8001ec	-0.015625916
130	0x3e41245a	0.18861523
131	0x3d76506e	0.060135297
132	0xbe5e784d	-0.21725579
133	0xbe74d5c8	-0.23909676
134	0xbdde7a26	-0.10863142
135	0x3df468e4	0.11934069
136	0xbd873040	-0.06601
137	0x3e34402f	0.17602609
138	0x3d77c4d4	0.060490444
139	0xbe36fb0c	-0.17869204
140	0x3ea3d4e9	0.31998375
141	0x3e47fc0b	0.1952974
142	0x3e9cd551	0.30631498
143	0xbe3f22c6	-0.18665609
144	0x3d5d21f8	0.053987473
145	0xbe55349e	-0.20820853
146	0xbdcafd31	-0.09911574
147	0x3e160596	0.14650568
148	0x3e8d9a22	0.27656657
149	0x3e5dc522	0.21657231
150	0x3e9e0031	0.3085952
151	0xbe99d27c	-0.300434
152	0xbc1081a0	-0.0088199675
153	0xbc910140	-0.017700791
154	0xbe5422fe	-0.20716473
155	0x3da15e94	0.078793675
156	0x3daea007	0.085266165
157	0x3e29b08c	0.16571254
158	0x3de41c9e	0.11138271
159	0xbdb416e0	-0.087934256
160	0x3e57872e	0.2104766
161	0x3d2078d8	0.039177746
162	0xbe741840	-0.23837376
163	0x3e4504b2	0.19240072
164	0xbdd264f7	-0.10273164
165	0x3ed94e40	0.42442513
166	0x3e36e14f	0.17859386
167	0x3e27a39e	0.16371009
168	0x3e1c5ef0	0.15270591
169	0x3c1c7ba0	0.009550959
170	0xbe02a1ee	-0.12757084
171	0x3e6be2a2	0.23035672
172	0x3cc48250	0.02398792
173	0xbd68985e	-0.056785934
174	0x3e98f331	0.2987304
175	0x3e15c7c2	0.14626983
176	0xbd57bac2	-0.05266834
177	0xbdd77113	-0.10519614
178	0xbd6fa838	-0.058510035
179	0x3e201b6a	0.15635458
180	0xbdc09f86	-0.09405427
181	0xbe9a6bee	-0.3016047
182	0xbe9c1616	-0.304856
183	0x3d0d28d6	0.034462772
184	0x3da27725	0.07932881
185	0x3dbc9818	0.09208697
186	0x3e8927be	0.26788133
187	0x3e0c9960	0.13730383
188	0x3ea1aec7	0.31578657
189	0x3e42ef72	0.19036654
190	0xbe424b88	-0.18974125
191	0xbe99072c	-0.29888284
192	0xbeb8378f	-0.35979888
193	0x3e2fcbae	0.17167541
194	0xbe911e62	-0.28343493
195	0xbe60ca3a	-0.21952143
196	0xbdc53550	-0.09629309
197	0x3e991db5	0.29905477
198	0xbdd18d9c	-0.10232088
199	0x3e9534ad	0.2914175
200	0xbd3728f1	-0.04471678
201	0xbeaf4bff	-0.34237668
202	0xbe108628	-0.14113677
203	0x3e3dd39b	0.18537752
204	0xbe00ba20	-0.12571001
205	0x3e78b8c2	0.2428923
206	0x3e8557f7	0.26043674
207	0x3dcf0110	0.101076245
208	0x3e1775b2	0.14790991
209	0xbec0f180	-0.3768425
210	0xbb208f8e	-0.0024499628
211	0xbcccf3a9	-0.02501853
212	0xbe6b4b52	-0.22977951
213	0xbe9b30d1	-0.3031068
214	0xbe22fe86	-0.15917405
215	0xbea54dc2	-0.32285887
216	0x3e95d159	0.29261282
217	0xbe6ffe76	-0.23436913
218	0x3d89e90e	0.06733905
219	0xbea0f327	-0.3143551
220	0x3e9294b1	0.28629068
221	0x3e762d0b	0.2404062
222	0xbdf6b3a1	-0.1204598
223	0xbe40dbc0	-0.18833828
224	0xbe129a63	-0.14316706
225	0xbe4db8ae	-0.20089981
226	0xbe70155e	-0.23445651
227	0xbddcb9e8	-0.10777646
228	0xbe677db9	-0.22606553
229	0xbe9ab076	-0.30212754
230	0x3e8807f8	0.2656858
231	0xbdf66630	-0.120312095
232	0xbe010c76	-0.1260241
233	0xbe592d26	-0.21208629
234	0xbe3e3c1b	-0.18577616
235	0x3e639eae	0.222285
236	0xbe8c4364	-0.27395165
237	0x3dceefa5	0.10104302
238	0xbdeff0ee	-0.117158756
239	0xbe4fbc37	-0.20286642
240	0x3db592dd	0.088659026
241	0x3dd97e90	0.10619843
242	0x3e81c981	0.25349048
243	0x3e5f4296	0.21802744
244	0x3d862a94	0.0655109
245	0x3d9fb187	0.077975325
246	0xbda401b3	-0.080081366
247	0x3e2d48c6	0.16922292
248	0x3dfec3ae	0.12439667
249	0xbe082b42	-0.13297752
250	0x3d8ceb5c	0.06880829
251	0x3e855fe3	0.26049718
252	0x3e83c4d1	0.25736097
253	0xbdd52edc	-0.10409328
254	0xbe1f3ce5	-0.15550573
255	0xbd3e9b24	-0.046534672

layer.w3.bias f4 [32]
0	0xbbba83c7	-0.0056919786
1	0xbead399d	-0.33833018
2	0x3e496766	0.1966835
3	0xbec32e49	-0.3812125
4	0xbe931a39	-0.28730944
5	0xbdf9b888	-0.121934
6	0x3e10e7c3	0.1415091
7	0xbd47bd14	-0.048764303
8	0x3e2107aa	0.1572558
9	0xbea26863	-0.31720266
10	0xbe00f8d6	-0.12594923
11	0x3eb53661	0.3539305
12	0x3ec6245b	0.38699612
13	0x3e0dac16	0.13835177
14	0xbd5d06b2	-0.053961463
15	0x3def3de2	0.11681725
16	0x3edc9e01	0.43089297
17	0x3e3ce48c	0.18446559
18	0x3eb9450d	0.36185494
19	0xbe1556c7	-0.14583884
20	0xbda4ec9d	-0.08052943
21	0xbef0a187	-0.46998236
22	0xbe43f201	-0.19135286
23	0x3dde5b96	0.108573124
24	0x3cf0137a	0.029306162
25	0x3d4851f5	0.048906285
26	0xbda079cf	-0.07835733
27	0x3dd8d6ce	0.10587846
28	0xbe9480be	-0.29004472
29	0x3e3524f0	0.17689872
30	0xbe767f16	-0.24071917
31	0x3e53693c	0.20645612

layer.w4.weight f4 [32, 9]
0	0x3e981f6b	0.2971147
1	0x3e4ba322	0.19886449
2	0xbe4dbc09	-0.20091261
3	0x3e7d79bb	0.24753468
4	0xbbe0106b	-0.0068378947
5	0x3e3e351a	0.18574944
6	0x3e597c2a	0.21238771
7	0xbe842b1e	-0.25814146
8	0x3b493710	0.0030702986
9	0x3e5c5bda	0.21519414
10	0xbc5dd8a1	-0.013540418
11	0xbb81b21f	-0.0039580013
12	0xbd3fb1d5	-0.046800453
13	0xbd531c2b	-0.051540535
14	0xbe63954e	-0.22224924
15	0x3e459435	0.19294818
16	0xbb9b2bd9	-0.0047354517
17	0xbcf67752	-0.030086193
18	0xbe8be1e8	-0.2732079
19	0x3e761cab	0.24034373
20	0x3cfaaf80	0.030601263
21	0x3dc782b6	0.09741728
22	0x3e85e53c	0.26151454
23	0x3e0510da	0.1299471
24	0xbe732c29	-0.23747315
25	0x3ec6edf2	0.38853413
26	0xbe37bd1a	-0.1794323
27	0xbd86e5bb	-0.06586786
28	0xbd8a8529	-0.067636795
29	0x3e823b81	0.25436023
30	0x3e9da63e	0.30790895
31	0xbcb7ec5e	-0.022451576
32	0x3e87e578	0.26542258
33	0x3df17d0a	0.117914274
34	0x3eae2643	0.34013566
35	0xbda65815	-0.08122269
36	0xbd9b417a	-0.07580848
37	0x3e6bfa61	0.2304473
38	0x3dbd9dba	0.092585996
39	0x3e50610b	0.20349519
40	0x39cb4e50	0.00038777525
41	0x3e352df1	0.17693307
42	0xbe0073d1	-0.1254418
43	0xbd8224d4	-0.06354681
44	0x3e7dc89e	0.2478356
45	0x3e33ef6f	0.17571805
46	0xbdc2fa21	-0.095203646
47	0x3dd8aaf9	0.105794854
48	0xbe918dbc	-0.28428447
49	0x3e7068f2	0.23477533
50	0xbe899d6b	-0.26877913
51	0xbd4531f7	-0.048143353
52	0x3e49c13e	0.19702622
53	0xbea0f655	-0.31437936
54	0x3d05bfe4	0.032653704
55	0x3e0189d3	0.12650232
56	0xbe786e69	-0.24260868
57	0x3e5ae0b0	0.21374774
58	0x3e80835c	0.2510022
59	0xbe5e984b	-0.21737783
60	0xbe3bdd6c	-0.18346184
61	0xbebebae6	-0.37251967
62	0x3ea54355	0.32277933
63	0x3dccca51	0.09999526
64	0x3e859c09	0.26095608
65	0x3eaaae11	0.33335927
66	0xbe8b165d	-0.271655
67	0xbe8be635	-0.27324072
68	0xbe81caf1	-0.25350145
69	0xbe47dbe7	-0.1951748
70	0xbda09346	-0.0784059
71	0xbcc972f8	-0.024590954
72	0x3e06ba4c	0.13157004
73	0x3e0c3beb	0.13694732
74	0x3e063fd6	0.13110289
75	0xbe830206	-0.2558748
76	0xbc007fa1	-0.007842929
77	0xbe138d6a	-0.14409414
78	0xbd6722aa	-0.056429543
79	0xbe98e9d2	-0.2986589
80	0xbda2ce21	-0.07949472
81	0xbd1b0424	-0.037845746
82	0xbdd40909	-0.10353286
83	0x3e991a8f	0.29903075
84	0x3ea21d18	0.31662822
85	0x3d8a1a0b	0.067432486
86	0xbe8ae2c6	-0.2712614
87	0xbe7c63ce	-0.24647447
88	0xbd5d53a4	-0.054034844
89	0x3e3ac90a	0.18240753
90	0x3d7df4c8	0.06200102
91	0xbdba9833	-0.09111061
92	0xbdb78667	-0.08961182
93	0xbe84e3ec	-0.2595514
94	0xbd3fe1ca	-0.04684619
95	0x3bc0c832	0.00588324
96	0xbe551eaf	-0.20812486
97	0x3de29781	0.11064053
98	0xbd7f3eb7	-0.06231567
99	0xbeccf363	-0.4002944
100	0x3e77a324	0.24183327
101	0xbe4c47a4	-0.19949204
102	0x3e844add	0.25838366
103	0xbd48b625	-0.04900183
104	0xbe508f2d	-0.20367117
105	0x3e820060	0.2539091
106	0x3ca4458d	0.020052696
107	0xbec30186	-0.380871
108	0x3e0cb291	0.13739993
109	0x3b83c721	0.0040215407
110	0xbe8c8903	-0.27448282
111	0x3e81a4bc	0.25320995
112	0xbd7f8456	-0.062382065
113	0x3cc4ff1c	0.024047427
114	0x3ea4a131	0.3215423
115	0xbca5d4e1	-0.02024311
116	0xbbcb25ff	-0.006199598
117	0xbe8dab23	-0.2766963
118	0xbe2f6b1b	-0.17130701
119	0xbe334b38	-0.17509162
120	0x3e0dfa77	0.13865076
121	0x3dfed19f	0.12442326
122	0x3ccd5200	0.025063515
123	0xbe9fdcc4	-0.31223118
124	0x3e824ab5	0.25447622
125	0x3d7e2075	0.062042672
126	0xbe783265	-0.24237974
127	0x3e89fd03	0.26950845
128	0xbe8eb249	-0.27870396
129	0x3de69de9	0.11260588
130	0xbe3f8501	-0.1870308
131	0x3d6e4458	0.058170646
132	0x3dcb96a5	0.099408425
133	0xbed67a47	-0.41890165
134	0x3d81ad83	0.06331923
135	0xbe2f6dbc	-0.17131704
136	0x3cdd75b5	0.027033666
137	0x3e2c16b8	0.16805542
138	0xbe1a1f5d	-0.15051027
139	0x3d802f4c	0.06259021
140	0x3e7e3650	0.24825406
141	0xbb97a9bc	-0.004628388
142	0x3e63fc71	0.22264268
143	0xbe9bf2e0	-0.30458736
144	0xbe28113a	-0.16412821
145	0x3e65f1ef	0.22455572
146	0x3d94f15c	0.07272598
147	0x3d7959ef	0.060876783
148	0x3e7117c1	0.23544218
149	0xbd1f9556	-0.038960777
150	0xbdd3628e	-0.10321532
151	0x3ea30c90	0.31845522
152	0xbe4652d8	-0.1936754
153	0xbe9869aa	-0.29768115
154	0xbe291377	-0.16511331
155	0xbea8d9d1	-0.3297868
156	0xbe8cba54	-0.27485907
157	0x3d8e8013	0.06958022
158	0x3e4eba83	0.20188336
159	0xbcb5558d	-0.02213552
160	0x3dab7be7	0.08373242
161	0x3d54fb07	0.05199721
162	0xbcd8c06e	-0.026458945
163	0xbe801a14	-0.25019896
164	0xbe88ad86	-0.26694888
165	0x3e407be1	0.18797256
166	0x3e875e95	0.26439348
167	0xbe410b4e	-0.18851969
168	0x3dc3c680	0.09559345
169	0x3f04bde1	0.5185223
170	0xbf017397	-0.50567
171	0xbe038e03	-0.12847142
172	0x3e333f70	0.17504668
173	0x3e98dba3	0.2985507
174	0xbe5719e1	-0.21005966
175	0xbea93333	-0.33046874
176	0x3cf2a950	0.02962175
177	0x3dfa4c15	0.12221543
178	0xbcf6c87b	-0.030124893
179	0x3e17f675	0.1484011
180	0x389c8666	7.463693e-05
181	0x3d8ad5bb	0.06779047
182	0x3e75dd7c	0.24010271
183	0xbc85731d	-0.016290242
184	0xbe1acdf5	-0.15117629
185	0xbd413b24	-0.04717554
186	0x3e927379	0.28603724
187	0xbe00aa8e	-0.12565061
188	0x3e30b42c	0.1725623
189	0xbe1f86bc	-0.15578741
190	0xbe86f65d	-0.26359835
191	0x3e7df582	0.24800685
192	0x3dcafa50	0.099110246
193	0xbccc2ee3	-0.024924701
194	0x3e90b711	0.2826467
195	0x3e93ea3f	0.28889653
196	0xbf07f175	-0.5310281
197	0x3ebdd45e	0.37076086
198	0x3d268d30	0.04066199
199	0xbea6c53e	-0.3257236
200	0xbd9032f0	-0.070409656
201	0x3dcf97ce	0.10136376
202	0xbda79e96	-0.08184545
203	0xbd36b23a	-0.044603564
204	0xbe936e38	-0.28795028
205	0xbec91399	-0.39272764
206	0x3f018f1f	0.5060901
207	0x3ea020ab	0.31274924
208	0x3d0a7dcf	0.033811387
209	0x3dd2807f	0.10278415
210	0x3e058aa0	0.13041162
211	0xbe1614f4	-0.1465643
212	0xbe18ae10	-0.1491015
213	0xbd44c9df	-0.04804408
214	0xbefe587e	-0.4967689
215	0x3d0b4c0b	0.034008067
216	0x3eb4de7a	0.35325986
217	0xbd47d1a6	-0.04878392
218	0xbdc3c4d7	-0.095590286
219	0xbe7598bc	-0.23984045
220	0x3eb92a60	0.36165142
221	0xbe9805f7	-0.2969205
222	0xbe04884b	-0.12942617
223	0xbd8c2a89	-0.068440504
224	0x3dd54814	0.104141384
225	0x3dd8718b	0.105685316
226	0x3b7766d2	0.0037750495
227	0x3ea0255c	0.31278503
228	0xbd2e5949	-0.042565618
229	0x3e1e6646	0.15468702
230	0x3ead651d	0.33866206
231	0x3e2789fb	0.16361229
232	0xbedebc4a	-0.43503028
233	0x3e8d8b8d	0.2764553
234	0xbd0ac432	-0.033878513
235	0x3e1553e3	0.14582781
236	0xbe853084	-0.26013577
237	0x3ac7dd71	0.001524849
238	0x3d7ca6ca	0.0616825
239	0xbe2176e3	-0.15768008
240	0xbdc9a940	-0.09846735
241	0xbe023a8b	-0.12717645
242	0x3e81ad83	0.2532769
243	0xbe819051	-0.25305417
244	0xbd814ea2	-0.06313826
245	0x3cd6a570	0.026201934
246	0xbe29f787	-0.1659833
247	0x3e0355f1	0.12825753
248	0x3e81881b	0.25299153
249	0x3e7a75b1	0.24458958
250	0xbd2aa8e0	-0.041664958
251	0xbd1a1925	-0.037621636
252	0xbe7273a5	-0.23676927
253	0x3cb92d7e	0.0226047
254	0x3e2b28e5	0.16714819
255	0x3e9f5063	0.31116018

layer.w4.bias f4 [32]
0	0xbd5b61bb	-0.05356
1	0xbd3adf45	-0.045623083
2	0x3eaba081	0.33520892
3	0xbe67d3c7	-0.2263938
4	0xbe4c32f0	-0.19941306
5	0xbdfc41ac	-0.123172134
6	0xbd793949	-0.060845647
7	0x3d50185b	0.050804477
8	0x3dea26f1	0.11433209
9	0xbd51bafd	-0.051203717
10	0xbe05e835	-0.13076861
11	0x3e32e819	0.1747135
12	0x3e0257c4	0.12728792
13	0x3e4a7b20	0.19773531
14	0xbe40c034	-0.1882332
15	0x3d0e8b2f	0.034800705
16	0xbe826d8e	-0.2547421
17	0x3d9cb97c	0.07652566
18	0x3e9a4ae0	0.3013525
19	0x3ea97952	0.33100373
20	0x3db50c69	0.08840258
21	0x3e5b7052	0.21429566
22	0x3d4f0abe	0.050547354
23	0x3e5ce06f	0.2156999
24	0x3e06f2d4	0.13178569
25	0xbd1feda8	-0.039045006
26	0xbe37ff46	-0.17968473
27	0x3e85142e	0.25991958
28	0x3d6c1c24	0.057644024
29	0xbea50143	-0.32227525
30	0xbd492d8e	-0.04911571
31	0xbe30db01	-0.17271043

layer.w5.weight f4 [32, 1]
0	0xbed589a9	-0.4170659
1	0xbf4da550	-0.8033037
2	0xbeb44d16	-0.35215062
3	0x3f4c3f77	0.7978434
4	0xbf2e925f	-0.68192095
5	0xbf385245	-0.72000533
6	0x3f021d48	0.5082593
7	0x3da8411c	0.08215544
8	0xbeee5e82	-0.4655648
9	0x3f420109	0.7578283
10	0xbddbf71d	-0.107404925
11	0xbf072477	-0.52790016
12	0xbe2c2511	-0.16811015
13	0xbec7be12	-0.390122
14	0x3e65e900	0.22452164
15	0xbf35c814	-0.7100842
16	0xbf615886	-0.880257
17	0x3f338e38	0.70138884
18	0xbf1b39e6	-0.6063522
19	0x3eac4a93	0.33650646
20	0xbf0ec882	-0.557747
21	0x3ef09e96	0.4699599
22	0xbe17f88a	-0.14840904
23	0x3f71b8ed	0.944228
24	0x3eb6e12d	0.3571867
25	0x3e942fb4	0.28942645
26	0xbee5417c	-0.44776523
27	0x3b3619a4	0.002778628
28	0x3ebc7ac2	0.36812407
29	0x3f64949c	0.8928926
30	0x3ef703ec	0.4824518
31	0xbdbfdea1	-0.09368635

layer.w5.bias f4 [32]
0	0xbf25c672	-0.6475593
1	0x3f1d6aaf	0.6149091
2	0x3f17b0de	0.5925425
3	0x3c811fd5	0.015762249
4	0xbf1cc14d	-0.61232454
5	0xbf33f6b3	-0.7029831
6	0xbecd4fe9	-0.4010003
7	0x3ec345ad	0.38139096
8	0x3e9642f7	0.29347965
9	0x3f1311e4	0.57449174
10	0xbec02c68	-0.3753388
11	0x3f5bd7c8	0.8587613
12	0x3f198cdf	0.5998058
13	0x3ede324a	0.43397743
14	0xbf47b39c	-0.7800844
15	0xbe61ed8f	-0.22063278
16	0x3f6a9ed3	0.91648597
17	0x3f2433da	0.6414162
18	0x3e3d0621	0.18459369
19	0x3dbda46e	0.09259878
20	0x3f27f2d1	0.65604883
21	0xbf1060c2	-0.5639764
22	0xbf556517	-0.83357376
23	0x3dc1fa2c	0.094715446
24	0xbf3cfbe3	-0.7382185
25	0x3e342253	0.17591219
26	0xbf49c87c	-0.7882154
27	0x3e40cb1c	0.1882748
28	0xbf783ce9	-0.9696794
29	0xbf756994	-0.95864224
30	0xbd6d63b2	-0.057956405
31	0x3e45bb0f	0.19309638
