runs/3_agents_50000_episodes_graph/models/critic.pth (torch, 19272 bytes, 3 tensors)

fc1.weight f4 [128, 32]
0.023394175 -0.02016066 0.18500085 0.00082791515 -0.064797 0.09321061 0.10400597 0.085407175
-0.040625155 -0.047136623 -0.025897652 -0.11729352 -0.15746877 -0.10223319 0.21219091 0.17096259
-0.0921493 0.27620855 -0.117756054 -0.19333446 -0.06702141 -0.12715773 0.11845325 -0.03548112
-0.11699405 -0.016096104 0.015444553 -0.16322416 -0.059512537 -0.14714271 -0.029720033 -0.13751248
-0.12187963 -0.058183834 0.17597225 0.0971645 0.25445065 0.029586405 0.048899222 -0.03348165
0.047061164 -0.17911515 -0.023242155 -0.00066236994 -0.099105015 0.14391881 -0.18860218 -0.21690571
0.2229726 -0.18286124 0.15607966 -0.2404967 0.0663786 -0.09691185 -0.1574876 0.054167584
-0.11108235 0.23303619 0.011826638 0.040712524 -0.20386583 0.10711593 0.20503356 -0.1791943
0.19343737 0.17402177 0.008767635 -0.07309474 -0.041284844 -0.039745804 -0.028462818 0.05255061
-0.131644 -0.06867211 -0.19403474 0.20373568 0.009722447 0.124615856 -0.02483978 -0.13910612
0.06271293 -0.0941435 -0.13996272 0.042910527 0.028704954 -0.028688889 -0.05398196 0.21353355
0.23278189 -0.1534974 0.037135806 0.059824295 -0.14879873 0.16917607 0.013436177 -0.076293506
-0.040245745 0.24201113 0.1403267 0.082155325 -0.22548644 -0.019893166 0.007260377 -0.06830184
-0.11950808 0.13888113 -0.14434 -0.07095798 0.18500565 0.108320445 0.051554628 -0.19952853
-0.07324155 -0.084120385 -0.20549561 -0.13121474 -0.14123219 0.15066752 -0.1360287 0.030031815
0.121680185 -0.21011376 0.059040803 0.1753344 -0.009196215 0.17026405 -0.15246458 0.1652288
-0.19443104 -0.14091185 -0.2777593 0.26975027 0.18094905 0.029928576 0.035409987 0.10060403
0.018126272 -0.02447838 -0.037664015 0.13562904 0.12876065 0.22520901 -0.09516173 0.18797408
-0.11313338 0.24334759 0.08174804 0.029802335 -0.13462481 -0.2426392 0.15596232 0.20081906
0.13198589 -0.083272934 0.09060139 -0.05373285 0.079610735 0.15754469 0.18735489 -0.02854113
0.16932963 -0.23979813 0.1421674 -0.031912524 0.20804292 0.06678974 -0.13177739 0.12888226
0.18060298 -0.11756215 -0.1836548 -0.21914671 0.084024884 0.10902209 -0.16367537 -0.11928432
0.20538233 -0.39151818 -0.039646808 -0.116494484 0.19377445 0.031067073 -0.11954562 -0.18357593
0.22783995 0.28794459 -0.07701564 -0.16895987 0.10380089 -0.10488264 0.0642618 0.08386724
0.058496267 0.068131745 -0.19484937 0.083708845 -0.09142743 -0.13433933 -0.10083355 0.11674936
-0.09386959 0.03525187 0.0338843 0.057093494 -0.13348207 0.09493889 -0.0008262701 -0.07356989
0.03157237 -0.09863508 0.1603129 0.08648519 -0.12768286 0.041504133 -0.16286665 -0.17730069
-0.24591468 -0.13094026 0.15808016 0.054305915 0.01340306 0.12140608 0.18961598 0.1418157
-0.19029813 -0.265938 0.15169436 0.05998319 -0.09535118 -0.121861145 0.10082885 0.10927749
0.25304386 0.06436646 0.015068019 0.12306772 0.11503003 0.17459692 0.08659831 0.28622872
-0.16523482 0.2031012 -0.014513688 -0.030137751 0.0044219503 0.011011164 -0.21720001 0.25545654
-0.07035309 -0.017261961 0.070228994 0.08218627 0.024295619 0.027763443 0.00594266 -0.10852273
00000000: 24a5 bf3c f827 a5bc dd70 3d3e 7208 593a
00000010: 4ab4 84bd 34e5 be3d 1501 d53d f5e9 ae3d
00000020: 9066 26bd 5512 41bd 5027 d4bc 9637 f0bd
00000030: 7e3f 21be a25f d1bd 9348 593e d110 2f3e
00000040: c6b8 bcbd 356b 8d3e 162a f1bd 78f9 45be
00000050: 8542 89bd a335 02be 9e97 f23d a754 11bd
00000060: 949a efbd fadb 83bc 270b 7d3c 3c24 27be
00000070: 6bc3 73bd 94ac 16be 6d77 f3bc 12d0 0cbe
00000080: 079c f9bd 2c52 6ebd 1232 343e 2efe c63d
00000090: 5b47 823e 305f f23c 8d4a 483d 0e24 09bd
000000a0: 35c3 403d f669 37be 5566 bebc e5a2 2dba
000000b0: 92f7 cabd 745f 133e ee20 41be 881c 5ebe
000000c0: ee52 643e fa3f 3bbe 59d3 1f3e c444 76be
000000d0: 81f1 873d b879 c6bd 6e44 21be d4de 5d3d
000000e0: 257f e3bd 0aa1 6e3e 84c4 413c 2dc2 263d
000000f0: 34c2 50be 995f db3d 51f4 513e b67e 37be
00000100: 7214 463e c332 323e 20a6 0f3c b2b2 95bd
00000110: 4c1a 29bd 7fcc 22bd db2a e9bc 4f3f 573d
00000120: afcd 06be f7a3 8cbd 0bb1 46be 16a0 503e
00000130: e64a 1f3c 9936 ff3d cb7c cbbc d671 0ebe
00000140: a36f 803d 4fce c0bd 6352 0fbe f3c2 2f3d
00000150: a726 eb3c f604 ebbc 301c 5dbd 8aa8 5a3e
00000160: 605e 6e3e 6c2e 1dbe b71b 183d 520a 753d
00000170: b25e 18be 7e3c 2d3e 6923 5c3c c53f 9cbd
00000180: b9d8 24bd c4d1 773e cdb1 0f3e 0d41 a83d
00000190: ebe5 66be fef6 a2bc 75e8 ed3b d6e1 8bbd
000001a0: a7c0 f4bd db36 0e3e ddcd 13be 6b52 91bd
000001b0: 1f72 3d3e 1cd7 dd3d f22a 533d 3551 4cbe
000001c0: aaff 95bd 4f47 acbd 716d 52be 285d 06be
000001d0: 2c9f 10be 9648 1a3e 1c4b 0bbe 4805 f63c
000001e0: 7633 f93d 1028 57be c5d4 713d dc8a 333e
000001f0: b9ab 16bc b359 2e3e ad1f 1cbe bd31 293e
00000200: ee18 47be 324b 10be 7836 8ebe b51c 8a3e
00000210: b54a 393e c62c f53c 100a 113d 7c09 ce3d
00000220: 8c7d 943c e286 c8bc 9545 1abd 57e2 0a3e
00000230: d5d9 033e 319d 663e 27e4 c2bd 477c 403e
00000240: 79b2 e7bd 1c30 793e 846b a73d 0724 f43c
00000250: 16db 09be 6976 78be 96b4 1f3e 83a3 4d3e
00000260: 4f27 073e 008b aabd 398d b93d fa16 5cbd
00000270: f40a a33d 6553 213e f6d9 3f3e 16cf e9bc
00000280: bf64 2d3e a48d 75be 5594 113e b5b6 02bd
00000290: 3409 553e 0fc9 883d a7f0 06be b6f9 033e
000002a0: fdef 383e 6dc4 f0bd 0110 3cbe ff67 60be
000002b0: 3d15 ac3d f946 df3d 849a 27be 564b f4bd
000002c0: bf4f 523e 1275 c8be b164 22bd a994 eebd
000002d0: cf6c 463e 6080 fe3c 56d4 f4bd 54fb 3bbe
000002e0: e04e 693e 796d 933e 60ba 9dbd d103 2dbe
000002f0: 9095 d43d b6cc d6bd b19b 833d 96c2 ab3d
00000300: c899 6f3d a888 8b3d 9886 47be 8b6f ab3d
00000310: 4e3e bbbd 4090 09be d281 cebd 4a1a ef3d
00000320: b33e c0bd 4464 103d 44ca 0a3d deda 693d
00000330: 86af 08be 526f c23d 0c9a 58ba cfab 96bd
00000340: 0852 013d 3001 cabd 1129 243e 261f b13d
00000350: 4cbf 02be 3d00 2a3d 84c6 26be 508e 35be
00000360: 0fd1 7bbe 3415 06be c4df 213e e16f 5e3d
00000370: 8298 5b3c c0a3 f83d b12a 423e 2338 113e
00000380: 83dd 42be 0729 88be c455 1b3e efb0 753d
00000390: 7b47 c3bd 5692 f9bd 5b7f ce3d e0cc df3d
000003a0: f78e 813e 90d2 833d dadf 763c ee0a fc3d
000003b0: dd94 eb3d 89c9 323e 745a b13d 928c 923e
000003c0: 5133 29be c3f9 4f3e d2ca 6dbc 72e3 f6bc
000003d0: 02e6 903b 2b68 343c ae69 5ebe 33cb 823e
000003e0: 4815 90bd f568 8dbc 38d4 8f3d 4651 a83d
000003f0: 9b07 c73c 2970 e33c a5ba c23b 2a41 debd

fc1.bias f4 [128]
0.14648099 0.163001 -0.026744114 -0.07057689 -0.05156227 0.08539979 0.017623616 0.09515988
-0.23544623 -0.035067007 0.10837122 -0.113203876 -0.03662378 -0.054426987 0.16966388 0.33957395
0.11910831 0.0024931373 0.0416563 0.020078799 -0.15396915 -0.057116076 -0.077158794 0.17258963
0.22697109 0.11665334 -0.14951651 0.17510524 0.23589529 -0.061751448 0.07521834 0.069363125
-0.11624217 -0.048940834 0.08743351 0.03721636 0.21717301 0.10949958 0.11171087 0.21549974
0.13206708 0.061942916 -0.08987617 0.18123135 0.03805136 -0.0793616 0.10781928 0.17763843
0.12673905 0.13670862 0.23287444 0.20888995 0.07243512 0.21051797 0.14667246 0.03206962
0.07370081 -0.09816747 0.1097585 0.19981092 -0.035114132 0.07790107 -0.100253314 -0.008674853
0.09255905 0.07119109 0.07971395 0.05022573 0.1908436 0.17501995 -0.0071183494 0.115790576
0.16056763 -0.06364912 0.1540163 0.16627593 0.0014527419 0.24504586 0.014890006 0.12682766
0.2920686 0.18390727 0.29740483 0.0024807707 -0.059377022 0.30012083 0.09162855 0.110368975
0.1842146 0.028722415 0.10606974 0.063462235 0.22614422 0.12645584 0.21376207 -0.11779283
-0.040146172 -0.08300883 0.08656869 0.14411534 0.08771236 0.012539582 -0.02493848 0.0468918
-0.14289477 -0.05889293 -0.14688584 0.12430158 0.090815134 0.08052356 0.043067604 -0.024071291
0.21649338 0.02278212 0.23001912 0.09567535 -0.060460098 0.16980183 0.15954986 -0.043517288
-0.0209547 0.23269968 -0.03680289 0.11675505 0.10463725 0.28578684 0.14423352 0.0013291779
00000000: 1dff 153e bce9 263e 7916 dbbc 9e8a 90bd
00000010: f532 53bd 16e6 ae3d 675f 903c 2fe3 c23d
00000020: d118 71be 6ca2 0fbd bbf1 dd3d 6fd7 e7bd
00000030: d102 16bd d5ee 5ebd 5ebc 2d3e a3dc ad3e
00000040: 0fef f33d e763 233b cc9f 2a3d 4b7c a43c
00000050: 17aa 1dbe 8cf2 69bd 6e05 9ebd 56bb 303e
00000060: 1c6b 683e f2e7 ee3d db1a 19be ca4e 333e
00000070: 898e 713e 16ef 7cbd 130c 9a3d 410e 8e3d
00000080: 6010 eebd 2f76 48bd 5710 b33d 2f70 183d
00000090: 9a62 5e3e 5141 e03d abc8 e43d f7ab 5c3e
000000a0: 983c 073e dbb7 7d3d ff10 b8bd b694 393e
000000b0: bedb 1b3d 5688 a2bd 5bd0 dc3d d9e6 353e
000000c0: e2c7 013e 58fd 0b3e a376 6e3e 3fe7 553e
000000d0: dd58 943d 0692 573e 4e31 163e 6f5b 033d
000000e0: 73f0 963d 070c c9bd 10c9 e03d 3c9b 4c3e
000000f0: d6d3 0fbd 998a 9f3d 9c51 cdbd f820 0ebc
00000100: 998f bd3d a2cc 913d 1141 a33d 7fb9 4d3d
00000110: 816c 433e 6e38 333e 0b41 e9bb 9c23 ed3d
00000120: d76b 243e 785a 82bd 73b6 1d3e 3d44 2a3e
00000130: ee69 be3a 4ded 7a3e 36f5 733c 1cdf 013e
00000140: 048a 953e 3052 3c3e 7245 983e 6d94 223b
00000150: 5235 73bd 70a9 993e c0a7 bb3d 2109 e23d
00000160: c1a2 3c3e 454b eb3c 183b d93d 7df8 813d
00000170: 5a92 673e a47d 013e 72e4 5a3e 5e3d f1bd
00000180: 5070 24bd 8900 aabd ed4a b13d f992 133e
00000190: 8aa2 b33d d272 4d3c c94b ccbc 9e11 403d
000001a0: 0253 12be b739 71bd 3e69 16be d491 fe3d
000001b0: 49fd b93d 89e9 a43d a867 303d 2831 c5bc
000001c0: 71b0 5d3e 92a1 ba3c 228a 6b3e 70f1 c33d
000001d0: 02a5 77bd 88e0 2d3e 0a61 233e 2f3f 32bd
000001e0: 31a9 abbc d348 6e3e a1be 16bd 461d ef3d
000001f0: 0e4c d63d a752 923e f4b1 133e cf37 ae3a

fc2.weight f4 [1, 128]
-0.1463066 0.22637542 0.20130512 0.19428426 -0.23229913 0.22258414 -0.1973217 -0.21287258
0.18337755 -0.12734719 0.28330824 -0.08510132 -0.14044985 -0.15887178 0.26669833 0.041300885
-0.14430742 0.24373014 -0.093774475 -0.15193953 0.16886179 0.14725873 0.22750124 0.1660398
-0.2280238 0.32022813 0.15828969 -0.3024683 -0.16830036 -0.20236017 -0.13065572 0.20267053
-0.14039242 -0.15172875 -0.17180893 -0.07579542 0.09645082 -0.0919129 -0.1516819 0.2972558
-0.16164275 -0.14995761 0.26581755 -0.13865033 -0.18208186 0.23395196 0.053878006 -0.2618937
-0.15289636 -0.1128481 -0.17823139 -0.12406609 -0.1001756 -0.22199613 -0.20793004 0.13339591
0.21406049 0.20386116 0.27129722 -0.1686381 -0.070062555 0.28322703 -0.08438821 -0.14251111
-0.15937208 -0.19860855 0.21102549 0.15752867 -0.23006818 0.2705128 0.09457624 -0.12827738
-0.18016341 0.14661735 0.24365446 -0.12509455 -0.14127824 -0.21088316 -0.22963984 -0.15612896
-0.09758616 0.2255826 -0.13399352 -0.18109703 0.19317554 -0.12784585 0.20718428 -0.19463938
-0.18161494 -0.23521394 -0.21541198 -0.13248275 -0.12626731 -0.24441795 -0.045792643 0.19105804
-0.19574033 0.221836 -0.2516877 0.15664929 -0.2198228 -0.18625629 -0.2734393 -0.12287544
-0.19489856 0.19748855 -0.07183231 -0.18430461 -0.119934544 0.16221833 -0.15790683 0.25150564
-0.2612436 -0.18517528 -0.112467274 0.2175335 0.2842557 0.23234466 0.21022339 -0.112842515
-0.16661969 0.21541171 -0.18614459 -0.1941288 -0.15359591 -0.25489667 -0.22774874 -0.18233557
00000000: 66d1 15be f5ce 673e ee22 4e3e 74f2 463e
00000010: d3df 6dbe 19ed 633e b30e 4abe 45fb 59be
00000020: 53c7 3b3e 4d67 02be c70d 913e 9a49 aebd
00000030: 16d2 0fbe 49af 22be af8c 883e 1e2b 293d
00000040: 53c5 13be 6594 793e d50c c0bd 0996 1bbe
00000050: 1bea 2c3e feca 163e 16f6 683e 5606 2a3e
00000060: 127f 69be f1f4 a33e b116 223e 20dd 9abe
00000070: ee56 2cbe 8137 4fbe 9dca 05be dd88 4f3e
00000080: 08c3 0fbe c85e 1bbe aeee 2fbe a13a 9bbd
00000090: 0288 c53d d53c bcbd 8052 1bbe ea31 983e
000000a0: ad85 25be 7d8e 19be 3d19 883e 5afa 0dbe
000000b0: ab73 3abe 1a91 6f3e 2faf 5c3d ee16 86be
000000c0: dd90 1cbe e81c e7bd 4a82 36be 5d16 febd
000000d0: dd28 cdbd f452 63be 9deb 54be f098 083e
000000e0: ac32 5b3e fbc0 503e 78e7 8a3e 77af 2cbe
000000f0: f57c 8fbd 2203 913e bad3 acbd 6fee 11be
00000100: 6f32 23be 0a60 4bbe 1117 583e 324f 213e
00000110: fe96 6bbe a780 8a3e 30b1 c13d 255b 03be
00000120: c27c 38be dc22 163e 8e80 793e c918 00be
00000130: 3eab 10be c1f1 57be b526 6bbe 45e0 1fbe
00000140: 41db c7bd 20ff 663e 9935 09be 8071 39be
00000150: cfcf 453e 06ea 02be 1e28 543e 8c4f 47be
00000160: 44f9 39be ecdb 70be f594 5cbe 8fa9 07be
00000170: 384c 01be b348 7abe 1191 3bbd b8a4 433e
00000180: 2770 48be fa28 633e 36dd 80be ac68 203e
00000190: 3a19 61be f8b9 3ebe 3c00 8cbe 1ea6 fbbd
000001a0: 7d93 47be 703a 4a3e d11c 93bd 59ba 3cbe
000001b0: 3ea0 f5bd 901c 263e 54b2 21be 59c5 803e
000001c0: b9c1 85be 979e 3dbe 3e55 e6bd 1ac1 5e3e
000001d0: f789 913e c2eb 6d3e cd44 573e fa19 e7bd
000001e0: 5a9e 2abe e394 5c3e b09c 3ebe b3c9 46be
000001f0: 3f48 1dbe d181 82be f736 69be 2db6 3abe
